notebooks/checkpoint/nmnist_rnn_lsm_4096/fc_ho.weight.npz (npz, 164104 bytes, 1 tensors)

arr_0 f4 [10, 4096]
00000000: a57b 603d 4712 003d 4ac0 623c c223 1f3d
00000010: cbea d6bc 1216 27bd edab 7cba 29c1 6cbd
00000020: a7ed ae3c ad67 ca3c 63c3 183d 8d0d 08bb
00000030: 6091 353c ab14 693c 4a0a b8b8 b99b 56be
00000040: ea8d 743d ae1d 0cbc 49c6 953c e7a5 f9bb
00000050: 0694 093d d984 c33d 399d 98bd 6de1 473d
00000060: 5927 493d 1b3a d13c df0e bc3b f884 34b9
00000070: 80b7 f2bd 8387 023c 4feb 97bc aa92 c8bc
00000080: 56cd 603d 74fb 1c3c 5bdb bcba 26b0 d1ba
00000090: 6b7e 1cbd 2de7 843d 8b93 eebc c179 6abc
000000a0: 9062 5abd c7e3 193c 95a2 8abd 6685 97bb
000000b0: 1889 ccbc 139d b5bc cbb6 86bc c32d e2bc
000000c0: 9eb6 733d a790 06bc 105c 56bc 1e3b 76bd
000000d0: b7dd 8cbc ddfe 723d 4ff3 893d 485e b7bc
000000e0: cc86 cd3c 1077 e1bc 529b d1bd 8e0a 3a3d
000000f0: 7815 88bd 626e 37bb 7886 babd 32f2 5f3d
00000100: 99e9 c63c cc40 38bc cc0b 80bb 3f97 acbc
00000110: 25b2 1d3d 162e 83bc 4a23 65bc 7e53 0a3d
00000120: c1ea a4bc b049 dbbc a19c e1bc a79d 97bd
00000130: 248b d63c e1f8 383c 3431 093c 8d8b e63c
00000140: 1607 3d3d 58cb d9bd 6b02 40bb c01f 5c3b
00000150: 6e78 b1bc f67f b13c 4421 673c 54d7 15bc
00000160: 2a64 533c 5293 553c 3f7e eb3c f4d0 0fbc
00000170: 7123 d33b a516 fcbc f57c 9bbc a106 ddbb
00000180: c039 2ebc 7a34 b9bd 4d73 a0bd bf7a 0338
00000190: b271 9f3d dbba 95bc 358a 883d cba9 763d
000001a0: 05b9 87bd a294 acbc 542a 683b 1cef babd
000001b0: 2901 24bd 69ad 2b3c ba79 5abd 3dfc 21bd
000001c0: f887 a0bd 13ca 5bbc 2e54 02bd 6f14 4c3c
000001d0: 5ba0 a0bb 1587 573d d743 28bd 2660 e73b
000001e0: 8aef e63c 06f7 70bd 274f 8a3b 6356 7bbc
000001f0: f02e ad3c d794 19bb e076 b6bc e720 0e3d
00000200: 08ee c9b9 50c7 c03c cd9b 993c 8704 16bd
00000210: 794d 4e3d 2609 6fb9 e2d2 73bd d2be 90bc
00000220: c172 85bc bb74 cdbc dd7c 813a efb4 e13c
00000230: 33f2 093c e770 a4bb 98b1 ab3b 8ba6 d9ba
00000240: 64dc b43a 9129 0dbd 73ca 683c 3635 5b3d
00000250: dc3d 10bd cd80 e7bc 5511 b53c 57b0 3cbc
00000260: a50b 033b c7b7 73bd a28c d0bc 9675 57bb
00000270: 27ce c73c b429 89bc 11f9 003d 979e 92bd
00000280: 3215 5a3c f129 f0bb 89c9 143d 34c3 24ba
00000290: fb4b 4dbd faef e73a fc5c cbbb fb8d 723c
000002a0: 739e 30ba 3d5c 313d 43f0 4bbb c689 953b
000002b0: 91ef 603d 7a17 cebc 1b6b aebd 63b5 d43c
000002c0: 3807 8e3d 828d bbbd c3a5 80bd 29f1 363c
000002d0: 2518 0fbd f7ce 7bbd 0fe3 46bd b911 ccbc
000002e0: 9ad1 073c 9b11 283c 60c8 173d 451d e73c
000002f0: c3f5 79ba 3a3a ddbc 0bfb 7b3c d10a 10bd
00000300: ee7b a83c 0ebc 353d a076 7abd 61ff 12bd
00000310: d537 3e3d 0dd4 603b 9eed 573c 7c92 8dbc
00000320: 768f 0cbe f529 18bd a825 43bd f26e c0bc
00000330: b83c fb3c 5b9c 203b 931c 86bc 24fd 2fbc
00000340: db41 94bb 632d e4bc 362a afbc 6ed6 f13c
00000350: 1c1a bb3c caa4 ebbc 47c4 b6bc 009b 963c
00000360: 725e cdbc 3d94 a33c 0cd7 ffbb 5cdc 963b
00000370: 3aea ebbc 0bb2 bc3c 4e42 0dbd 32a3 73bc
00000380: f859 893d 236b b03c d1c8 6b3c 409f e43c
00000390: 4521 64bd d9c5 d2bc f010 9fbb 6ad7 10bd
000003a0: efc0 14bc 854d 223c c512 18bc 36c1 dabb
000003b0: 6815 2c3c 788b 10be d75f aabd 5df4 3dbc
000003c0: 01a0 bdbd dca1 7a3d fadd 9bbc 4a44 16bc
000003d0: f692 19bd 9299 bcbd 8589 ceba 0eec d33d
000003e0: 4934 803d 3d9e d13c 5b47 a0bc 37b9 87bd
000003f0: 1844 173d f607 d43b 36a0 373d a399 263c
0.054805417 0.03126743 0.013839791 0.03885246 -0.026235005 -0.040792532 -0.0009638656 -0.0578014
0.021353556 0.02470764 0.03729571 -0.002076003 0.011082023 0.014226119 -8.77572e-05 -0.20957841
0.059705652 -0.008551998 0.018283026 -0.007618654 0.03358843 0.09546823 -0.07451863 0.048798967
0.04910979 0.025540402 0.0057390775 -0.00017215672 -0.11851406 0.007966879 -0.018544821 -0.024483997
0.054883324 0.0095814355 -0.0014408635 -0.0015997931 -0.0382065 0.06489406 -0.029123088 -0.014311255
-0.053316653 0.009392685 -0.06769291 -0.0046240566 -0.024967715 -0.022169625 -0.016444584 -0.027609712
0.05950033 -0.008213199 -0.013083473 -0.060114972 -0.017195566 0.059325088 0.067358606 -0.022383824
0.02508869 -0.027522594 -0.10234703 0.045420222 -0.0664472 -0.0027989377 -0.09107679 0.054674335
0.02428131 -0.0112459175 -0.0039076563 -0.021068214 0.03849997 -0.016013186 -0.013985464 0.03377103
-0.02013147 -0.026768535 -0.027540507 -0.07403117 0.026189394 0.011289806 0.008373547 0.028142715
0.046149336 -0.10634488 -0.0029298316 0.003358826 -0.02166387 0.021667462 0.014107052 -0.0091455765
0.012902299 0.013035612 0.028746722 -0.008777846 0.006443434 -0.030772517 -0.018980483 -0.006745175
-0.010633886 -0.09043212 -0.07834492 3.134715e-05 0.077853575 -0.018277576 0.06666986 0.06022052
-0.066270865 -0.021066967 0.003542562 -0.09127638 -0.04004017 0.010478356 -0.053338744 -0.039547194
-0.07838434 -0.0134148775 -0.03181856 0.012456044 -0.0049019284 0.05261906 -0.041080322 0.0070610223
0.028190393 -0.05882933 0.0042208615 -0.01534042 0.021140546 -0.0023434663 -0.02227348 0.034699347
-0.00038515055 0.02353254 0.01875105 -0.03662541 0.050366852 -0.00022796224 -0.059527285 -0.017669115
-0.01629007 -0.025080075 0.0009879131 0.027552096 0.008419561 -0.005018342 0.0052396767 -0.001660542
0.0013798592 -0.03446347 0.014208424 0.053517543 -0.035215244 -0.02825966 0.022102991 -0.011516652
0.0019995954 -0.059501436 -0.025457684 -0.0032876483 0.024390293 -0.016743518 0.03148753 -0.07159155
0.013310717 -0.0073292186 0.03632501 -0.0006285191 -0.05012129 0.001769542 -0.006206153 0.014804359
-0.0006737478 0.043300856 -0.003111855 0.004563543 0.05491597 -0.025157679 -0.085165225 0.025965398
0.069349706 -0.0915785 -0.062816165 0.0111658955 -0.034935135 -0.061476674 -0.048556384 -0.024910795
0.008289719 0.010258104 0.037056327 0.028212199 -0.00095352175 -0.027005304 0.0153796775 -0.035166565
0.020566907 0.044368796 -0.061148286 -0.03588808 0.046439964 0.003430608 0.013179211 -0.017281763
-0.13726601 -0.03714939 -0.047643334 -0.023490403 0.030668601 0.0024507258 -0.016371047 -0.010741506
-0.004524452 -0.027853673 -0.021382432 0.029521193 0.022839598 -0.028765101 -0.02231039 0.018384457
-0.02506945 0.019968146 -0.007807618 0.0046039056 -0.028798211 0.023034116 -0.03448706 -0.014870452
0.06706613 0.021535462 0.01439114 0.027907968 -0.05569579 -0.025729107 -0.004854314 -0.035361685
-0.009079202 0.009906177 -0.009281819 -0.0066758646 0.0105031505 -0.14115703 -0.08319061 -0.011593905
-0.09259034 0.061189517 -0.019026745 -0.009171555 -0.03749367 -0.09208979 -0.0015757537 0.10347758
0.062599726 0.02558815 -0.019565275 -0.06627124 0.036930174 0.0064706756 0.044830523 0.010168466
