notebooks/checkpoint/shd_rnn_512_adp/fc_ho.weight.npz (npz, 41224 bytes, 1 tensors)

arr_0 f4 [20, 512]
000000 fa c4 80 bb 00 9e 6a bc 18 c8 ec 3c c5 16 3b 3c
       -0.0039297314 -0.014319897 0.028904006 0.011419003
000010 d4 71 12 bd 8c 36 13 3d 05 85 a4 bc 8b d8 c2 bb
       -0.035753086 0.03594069 -0.02008296 -0.005946224
000020 99 4f f9 3c eb 33 0e bd 81 56 86 bd cd f1 1b bc
       0.030433463 -0.03471748 -0.06559468 -0.009518099
000030 3b e0 e0 3c c2 9e 14 3d 19 34 df bc c5 92 e7 3c
       0.027450671 0.036284216 -0.027246522 0.028268227
000040 79 e8 a7 3c 37 18 a8 bb a0 2e 38 bd 58 9f 63 3c
       0.020496594 -0.0051298398 -0.04496634 0.013892971
000050 52 ec f7 bc dc 33 b8 3a 5d 52 ec 3c f0 5b b2 ba
       -0.030264053 0.0014053541 0.028847868 -0.0013607722
000060 41 ea 3a bb cb 91 3c 3d 7f 24 cf 3c da 13 05 bc
       -0.0028520974 0.046037477 0.025285957 -0.008122409
000070 0d ae d1 bc 92 c5 d0 bc f1 9b 5b 3c 9b 4b 05 3c
       -0.02559569 -0.025484834 0.013403879 0.0081357015
000080 ea 2d 9e bc 80 74 2f 3d 8a 50 9f 3c 50 17 bf 3c
       -0.019309003 0.042835712 0.019447584 0.023326546
000090 d0 fb c1 bc f6 62 e7 bc fd 7a 2e 3d f0 ff 2e 3d
       -0.023679644 -0.02824543 0.04259776 0.04272455
0000a0 e8 8d 56 bb 69 43 14 3c b0 5d 20 3d 2c df 68 bc
       -0.0032738391 0.009049275 0.039151847 -0.014213365
0000b0 45 72 21 3d 9c f9 8e bc e2 cc dc bc e2 6d f0 3b
       0.039415617 -0.017453007 -0.026953164 0.007337318
0000c0 0b 3b 97 bc e8 cf fc 3c 69 79 df 3c cc e6 55 bb
       -0.018460771 0.030860856 0.027279573 -0.0032638786
0000d0 1d 50 62 3b fe a4 08 bd ee 78 2c bd cf 78 0d bd
       0.0034532615 -0.033360474 -0.042107515 -0.03453904
0000e0 98 8f 63 bd 71 d1 22 3d 9c 95 2b bd 0e e8 9e bb
       -0.055556864 0.03975052 -0.041890725 -0.0048494404
0000f0 19 32 3f 3d 93 2c 3f bd a0 1a 03 bd 8d ee da b8
       0.046678636 -0.04667337 -0.032007813 -0.000104394836
000100 7e 07 4a 3c e9 2e 21 3d c5 e5 ee 3c 9b 86 0b 3d
       0.012330888 0.039351378 0.029162297 0.034063917
000110 6a 9d 69 bb 20 eb ea bc 7b ac ed bc f6 63 b1 bc
       -0.0035646805 -0.02867657 -0.02901291 -0.02165411
000120 8e ec 25 bc fd 67 0d bd cd 31 05 3d c3 fb a6 bc
       -0.0101272 -0.034523 0.032518197 -0.020383721
000130 d7 58 f9 3c b0 20 2e 3b b1 0f 18 bd c6 e1 55 3c
       0.03043787 0.0026569776 -0.03712434 0.013054317
000140 df 45 8d 3c 44 65 1a bd db f7 f7 bc 46 26 53 bc
       0.017245231 -0.03769423 -0.030269554 -0.012887543
000150 91 64 bf 3c 37 04 c0 bc b5 3f 44 3c 84 58 1f bd
       0.023363383 -0.02343951 0.01197808 -0.038902774
000160 6a 28 78 bd 5f 1e 0c bd 16 35 18 bd 4f a0 b4 bc
       -0.060585417 -0.03420865 -0.03716 -0.022049097
000170 50 bf 43 bd 3e 83 23 bd 0d 85 1a bb d9 c7 64 3c
       -0.04778987 -0.039920084 -0.002357784 0.013963663
000180 45 b3 1f 3c 01 fa 8b ba 06 46 87 bc 0e 2d cb bc
       0.009747331 -0.0010679365 -0.016512882 -0.024801757
000190 64 4a ec 3c 4d ab 17 bd e6 67 9a 3c d7 d3 be 3c
       0.028844066 -0.0370286 0.01884837 0.023294372
0001a0 21 21 af bc 2b 00 b2 3c eb b5 18 bd fb fc 22 bc
       -0.021378102 0.021728596 -0.037282865 -0.009948011
0001b0 0f e2 ea bc 1e c6 5d bb 1d 31 07 bd f3 7d b2 3c
       -0.028672246 -0.003384001 -0.033005822 0.021788573
0001c0 a4 03 6e bb 02 39 9a bc c3 68 7f bc 39 b4 c4 3c
       -0.0036318088 -0.018826012 -0.015588942 0.024011718
0001d0 d0 e6 47 bd 88 2c d9 bc bd 6b b4 bb c2 0a d6 bc
       -0.048804104 -0.026510492 -0.0055060075 -0.026128177
0001e0 99 5e d4 3c c0 a4 0f bd 34 e0 21 bc 5f 19 22 bd
       0.025924014 -0.035069227 -0.009880114 -0.039574977
0001f0 ba fa f8 3c cf 05 20 3a 23 b9 6f bc 9d 49 fc bb
       0.030392993 0.0006104381 -0.014631542 -0.007699205
000200 84 9f 89 3a 26 a3 04 bd 09 ca 2e 3b 1f 7a 03 3d
       0.001049981 -0.032382153 0.0026670715 0.032098886
000210 54 30 36 bc be 40 4d 3b 27 05 b8 3c ae 54 56 3c
       -0.011119921 0.0031319107 0.022463394 0.013081713
000220 3b ab 63 3b 80 21 60 bc 4e 4d 7f 39 e1 a5 7d bc
       0.0034739512 -0.013679862 0.00024347493 -0.015481443
000230 53 f7 05 3d 32 82 57 3c 42 a5 81 3c 47 3b de 3c
       0.03270657 0.0131536 0.015825871 0.027127875
000240 25 09 3d 3d 25 81 fe bb 6a 0b ff bc 03 2e 46 bd
       0.0461513 -0.00776686 -0.031133372 -0.048383724
000250 bd a4 82 3a a7 de 97 3c ee 22 4e bd ce 78 bd 3c
       0.0009967309 0.018538786 -0.05032628 0.023128893
000260 a2 70 c2 bc 17 ca 20 bd 59 aa 80 bc 65 9b 82 bc
       -0.023735348 -0.039255228 -0.015706228 -0.015943239
000270 07 f9 0e 3d 65 fd 4e bb 02 15 ef 3c 46 e5 09 bc
       0.03490546 -0.003158414 0.029184822 -0.008416479
000280 07 ce 27 3d 02 88 71 39 39 53 10 3d b7 ea 7e 3a
       0.040967967 0.00023034218 0.035235617 0.00097243063
000290 ae 05 80 bc be d2 05 3d e2 b6 f3 3c b0 17 bf 3c
       -0.015627708 0.032671683 0.029750291 0.023326725
0002a0 11 21 80 3c 97 b6 e9 bb 6c 20 cf bc a2 3a 12 3d
       0.015640767 -0.007132362 -0.025284015 0.035700448
0002b0 70 51 9e 3c 25 82 3b bc 85 e8 ee bc 23 2a 26 3c
       0.019325942 -0.011444603 -0.029163608 0.010141882
0002c0 68 58 9f bc 20 b3 8d bc 5d bc 85 3c 54 7b 8d bc
       -0.019451335 -0.017297328 0.01632517 -0.017270721
0002d0 44 e7 f5 bc a3 1f ca bc 69 3c 2a 3d aa 4a 51 bb
       -0.030017503 -0.024673289 0.041561518 -0.0031935372
0002e0 93 c9 fa bc e3 08 1c 3c 34 84 13 3d f1 0b 08 bd
       -0.030613696 0.009523603 0.03601475 -0.033214513
0002f0 2b ac f1 3b bb ec 57 bb a6 de c5 bc 70 a3 04 bd
       0.0073752603 -0.00329475 -0.024154019 -0.03238243
000300 fc 5e 02 bd 0c 39 a7 3b 01 30 15 3d bf b4 80 3c
       -0.031828865 0.005103236 0.036422733 0.015711186
000310 36 0f 51 bd 5c 19 c4 bb e1 7b a2 3c d0 6e 1e bc
       -0.051039897 -0.0059844684 0.01983446 -0.009669974
000320 9e 60 c7 3c 1f bd 17 bd 80 fb e2 3c 4b 50 e9 bc
       0.024338063 -0.037045594 0.027707815 -0.02848067
000330 2c 2d 62 bd 9b 1f b4 bc c5 8f 4b bc e0 de 9c 3c
       -0.05521886 -0.021987727 -0.012424414 0.019149244
000340 45 c8 bf b7 96 ff 1b 3d 0e ed 32 3c a3 a4 61 bd
       -2.2862232e-05 0.038085543 0.010920776 -0.05508865
000350 ac 89 7b 3c 90 b3 53 bc 00 28 b3 3c 6b 13 b3 bb
       0.015352648 -0.012921229 0.02186966 -0.0054649613
000360 62 c0 21 3d 85 fd 3b 3c 3f b7 fc bc d7 7f 8c bc
       0.03949011 0.011474018 -0.030849097 -0.017150803
000370 d2 d4 16 3d d1 54 9b 3c a4 31 f5 3c 1e 63 ed 3c
       0.036824055 0.018961342 0.029930897 0.028977927
000380 16 61 01 bc 59 d3 80 3c 81 48 2e 3d 2c 20 91 bc
       -0.007896682 0.015725778 0.042549614 -0.017715536
000390 3f 0a ca bc 8c 99 3a bd 52 3c 4f 3c 66 44 60 bd
       -0.024663089 -0.04555659 0.012648659 -0.05475273
0003a0 b9 e2 ec bc 91 2c 96 bc 62 9e c2 bc 9b 1f 38 3d
       -0.028916704 -0.018331798 -0.023757163 0.044952016
0003b0 d5 e6 18 3d 12 ad 04 3b e5 d0 cf 3c a8 e5 8d 3c
       0.037329514 0.002024476 0.025368163 0.017321423
0003c0 da c9 14 3d 83 47 1e bd 60 66 61 3c 00 fc 1b bd
       0.036325313 -0.038642418 0.013757318 -0.038082123
0003d0 ba 0a 28 bc f0 44 3e bd f7 ae 99 bc e4 a1 80 3a
       -0.010256464 -0.046452463 -0.018760188 0.0009813872
0003e0 06 77 38 bd 8e cd 0c 3c e2 8f a0 bc 95 57 c6 3c
       -0.045035385 0.00859393 -0.019599859 0.024211684
0003f0 fb 41 87 bb 59 c2 91 bc 26 d9 b8 bc 54 98 ff 3c
       -0.0041277385 -0.017792867 -0.022564482 0.031200565
