notebooks/checkpoint/shd_rnn_512_adp/fc_ho.weight.npz (npz, 41224 bytes, 1 tensors)

arr_0 f4 [20, 512]
0	0xbb672445	-0.003526942
1	0xbafca396	-0.0019274827
2	0xbd23aea4	-0.039961472
3	0x3b5852fb	0.0033008445
4	0x3d0802d7	0.033205833
5	0xbd3b9df6	-0.04580494
6	0x3c191644	0.009343687
7	0x3ad0e73c	0.0015938054
8	0xbc21de44	-0.009879652
9	0x3d26683f	0.04062676
10	0xbc057460	-0.008145422
11	0x3c8bc050	0.017059475
12	0x3cc32e95	0.023825923
13	0x3c7a0d14	0.015261907
14	0xbb38bb08	-0.0028187651
15	0x3cfc847c	0.030824892
16	0xbc06e0a9	-0.008232274
17	0x3d073f51	0.033019368
18	0xbd0107f0	-0.03150171
19	0xbd1828df	-0.037148353
20	0x3d10c7b3	0.035346698
21	0x3c31fe7f	0.010863899
22	0xbd097861	-0.033562068
23	0xbcdac3b0	-0.02670464
24	0xbd35a48c	-0.044346377
25	0xbd36b60b	-0.044607203
26	0x3c173e39	0.009231144
27	0xbbfe1c99	-0.007754874
28	0x3d125ec2	0.0357349
29	0xbd6206d2	-0.055182286
30	0x3afc7875	0.0019261973
31	0x3d03bcff	0.032162663
32	0xbd2973a5	-0.041370053
33	0x3d16d62f	0.036825355
34	0x3c912a72	0.017720435
35	0xbb90e252	-0.0044215107
36	0x3d373459	0.044727657
37	0x3d124579	0.035710786
38	0x3c0fdb83	0.008780363
39	0x3c9bd32c	0.019021593
40	0xbd1f62bf	-0.03891253
41	0x3d285585	0.041097183
42	0x3c68606f	0.014183148
43	0xbd251341	-0.040301565
44	0xbc6bf530	-0.014401719
45	0xba632039	-0.00086641643
46	0xbbaea1dc	-0.0053293537
47	0xbd106186	-0.035249256
48	0x3c280c83	0.010256889
49	0x3c9b50d8	0.018959448
50	0x3bcac776	0.0061883284
51	0x3cec8724	0.028873034
52	0xbb6501cc	-0.0034943698
53	0xbd01ecd4	-0.031719998
54	0x3cc8f03a	0.024528611
55	0xbb624846	-0.0034527942
56	0xbd459cb0	-0.048245132
57	0x3d22ad71	0.039716188
58	0x3bb00ecc	0.0053728577
59	0x3d0eb606	0.03484156
60	0xbcd7f7db	-0.026363304
61	0x3d34d7bd	0.044151057
62	0xbd0e80e1	-0.034790877
63	0xbcf2b3a1	-0.02962667
64	0x3c955b95	0.018232146
65	0xbd79d1ed	-0.060991216
66	0xbd32bcdf	-0.043637153
67	0x3c9681fd	0.01837253
68	0xbcfa6863	-0.030567354
69	0xba211097	-0.00061441347
70	0x3cb378a3	0.02190811
71	0xbc090f56	-0.008365473
72	0x3c7531cd	0.014965487
73	0xbc8b6655	-0.01701657
74	0x3bbfa712	0.0058487738
75	0xbcd87770	-0.02642414
76	0x3cd630fa	0.0261464
77	0xbcc6e45f	-0.024278818
78	0x3c3c1301	0.01147914
79	0xbd28b2c9	-0.041186128
80	0x3d1626f8	0.036658257
81	0x3bca70af	0.0061779837
82	0x3be3cd31	0.006951951
83	0xbd483293	-0.048876356
84	0xbd2015c9	-0.039083276
85	0x3c44f247	0.012020654
86	0x3ce7f5aa	0.028315384
87	0x3d0a82b6	0.033816062
88	0xba8a30b9	-0.0010543085
89	0x3c75c63b	0.015000875
90	0x3c6b481b	0.014360453
91	0x3d1d89af	0.038461383
92	0xbb0a541b	-0.002110726
93	0x3c4194a6	0.011815226
94	0x3c5b5494	0.013386864
95	0x3d05c6eb	0.032660406
96	0x3bd22598	0.006413173
97	0xbcf2b6e9	-0.029628234
98	0xbd743ceb	-0.05962841
99	0xbd3c0b57	-0.045909252
100	0xbcfbfa28	-0.030758932
101	0x3cbdd02f	0.023170559
102	0xbd45b00a	-0.048263587
103	0x3cfe566a	0.031047065
104	0x3cc904b1	0.02453837
105	0xbce7e85a	-0.028309036
106	0xbd0d4c01	-0.03449631
107	0x3c956173	0.018234944
108	0x3bd8b2f5	0.00661313
109	0xbc988a30	-0.01862058
110	0xbcdf8c75	-0.027288655
111	0xbbc312b9	-0.0059531596
112	0xbd00ceae	-0.031447105
113	0xbce95924	-0.028484888
114	0x3c48824e	0.012238098
115	0xbd2cb263	-0.04216231
116	0xbba9527c	-0.0051673036
117	0xbc90c7d1	-0.017673405
118	0x3c86458a	0.01639058
119	0x3cd020a9	0.025406199
120	0x3c6733d7	0.014111481
121	0x3d17e677	0.037085023
122	0x3d2c9fd4	0.04214461
123	0x3b882ccc	0.004155731
124	0xbcfeffa3	-0.031127756
125	0x3caaf209	0.020867364
126	0x3c7bf33a	0.015377814
127	0xbcd9dedd	-0.026595527
128	0xbc6c6d87	-0.01443041
129	0xbc9237b1	-0.017848821
130	0xbb23b746	-0.0024981066
131	0x3cf6b1c8	0.03011407
132	0xbd1fcff5	-0.039016683
133	0x3c4455fe	0.011983393
134	0xbc1cbace	-0.009566022
135	0x3a7b92bd	0.0009596756
136	0x3c8e01a5	0.017334769
137	0xbd367418	-0.04454431
138	0xbd1c8175	-0.038209397
139	0x3cdc9ae6	0.02692933
140	0xbc5a1ec6	-0.013313001
141	0xbc1f81b8	-0.009735517
142	0x3b6da167	0.0036259533
143	0xbce585f2	-0.028017972
144	0xbc5a2e9d	-0.013316778
145	0xbd2c28af	-0.042030986
146	0xbcf2b417	-0.02962689
147	0xbba29799	-0.0049619195
148	0x3cf946a7	0.030429197
149	0xbcc8031d	-0.024415547
150	0xbb90fb6e	-0.004424504
151	0xbd1a49d8	-0.03766808
152	0xbc73f273	-0.014889347
153	0x3ce71e01	0.02821255
154	0xbd1c081e	-0.03809368
155	0xbd36149e	-0.044453256
156	0x3cb5d5ca	0.02219667
157	0x3d171b3a	0.0368912
158	0xbcae742d	-0.021295631
159	0x3caedf58	0.021346733
160	0x3cd132c7	0.025536908
161	0xbcd7c49c	-0.026338868
162	0x3ab20050	0.0013580415
163	0xbd17a24d	-0.037020016
164	0x3b909187	0.0044118795
165	0xbc133a6b	-0.008986096
166	0xbc56d067	-0.01311121
167	0xbc9e5eaf	-0.019332258
168	0x3cd00c02	0.02539635
169	0x3cbe2147	0.023209227
170	0x3cd63768	0.026149467
171	0xbb64e463	-0.0034926168
172	0x3d02a5cb	0.031896394
173	0xbd0885d0	-0.03333074
174	0xbd300690	-0.04297501
175	0x3d0119b8	0.031518668
176	0x3cf99f59	0.03047149
177	0x3cede9e0	0.029042184
178	0x3b7926a4	0.0038017416
179	0xbc60b4cf	-0.013714983
180	0xbcd500a6	-0.026001286
181	0xbb42a232	-0.0029698727
182	0x3d01e846	0.031715654
183	0xba250a66	-0.00062958
184	0xbd5c597b	-0.053796273
185	0xbca2745c	-0.019830875
186	0x3d0e0711	0.034674708
187	0x3c3aea10	0.011408344
188	0x3b63f8dc	0.0034785783
189	0x3c8e9057	0.017402811
190	0x3d078180	0.033082485
191	0xbbe6e192	-0.007045933
192	0xbd143292	-0.03618104
193	0x3c6cc400	0.014451027
194	0x3c259b99	0.010107898
195	0x3cb5fcfe	0.022215363
196	0x3c96a798	0.018390462
197	0xbd6190f6	-0.055069886
198	0xbc506a15	-0.012720604
199	0xbd2c5935	-0.042077262
200	0xbcd56fbc	-0.026054256
201	0xbd34bfef	-0.044128355
202	0xbcae6c0d	-0.021291757
203	0xbd146503	-0.036229145
204	0xbc4361f7	-0.011925212
205	0xbd36655c	-0.044530258
206	0x3cad8c63	0.021185106
207	0x3d082528	0.03323856
208	0x3c2ea23d	0.010658798
209	0xbce9d961	-0.028546037
210	0xbb227992	-0.00247917
211	0x3c02a4ee	0.007973893
212	0x3d0051ba	0.03132794
213	0x3c05f2b4	0.008175541
214	0x3c75c7be	0.0150012355
215	0x3c8a2e86	0.016867887
216	0xbd0b17d2	-0.033958264
217	0xbc8e33c6	-0.017358672
218	0xbd173cbe	-0.036923163
219	0xbc82f0a0	-0.01598388
220	0x3ca64f67	0.020301534
221	0xbd29f5df	-0.041494247
222	0xbb4a0e94	-0.0030831443
223	0x3c305ff2	0.010765063
224	0xbafa34f7	-0.0019089271
225	0x3ba2e081	0.0049706106
226	0xbbaaddb1	-0.005214416
227	0x3c620a32	0.013796376
228	0x3b9c2697	0.0047653425
229	0x3d1a2ecd	0.03764229
230	0xbc332a60	-0.010935396
231	0xbc2b2260	-0.010445207
232	0xbc7a6e34	-0.015285064
233	0xbd2bb634	-0.04192181
234	0xbd219614	-0.039449766
235	0x3d239684	0.039938465
236	0xbc9f8b16	-0.019475501
237	0xbd013e94	-0.03155382
238	0xba712f78	-0.0009200494
239	0xbd278351	-0.040896717
240	0x3d06ee71	0.03294224
241	0xbd3f46aa	-0.04669825
242	0x3d2a9a97	0.041651335
243	0xbd1e4367	-0.0386385
244	0xbd1381a3	-0.036012303
245	0x3d184644	0.037176386
246	0xbc8cc170	-0.017182082
247	0xbb18bf7c	-0.0023307493
248	0xbc12fade	-0.008970944
249	0x3c0a31a4	0.008434687
250	0x3c46762c	0.012113135
251	0xbd3d47fc	-0.046211228
252	0xbcc82022	-0.024429385
253	0x3d32f158	0.043687195
254	0x3c04af91	0.008098499
255	0x3b7a6109	0.003820481
