notebooks/checkpoint/nmnist_rnn_32/fc_hh.weight.npz (npz, 4360 bytes, 1 tensors)

arr_0 f4 [32, 32]
-0.012890191 -0.025786648 -0.026881866 0.161508 -0.050611556 -0.016123459 0.07377943 0.03029457
-0.054530587 0.014743968 -0.100834936 0.03797975 -0.05964982 0.073782 -0.013887198 -0.10307148
-0.011243265 -0.0838127 0.053936236 -0.016460171 0.05243024 -0.01972576 0.16005836 0.13463093
-0.020546526 0.08776605 0.109881416 0.13337275 0.04636683 -0.021629946 0.07842942 -0.16851836
0.0025134468 -0.028173346 -0.0905733 -0.011512688 -0.009871527 -0.02582825 -0.11089028 0.21683942
0.13056178 0.105807915 0.028160153 -0.04666261 0.017197048 0.22601806 0.026481977 -0.063516915
-0.06584623 -0.038774304 0.01670156 -0.082266554 0.08788664 0.046548873 0.07594159 -0.09079353
0.13054799 -0.12307128 0.09402443 0.100148596 -0.06727703 0.13613737 0.011459611 -0.045316268
0.019812256 -0.09804562 0.056215502 0.013063221 0.14465679 -0.060777184 -0.09045102 -0.09025867
0.013718092 0.013383603 -0.04289972 -0.061351378 0.12648393 0.0028798305 0.027176796 -0.09311455
0.08304793 -0.18215783 -0.11854064 0.06407718 -0.0120766815 0.10254385 0.059917815 0.1710099
0.00865012 -0.16631699 -0.0996062 -0.006287005 0.011566737 0.043720096 0.042335097 -0.005638268
0.18519114 0.020478737 0.10622616 -0.03754196 0.020567901 -0.07574663 0.053923555 -0.19841875
-0.09810844 -0.0069871265 0.00013085351 0.17147121 0.01454132 0.09863822 -0.026406417 -0.08324957
-0.027316231 -0.031976122 -0.08210066 -0.1421834 -0.06027888 0.10705096 0.06870009 0.068839245
0.18677662 0.21754825 0.06604811 0.1454804 -0.08051587 -0.1371037 0.13193141 0.0075822505
0.025164196 -0.14435534 0.27098835 -0.18418518 0.0473184 0.115129806 -0.118448794 -0.11251352
0.06043176 -0.12668489 0.10222299 -0.006281979 0.089195445 0.08768781 -0.13203901 0.10836731
0.1214592 0.11136854 -0.14020938 -0.0028810233 0.03947784 -0.009801527 -0.07920568 0.18676212
-0.1085609 -0.12766698 -0.093284115 -0.10963333 0.13288558 0.009399787 -0.06251731 0.24715637
-0.11349571 0.10664635 0.09554213 -0.16386321 -0.029867714 0.16810045 -0.0045614485 -0.1987401
0.046452228 -0.09670604 -0.036734615 0.057430904 -0.013694202 0.04305544 0.059318297 -0.096852645
-0.08740961 -0.17285646 0.06949446 0.09391858 0.07426776 0.068063825 -0.10605851 -0.0036376452
0.02699624 -0.07184167 -0.026028873 -0.1674303 0.15718317 -0.07278917 0.2063515 -0.14945136
0.07146487 -0.10112639 -0.012317709 -0.05633012 0.052438352 -0.14197932 -0.0075700427 0.13498986
-0.027278725 0.09239039 0.044996787 -0.06614093 0.13576119 0.06262318 0.08391644 0.13571444
-0.040679302 -0.10696143 0.08146878 0.004119735 0.1445893 0.03864854 0.11174365 0.020883856
-0.021102838 -0.088896215 0.0075186873 -0.098890394 0.07173552 0.06820281 -0.17279583 -0.23365691
0.008311619 0.093556575 -0.22960994 -0.0821543 -0.17222416 -0.14347875 0.11556026 0.17359357
0.10002617 0.0010119572 -0.15743749 -0.18595201 0.02619114 -0.027745469 0.09896092 0.10580156
0.11883958 -0.087255575 -0.008551628 0.07090795 -0.11090815 0.024315502 0.0034954273 -0.17457394
-0.036583472 -0.09347133 -0.045908183 -0.093756266 -0.046391487 0.022781532 -0.19705099 -0.07992693
00000000: 6131 53bc 853e d3bc 5c37 dcbc 5a62 253e
00000010: 104e 4fbd 5815 84bc ab19 973d 512c f83c
00000020: 775b 5fbd af90 713c 8c82 cebd a890 1b3d
00000030: 5f53 74bd 041b 973d 2187 63bc 2417 d3bd
00000040: ac35 38bc fea5 abbd 3eec 5c3d 7bd7 86bc
00000050: 17c1 563d eb97 a1bc 57e6 233e b1dc 093e
00000060: 3051 a8bc b0be b33d 8209 e13d de92 083e
00000070: 25eb 3d3d 4931 b1bc 9b9f a03d 1490 2cbe
00000080: a4b8 243b cacb e6bc 7f7e b9bd b79f 3cbc
00000090: 2fbc 21bc c495 d3bc 711a e3bd 270b 5e3e
000000a0: fdb1 053e d2b1 d83d 1fb0 e63c 4b21 3fbd
000000b0: d3e0 8c3c 4771 673e bbf0 d83c 2815 82bd
000000c0: 63da 86bd ced1 1ebd b6d1 883c 5e7b a8bd
000000d0: e9fd b33d 08aa 3e3d 4487 9b3d f5f1 b9bd
000000e0: 5fae 053e cc0c fcbd e18f c03d b51a cd3d
000000f0: 8ac8 89bd 9867 0b3e 18c1 3b3c 8d9d 39bd
00000100: 504d a23c 24cc c8bd 3a42 663d 1f07 563c
00000110: e920 143e 7ff1 78bd 623e b9bd 8ad9 b8bd
00000120: d9c1 603c e646 5b3c 9eb7 2fbd 954b 7bbd
00000130: 0185 013e 8abb 3c3b dfa1 de3c d7b2 bebd
00000140: 0815 aa3d 9587 3abe 6fc5 f2bd e63a 833d
00000150: 46dd 45bc 8302 d23d 626c 753d 381d 2f3e
00000160: 3cb9 0d3c 004f 2abe 56fe cbbd 3803 cebb
00000170: 6982 3d3c d813 333d 9167 2d3d 38c1 b8bb
00000180: bfa2 3d3e 06c3 a73c 1a8d d93d 99c5 19bd
00000190: 047e a83c 0d21 9bbd f2de 5c3d 492e 4bbe
000001a0: 14ed c8bd 44f4 e4bb b935 0939 2696 2f3e
000001b0: b73e 6e3c d602 ca3d 4552 d8bc c07e aabd
000001c0: 4ac6 dfbc 65f9 02bd 6424 a8bd 8698 11be
000001d0: fde6 76bd 893d db3d a2b2 8c3d 97fb 8c3d
000001e0: 5f42 3f3e f8c4 5e3e 3b44 873d d0f8 143e
000001f0: 81e5 a4bd ea64 0cbe 0719 073e 8774 f83b
00000200: 2525 ce3c e3d1 13be fcbe 8a3e 0a9b 3cbe
00000210: f0d0 413d 2dc9 eb3d 4895 f2bd 7d6d e6bd
00000220: 4b87 773d afb9 01be 495a d13d 0fd9 cdbb
00000230: 1aac b63d ab95 b33d 3c35 07be aeef dd3d
00000240: 9abf f83d 3015 e43d 0c93 0fbe 8dcf 3cbb
00000250: 84b3 213d 9596 20bc 9636 a2bd 923e 3f3e
00000260: 2d55 debd 22bb 02be be0b bfbd 7087 e0bd
00000270: 2813 083e 9001 1a3c 1309 80bd 8f16 7d3e
00000280: 7070 e8bd 6769 da3d 98ab c33d c2cb 27be
00000290: 23ad f4bc 8622 2c3e 3478 95bb 8682 4bbe
000002a0: b144 3e3d d10d c6bd 0977 16bd ab3c 6b3d
000002b0: a55d 60bc e75a 303d bef7 723d ae5a c6bd
000002c0: cf03 b3bd 4901 31be 1d53 8e3d 6258 c03d
000002d0: b219 983d 0c65 8b3d 3435 d9bd 8f65 6ebb
000002e0: 3827 dd3c ba21 93bd 813a d5bc d972 2bbe
000002f0: a0f4 203e 7d12 95bd cf4d 533e c709 19be
00000300: 2c5c 923d 5a1b cfbd 37d0 49bc 69ba 66bd
00000310: 99c9 563d 0763 11be 1f0e f8bb c83a 0a3e
00000320: a277 dfbc 2c37 bd3d 8d4e 383d e574 87bd
00000330: fb04 0b3e 9540 803d 62dc ab3d baf8 0a3e
00000340: 579f 26bd 980e dbbd 1bd9 a63d d8fe 863b
00000350: 380f 143e ee4d 1e3d dbd9 e43d 9f14 ab3c
00000360: dcdf acbc 380f b6bd 525f f63b 0c87 cabd
00000370: 13ea 923d eaad 8b3d 64f1 30be c243 6fbe
00000380: 752d 083c 979a bf3d de1e 6bbe 8340 a8bd
00000390: 885b 30be 18ec 12be dcaa ec3d 83c2 313e
000003a0: 85da cc3d a6a3 843a 4b37 21be 346a 3ebe
000003b0: cd8e d63c 774a e3bc 06ac ca3d 7dae d83d
000003c0: 2a62 f33d 0db3 b2bd 211c 0cbc 3038 913d
000003d0: d023 e3bd 4e31 c73c 8a13 653b 83c3 32be
000003e0: 8dd8 15bd e66d bfbd 380a 3cbd 4903 c0bd
000003f0: 0005 3ebd 56a0 ba3c bcc7 49be bbb0 a3bd
