notebooks/checkpoint/nmnist_rnn_lsm_256/fc_hh.weight.npz (npz, 262408 bytes, 1 tensors)

arr_0 f4 [256, 256]
-0.018143408 -0.052838214 -0.05080808 0.011707351 0.006028652 0.040905505 0.04672756 0.021037512
0.039441273 -0.04984072 -0.00024085492 0.0010397509 0.04152309 -0.05433298 -0.035113886 -0.00882785
-0.059094958 -0.020497695 0.010542333 0.018306047 -0.0009015724 -0.02302698 -0.0060842857 -0.02212967
-0.04145223 0.045486473 0.016466968 0.0023091435 0.024179317 -0.008785225 0.03248416 -0.018430136
-0.044322528 0.008041017 -0.008694112 -0.0011884272 -0.027731135 0.057499975 -0.024298273 -0.03555771
0.00036210567 0.047955886 -0.055075303 0.012242585 0.03515444 -0.029913612 -0.026014239 0.040175036
-0.016135521 0.04206863 0.020199873 -0.006290108 0.005955629 0.049107417 0.025598258 0.015053421
-0.059672482 -0.036578067 -0.016393043 0.026460052 0.034797765 -0.01916615 -0.016341172 -0.056443036
0.026467882 -0.015992336 0.004578732 -0.054503582 -4.2155385e-05 0.052941203 0.024556033 -0.0509924
-0.046676956 -0.045976326 0.05013513 0.023817733 -0.04982321 0.041533813 -0.02442146 -0.035044663
-0.04026784 -0.059170112 0.032767646 0.051151432 0.05121105 -0.061388195 0.021083139 0.008125417
-0.008070216 -0.030835122 0.040307842 -0.03233271 -0.009909056 -0.023711197 -0.037653275 -0.015974253
-0.050928034 -0.04520338 -0.04497444 0.047515303 -0.017715618 -0.004242301 0.05882731 -0.029054977
-0.010828897 -0.02057875 -0.01805266 0.06209097 -0.01773607 0.046140075 0.031153888 -0.033962093
0.016373068 0.04581435 0.01823479 0.0060227364 0.027516656 -0.012912922 0.044016443 0.059513025
0.021353148 0.040153638 -0.040030785 -0.056704454 0.05096796 -0.026471041 0.003718257 -0.013317041
-0.003031291 0.052818827 -0.051104017 -0.032092273 -0.015115082 0.0026796162 -0.026701614 -0.03581188
-0.0048795417 0.05228684 -0.011551134 0.0017639995 0.0007578805 0.0062133744 0.028600648 -0.018089347
-0.028047845 0.02652593 0.05472987 -0.010663301 0.011713669 0.057640187 0.051860496 0.02053105
-0.045839474 0.03377618 -0.026725143 -0.052761286 0.0024644434 -0.062273264 -0.03565623 0.013537325
0.027727924 0.029281653 -0.02883672 0.0074036866 -0.010399513 -0.05390618 -0.05808165 0.013534896
0.0055253357 -0.03788829 0.0013508052 -0.01302357 -0.0074449554 0.021166675 0.021837048 -0.05733949
0.051902615 -0.014799304 0.053893782 0.004221976 0.014960565 -0.046739303 -0.002766572 -0.0009825155
0.034850523 -0.0017137378 -0.050147027 -0.02899383 -0.026820064 0.062432796 -0.04283662 0.041885473
-0.0066519603 -0.03497701 -0.055348895 -0.003679499 -0.027099103 -0.04335145 0.019110061 -0.01943329
0.024757221 -0.040664136 0.022605121 0.041668266 0.05704698 0.013791829 -0.053580217 -0.021131441
0.047085047 -0.055365026 -0.0250896 -0.038614765 -0.013841353 0.02973038 0.011549361 -0.021172568
-0.0017142817 -0.05229167 -0.04558538 -0.023177326 0.045286044 0.032624647 -0.051945567 -0.028452113
-0.03818573 0.023562275 0.021514706 0.013922378 -0.05289215 0.009708285 0.04567235 -0.020001277
0.02490738 0.0023474693 0.009050332 -0.057702333 0.05779472 -0.03432794 -0.04437819 -0.05357518
-0.037476026 -0.016711533 0.0493182 -0.026251547 -0.0075407475 -0.043618537 -0.05738125 -0.056849666
0.03557825 0.00861305 0.042556517 -0.04152534 -0.0025469288 -0.0062808245 -0.03968747 -0.0027849078
00000000: 7ca1 94bc e26c 58bd 221c 50bd 30d0 3f3c
00000010: 008c c53b 888c 273d 6665 3f3d dc56 ac3c
00000020: 2c8d 213d c825 4cbd 008e 7cb9 4048 883a
00000030: 1e14 2a3d 428c 5ebd 94d3 0fbd b0a2 10bc
00000040: 8e0d 72bd c8ea a7bc c0b9 2c3c 90f6 953c
00000050: 8057 6cba 14a3 bcbc b05e c7bb 4849 b5bc
00000060: d0c9 29bd 0650 3a3d bce5 863c 0055 173b
00000070: b413 c63c e8ef 0fbc 1c0e 053d ccfa 96bc
00000080: 8a8b 35bd 78be 033c c071 0ebc 00c5 9bba
00000090: 682c e3bc 1885 6b3d 2c0d c7bc f6a4 11bd
000000a0: 00d9 bd39 646d 443d a496 61bd 2095 483c
000000b0: 1afe 0f3d 640d f5bc d01b d5bc 948e 243d
000000c0: a42e 84bc 2850 2c3d 347a a53c 401d cebb
000000d0: 7027 c33b dc24 493d 70b3 d13c a0a2 763c
000000e0: 226b 74bd e2d2 15bd b44a 86bc c0c2 d83c
000000f0: 1a88 0e3d 5402 9dbc ecdd 85bc d030 67bd
00000100: 2cd3 d83c 5c02 83bc 3009 963b 263f 5fbd
00000110: 00d0 30b8 e0d8 583d bc29 c93c 68dd 50bd
00000120: 5630 3fbd ac51 3cbd 7e5a 4d3d 681d c33c
00000130: 6c13 4cbd 5c1f 2a3d 840f c8bc fe8a 0fbd
00000140: e4ef 24bd 5c5c 72bd 5e37 063d 2a84 513d
00000150: aec2 513d 3072 7bbd 8cb6 ac3c 7820 053c
00000160: f038 04bc f099 fcbc d619 253d 4e6f 04bd
00000170: 9859 22bc fc3d c2bc 523a 1abd 70dc 82bc
00000180: ea99 50bd 2e27 39bd 1e37 38bd 689f 423d
00000190: 5820 91bc 0003 8bbb e8f4 703d b404 eebc
000001a0: b06b 31bc c494 a8bc 2ce3 93bc 1a53 7e3d
000001b0: 3c4b 91bc 60fd 3c3d 7036 ff3c d61b 0bbd
000001c0: d020 863c d4a7 3b3d 2061 953c 605a c53b
000001d0: 9c6a e13c b890 53bc 964a 343d eec3 733d
000001e0: ccec ae3c 2478 243d 52f7 23bd ee42 68bd
000001f0: c8c3 503d ccd9 d8bc 00ae 733b b82f 5abc
00000200: a0a8 46bb 8e58 583d 7252 51bd 3073 03bd
00000210: 40a5 77bc 809c 2f3b 58bd dabc 7aaf 12bd
00000220: 90e4 9fbb ba2a 563d f840 3dbc 0036 e73a
00000230: 80ac 463a 9099 cb3b e84b ea3c 1c30 94bc
00000240: 98c4 e5bc e84c d93c 6e2c 603d 20b5 2ebc
00000250: b0ea 3f3c 1e18 6c3d ac6b 543d bc30 a83c
00000260: 2cc2 3bbd e458 0a3d b0ee dabc 381c 58bd
00000270: 8082 213b 4012 7fbd 440c 12bd a8cb 5d3c
00000280: ac25 e33c 14e0 ef3c fc3a ecbc a09a f23b
00000290: b862 2abc bacc 5cbd 06e7 6dbd 78c1 5d3c
000002a0: e00d b53b c030 1bbd 800d b13a d060 55bc
000002b0: d0f4 f3bb bc65 ad3c 9ce3 b23c d0dc 6abd
000002c0: d697 543d c878 72bc babf 5c3d 8058 8a3b
000002d0: 281d 753c b671 3fbd 604f 35bb c0c7 80ba
000002e0: 6cbf 0e3d 809f e0ba f866 4dbd 7884 edbc
000002f0: c0b5 dbbc 88b9 7f3d 7475 2fbd 1a90 2b3d
00000300: b0f8 d9bb 0e44 0fbd 86b5 62bd c023 71bb
00000310: f0fe ddbc 4a91 31bd b48c 9c3c 9032 9fbc
00000320: a8cf ca3c 708f 26bd 602e b93c 58ac 2a3d
00000330: 18aa 693d 20f7 613c ee76 5bbd d81b adbc
00000340: 40dc 403d 70c6 62bd b488 cdbc 842a 1ebd
00000350: d8c6 62bc 208d f33c 8839 3d3c 1872 adbc
00000360: c0b1 e0ba ca2f 56bd bcb7 3abd 60de bdbc
00000370: dc7d 393d 6ca1 053d e0c4 54bd 6814 e9bc
00000380: a468 1cbd ac05 c13c 9c3f b03c b01a 643c
00000390: 70a5 58bd 800f 1f3c ee12 3b3d b8d9 a3bc
000003a0: 900a cc3c 00d8 193b d847 143c 4859 6cbd
000003b0: 28ba 6c3d 749b 0cbd e8c5 35bd a671 5bbd
000003c0: 7680 19bd a0e6 88bc e201 4a3d 7c0d d7bc
000003d0: 6018 f7bb 5aa9 32bd 9a08 6bbd 32db 68bd
000003e0: 80ba 113d c01d 0d3c be4f 2e3d 7a16 2abd
000003f0: 60ea 26bb 60cf cdbb 548f 22bd 0083 36bb
