pynn/models/shd_rnn_512/fc_ho.weight.npz (npz, 41224 bytes, 1 tensors)

arr_0 f4 [20, 512]
000000 57 05 12 bb 7f 4e c5 3c 06 09 e6 bc f7 10 12 3d
       -0.0022281015 0.024085281 -0.028080475 0.03566071
000010 3f 26 c6 3c ec e7 b6 3b 7d c2 6a 3c 23 14 1f 3c
       0.024188159 0.0055818465 0.014328596 0.009709391
000020 5c 1f 86 bc 8c 31 f5 bb bf 7a 1a bd 64 d9 72 bb
       -0.016372375 -0.007482713 -0.037714716 -0.0037055844
000030 79 31 55 bd 31 c2 ad 3b 11 6e f8 bc 2c ca 39 bd
       -0.052049134 0.0053026904 -0.030325921 -0.04535882
000040 1f f4 45 bd 11 05 06 3d e2 1a 17 bd 25 12 39 bd
       -0.048328515 0.032719675 -0.03689087 -0.04518332
000050 b3 c2 fd 3c 2e 68 aa bc 5f 2a 27 bd d6 9e 7c bd
       0.030976629 -0.02080163 -0.040811893 -0.061674915
000060 85 2b bd 3c 99 0c cd 3c 8f 3f ef bc 1d 7a 8d bb
       0.02309204 0.025030421 -0.029205112 -0.0043175356
000070 29 37 22 bd b1 fe 0a bd de 1b e8 bc a8 91 98 bd
       -0.039603386 -0.0339343 -0.0283336 -0.07449657
000080 3a 64 69 3d 2e ec 6c bd 9a 7b 02 3c ce 9d 5d bd
       0.05698035 -0.057842426 0.007964039 -0.054105572
000090 6e a8 8c 3c ea 19 39 3d 3b 6d aa bc 9e f5 88 bc
       0.017170157 0.04519073 -0.020804038 -0.016718682
0000a0 e4 c6 b3 bc a5 df 16 bb 98 97 13 bd 9b 23 78 3c
       -0.021945424 -0.0023021486 -0.036033243 0.015145208
0000b0 b0 6e 99 3c 54 b9 53 3c 1d c7 c7 3c 0e 03 9b bc
       0.018729538 0.012922604 0.024386937 -0.018922355
0000c0 2e 6d 1d 3c 18 5a 6b bb 81 2b a5 bc a4 9e e3 bc
       0.00960855 -0.0035911854 -0.020162346 -0.027785607
0000d0 b8 c5 8e bc 26 61 e0 bc b8 78 17 3d 8e 5b 4b bd
       -0.017428264 -0.027390074 0.03698036 -0.04964786
0000e0 b8 48 cb 3b 8b a1 43 3c db 29 e1 bb de b2 37 bd
       0.006203737 0.01194037 -0.0068714446 -0.044848315
0000f0 5a 80 b1 bc 49 fb 04 3d 71 5d ae bc a6 c4 b2 3c
       -0.021667648 0.032466207 -0.02128479 0.021822285
000100 2b 6d a6 bc 53 92 95 bc df 8c 20 bc 9e e9 16 3d
       -0.020315727 -0.01825825 -0.009799211 0.03684389
000110 f3 9e 47 3d 6e fb 3c 3c 5c 04 66 bd 00 4b 07 3c
       0.04873557 0.011534555 -0.0561565 0.0082576275
000120 88 a2 eb 3c b0 cd 82 bc 8c ce da 3c 41 2a 00 3c
       0.028764024 -0.01596722 0.026709817 0.007822574
000130 3a e0 dc 3c 0e 46 c5 3c ed ba 1c bd 20 05 45 bd
       0.026962388 0.024081256 -0.038264204 -0.04810059
000140 66 26 0f 3d bf 86 e7 3c 76 20 40 bd 10 3a 0e 3d
       0.03494873 0.028262494 -0.046905957 0.03472334
000150 19 99 24 3c 34 08 28 bc 2c e2 ee 3c 40 7a 3f bd
       0.010046267 -0.010255862 0.029160582 -0.046747446
000160 96 36 8c bc e6 15 ad 3c 13 e7 1b bd 67 20 a1 bc
       -0.017115872 0.021128606 -0.038062166 -0.019668771
000170 a6 c2 59 3d f8 94 99 3c 7c 00 16 3c 14 a5 10 3d
       0.053164147 0.018747792 0.009155389 0.03531368
000180 77 02 34 bd 41 ec 18 bd 8a 5d 3c bc 43 17 46 3c
       -0.043947663 -0.037334684 -0.011496911 0.012090507
000190 91 03 a2 bc fd 8c 04 3d 64 ac cc bc 53 ed 6d bc
       -0.019777091 0.03236102 -0.024984546 -0.0145219145
0001a0 af 1a e4 3c b0 7b ef 3c 9a 53 63 bd 0d 51 83 bb
       0.027844755 0.029233783 -0.05549965 -0.0040074647
0001b0 96 a7 81 bc 68 26 63 3b 7a 06 2f bd ce 6c bf 3a
       -0.015826982 0.0034660343 -0.042730786 0.001460457
0001c0 64 10 04 3c 5a 93 3a 3d d7 6a a2 bc 5c c1 b0 3b
       0.008060548 0.04555068 -0.019826336 0.005394144
0001d0 21 6b b1 bc 4a 93 b8 3c b6 e3 21 3d f7 7f 23 bd
       -0.021657528 0.02253117 0.039523803 -0.03991696
0001e0 5e c6 d4 3c 89 30 5f bc 3d 24 08 3d 85 f3 0b bd
       0.025973495 -0.0136224115 0.033237685 -0.034167785
0001f0 32 99 2d 3d d5 30 c9 bb 65 90 17 3d e1 2d f7 bc
       0.042382427 -0.0061398544 0.03700294 -0.030173244
000200 49 5b 58 3c 9a 2e e6 bb d3 87 85 bc 0e 57 1d 3d
       0.013205358 -0.0070245983 -0.016300118 0.0384131
000210 32 ab ce 3c 14 4d 7e bb 54 cf 32 3d 7c 9c f3 3b
       0.025228117 -0.0038803266 0.043654755 0.007434426
000220 50 19 84 3c 75 84 8a bc b7 b6 54 3c a2 22 35 3d
       0.016125351 -0.016908864 0.012983016 0.04422248
000230 6f a7 a4 3b 0a 55 e9 bc 8e 31 90 bb e3 a6 c5 bb
       0.0050248425 -0.028482933 -0.0044004386 -0.0060318573
000240 12 1b 4a bb 5a 87 81 bc c9 09 0f bd fa 5c 49 3d
       -0.003083889 -0.015811611 -0.03492144 0.049160935
000250 c2 8d 28 bd 2f ca 90 bb 22 82 08 bc 71 52 83 bc
       -0.041150816 -0.0044186334 -0.008331807 -0.016030522
000260 06 b0 e7 bc 85 f1 f7 3c 5d cc 28 bd dd 2e 05 3d
       -0.028282177 0.030266533 -0.04121052 0.032515395
000270 ba 41 89 3b 5f 7f b8 bc 21 34 81 bc ad 1d 84 bc
       0.0041887434 -0.022521673 -0.015771927 -0.016127432
000280 24 bb c3 bc fe b0 ab 3c 38 11 09 3d fd 12 6e bc
       -0.023892947 0.02095842 0.033463687 -0.014530894
000290 5a 02 14 39 55 5d b0 3c 67 ce 75 bc f1 fe 2a 3d
       0.00014115256 0.02152888 -0.015002823 0.041747037
0002a0 ad 0f de bc eb 98 36 bd e0 dc a2 3c 3b c4 1c bd
       -0.027107084 -0.044579428 0.019880712 -0.038273077
0002b0 15 11 25 3c e3 fa 0a bd 0a 1d 54 3b 47 21 71 bc
       0.010074873 -0.03393067 0.0032365941 -0.014717407
0002c0 13 86 aa 3c 04 83 45 bd 84 07 bb 3c 7d 2e 09 bd
       0.020815885 -0.04822065 0.022830732 -0.0334916
0002d0 da 06 03 3d e6 d8 83 3b d4 c7 f0 bc 75 17 16 bd
       0.031988956 0.004023659 -0.02939216 -0.036643464
0002e0 75 3c 5d bd 6a f0 0f 3d 8d aa 59 bc b2 9b 46 ba
       -0.054012734 0.035141386 -0.013285291 -0.0007576301
0002f0 44 04 d8 3c 10 0f cd bb a2 c4 2e 3d 93 3a b3 bc
       0.026369222 -0.006257899 0.042667992 -0.021878516
000300 2e ae e5 bc a9 3a d5 bc 89 1e 05 bc 94 9f bd 3c
       -0.028037157 -0.026028948 -0.008124956 0.023147382
000310 97 1e 97 3c ee dc ce bc 38 a4 15 bc 01 64 3e bd
       0.018447204 -0.025251832 -0.009133391 -0.04648209
000320 4e 72 07 3d 40 e9 40 bc 06 22 79 bc 3f 9a aa 3c
       0.033067994 -0.011774361 -0.015205866 0.020825503
000330 44 10 aa 3c 2b d0 79 bc 06 15 8b 3c d3 e6 59 3d
       0.02075971 -0.015247385 0.016977798 0.053198647
000340 23 a6 18 bd 9a b6 10 3c 75 66 05 3d 39 15 86 bc
       -0.037267815 0.008832598 0.032568414 -0.016367542
000350 b2 34 02 bd a3 d8 c6 3c ef 00 d6 bc e7 e8 d0 bc
       -0.031788535 0.024273222 -0.026123492 -0.025501681
000360 b9 28 3e bd b4 75 de 3c ba dc 56 bd f3 c9 8c 3c
       -0.046425555 0.027155735 -0.052456595 0.01718614
000370 77 ab 34 bc e0 0e 23 bb 91 ad 56 3c a5 17 17 3d
       -0.0110272085 -0.0024880692 0.013102905 0.036887784
000380 fa 8b 09 3c 93 dc f7 3c fe f5 ff bc c1 53 88 bb
       0.008395189 0.030256545 -0.031245228 -0.004160375
000390 62 05 77 bc 39 85 28 bc 23 65 03 3d 61 57 22 bd
       -0.015076967 -0.010285669 0.032078873 -0.039634112
0003a0 b6 29 c2 bc 93 df 9c bb a4 35 e6 3c 1c 44 42 3d
       -0.02370153 -0.0047873943 0.02810175 0.047428235
0003b0 38 2a 67 bd fd fd 13 bd 64 76 93 bc 37 4c be 3b
       -0.056436747 -0.036130894 -0.018000789 0.0058074254
0003c0 b1 3c 09 3d 7f 90 5b bd f7 fb 2e bb f2 30 48 bd
       0.033505145 -0.0536046 -0.0026700476 -0.048874803
0003d0 c9 67 d0 3c 85 08 46 3c 87 4b dc 3c 33 a0 4b bd
       0.025440114 0.012086992 0.026891483 -0.049713325
0003e0 eb 6a 47 3c 27 56 34 bd 4a ab 44 bd 65 84 e9 bc
       0.012171487 -0.044027474 -0.048014916 -0.028505513
0003f0 ee ba 67 bc 5b 74 ad 3c 8a 44 54 3d a9 51 c3 3c
       -0.014143689 0.021173647 0.051823176 0.02384265
