pynn/models/heidelberg_256/fc_hh.weight.npz (npz, 262408 bytes, 1 tensors)

arr_0 f4 [256, 256]
0	0x3d6d13c4	0.057880178
1	0x3b0afce3	0.002120786
2	0x3d42a058	0.047516197
3	0x3d64baa0	0.055842042
4	0x3d0ced40	0.034405947
5	0x3d25fedf	0.040526267
6	0xbc1746f9	-0.00923323
7	0x3c05fcba	0.0081779305
8	0x3b87813c	0.004135279
9	0xbcbffb85	-0.023435364
10	0xbcb78c73	-0.022405839
11	0xbc87898f	-0.016545085
12	0xbbd183a3	-0.006393866
13	0x3cd08d93	0.025458133
14	0x3c1b4eb9	0.009479218
15	0x3cf42bc4	0.029806025
16	0xbd1081a6	-0.035279892
17	0x3d30bc5f	0.043148395
18	0xbd75d456	-0.060016952
19	0x3d45aab4	0.0482585
20	0xbc95234d	-0.01820531
21	0xbc89a4bb	-0.016802182
22	0xbcbb9872	-0.02289984
23	0xbd06c260	-0.032900214
24	0x3d14d9bd	0.036340464
25	0x3d0faeec	0.035078928
26	0x3caaec30	0.020864576
27	0x3d44504b	0.047928136
28	0x3d63ffb5	0.055663783
29	0x3d0adf07	0.0339041
30	0x3c70b35c	0.0146912
31	0xbcbb66b3	-0.02287612
32	0xbd072ce7	-0.033001807
33	0xbc01b1b4	-0.007915903
34	0x3d36fd8f	0.044675406
35	0xbd798050	-0.060913384
36	0x3d57b84e	0.052666
37	0x3c8ba030	0.017044157
38	0xbce941fd	-0.028473848
39	0xbd5bdef3	-0.053679418
40	0x3d3d0358	0.046145767
41	0x3d472a8f	0.04862457
42	0x3d85df43	0.065367244
43	0xbd6843ff	-0.05670547
44	0x3c1c84b3	0.009553122
45	0xbd49d36a	-0.049273886
46	0xbd51e2f3	-0.051241826
47	0xbb827e37	-0.003982331
48	0xbd37b281	-0.04484797
49	0x3d768d8c	0.060193583
50	0xbd67dd98	-0.056607813
51	0xbd291020	-0.041275144
52	0x3d00f0ee	0.03147977
53	0x3ce2d868	0.027691081
54	0xbd523c9a	-0.051327325
55	0xbbc16aae	-0.00590261
56	0x3cf6f87e	0.030147787
57	0xbd52b423	-0.051441323
58	0xbb4d82a1	-0.0031358378
59	0x3c86eac6	0.01646937
60	0x3ca7cfc9	0.020484822
61	0xbd537bbd	-0.051631678
62	0xbad4fc1f	-0.0016249454
63	0x3d37b081	0.04484606
64	0xbc20bca2	-0.009810599
65	0xba8da279	-0.0010805867
66	0x3c3c2e3f	0.011485635
67	0xbc587bc5	-0.013213103
68	0x3b8537c4	0.0040654857
69	0xbd55183d	-0.05202507
70	0x3d4db222	0.05021871
71	0x3d064c86	0.032787822
72	0x3b49fbe9	0.0030820316
73	0x3d24a8b1	0.04019994
74	0xbd93ad98	-0.07210845
75	0x3d6b75fe	0.057485573
76	0x3d144a10	0.036203444
77	0x3bb70072	0.00558477
78	0x3cb7e9ba	0.022450317
79	0x3d067c44	0.032833353
80	0x3b11f1dd	0.0022269406
81	0xbd3b764b	-0.04576711
82	0x3c2ee541	0.010674776
83	0x3cafed9a	0.021475602
84	0x3d7bdfed	0.06149285
85	0xbd0af982	-0.033929355
86	0xbd4e884c	-0.05042295
87	0x3d848d9b	0.064723216
88	0xbc238d68	-0.009982444
89	0xbcf5da4f	-0.030011324
90	0xbd4238df	-0.047417518
91	0xbcfafc1b	-0.030637791
92	0xbc1fbf7c	-0.009750243
93	0x3d051776	0.032493077
94	0x3d49ea9d	0.04929601
95	0x3c13d9ec	0.009024125
96	0xbb5b0c86	-0.0033424213
97	0x3d0bd5c1	0.0341394
98	0x393a4ece	0.000177677
99	0x3c050e12	0.00812103
100	0xbcc9e5f2	-0.02464578
101	0x38710aad	5.746882e-05
102	0xbcc478a3	-0.023983305
103	0x3b818c6b	0.0039535067
104	0xbd00c358	-0.031436294
105	0x3bce2763	0.0062913164
106	0x3d189fe6	0.037261866
107	0xbc0a3daa	-0.008437553
108	0x3d2145f6	0.03937336
109	0xbd7082b1	-0.058718387
110	0xbbe58dbf	-0.007005423
111	0xbd29a0dd	-0.041413177
112	0x3d84b55a	0.064799026
113	0xbb6d2a59	-0.0036188571
114	0xbbfa4557	-0.0076376605
115	0x3c02f9b9	0.007994109
116	0xb90f2730	-0.00013652141
117	0xbd642ba3	-0.055705678
118	0xbd8e50ce	-0.06949006
119	0xbd30e923	-0.043191087
120	0x3c7abf72	0.015304433
121	0xbcb82594	-0.022478856
122	0x3c9b28e5	0.018940398
123	0x3d28e505	0.041234035
124	0xbb1f1d22	-0.002427884
125	0x3d520e6f	0.051283296
126	0xbce427ce	-0.027851012
127	0xbc9a648c	-0.018846773
128	0xbd82570f	-0.06364261
129	0x3bfbc985	0.007683935
130	0xbca51ced	-0.020155394
131	0xbd05320b	-0.032518428
132	0xbd7a5a2a	-0.061121143
133	0x3c92bccb	0.01791229
134	0xbd600620	-0.05469334
135	0x3d68d63d	0.05684494
136	0x3bd9216b	0.006626298
137	0xbcbfdd0e	-0.023420837
138	0xbd888e1e	-0.06667732
139	0x3d64c14f	0.055848416
140	0x3bd56d12	0.0065132463
141	0xbcd89365	-0.02643747
142	0x3d75d432	0.06001682
143	0x3aabdae3	0.0013111498
144	0xbd2d6b31	-0.042338554
145	0xbc85f641	-0.016352775
146	0xbd2678b4	-0.040642455
147	0x3d5c404e	0.053772263
148	0xbd49f42e	-0.049305134
149	0x3d56d2ad	0.05244701
150	0x3d6ef7e3	0.058341872
151	0xbc2f98f3	-0.010717618
152	0xbcbc6756	-0.022998493
153	0xbd5c41ed	-0.05377381
154	0xbb9f6b64	-0.004865097
155	0x3d48b3cf	0.048999604
156	0xbc1fdd47	-0.0097573465
157	0x3d3d6aee	0.046244554
158	0x3cecb7cf	0.02889624
159	0x3ce1ac20	0.027547896
160	0x3d140bde	0.03614413
161	0x3d49fe76	0.04931494
162	0x3d304457	0.043033924
163	0xbcc61787	-0.02418114
164	0x3ccc3a04	0.024930008
165	0x3d80a357	0.062811546
166	0x3d4d8902	0.05017949
167	0x3d3e0a08	0.046396285
168	0x3ccfbd1e	0.025358733
169	0x3cf013d0	0.029306322
170	0x3c9459fe	0.018109318
171	0xbd4acc5f	-0.04951131
172	0xbcd9f25a	-0.02660482
173	0x3d05ae5d	0.03263699
174	0x3cafc3c5	0.021455655
175	0x3c76723a	0.015041882
176	0x3d27a7ec	0.040931627
177	0x3cb186e1	0.02167076
178	0xbc8c53f9	-0.017129885
179	0x3c9009ca	0.017582793
180	0x3d410c4e	0.047130875
181	0xbc6bf5a4	-0.014401827
182	0xbcc787f0	-0.024356812
183	0x3cffbe2b	0.031218609
184	0x3d1c9cde	0.038235538
185	0xbd124bed	-0.03571694
186	0x3d054f53	0.032546353
187	0xbc74e547	-0.014947242
188	0x3d1486b2	0.036261268
189	0xbd08db85	-0.033412475
190	0xbd6d287d	-0.05789994
191	0xbc929bfa	-0.017896641
192	0x3d800c00	0.06252289
193	0xbcf2d7aa	-0.029643852
194	0xbd1058ce	-0.03524094
195	0x3cfa19ad	0.030529821
196	0xbb0aeb14	-0.0021197246
197	0xbccd8d64	-0.025091834
198	0x3d0605a7	0.032720234
199	0x3ca060b9	0.019577371
200	0x3a51a7c2	0.0007997715
201	0x3d81c497	0.06336325
202	0x3d24bb8d	0.040217925
203	0x3d0beffb	0.03416441
204	0x3d32ec1e	0.04368221
205	0xbd7049e1	-0.058664206
206	0xbc0e9aa6	-0.008703863
207	0xbd39f16e	-0.04539626
208	0xbad772d7	-0.0016437423
209	0xbbbcf85c	-0.0057669114
210	0x3c726070	0.0147935
211	0x3d29f5fe	0.041494362
212	0x3d3cd878	0.04610488
213	0xbd205c59	-0.03915057
214	0xbd189da4	-0.037259713
215	0x3d6dba54	0.058039024
216	0x3820c8b8	3.8333907e-05
217	0x3cb78dea	0.022406537
218	0x3c80fa80	0.015744448
219	0x3d426483	0.047459137
220	0x3d16a638	0.036779612
221	0x3d172d49	0.03690842
222	0xbd58f7c9	-0.05297068
223	0xbcffb8ea	-0.031216104
224	0xbc3a296d	-0.011362416
225	0xbd0282f4	-0.031863168
226	0x3d716960	0.058938384
227	0x3d72c828	0.059272915
228	0x3d1e3084	0.038620487
229	0x3ca2de24	0.019881316
230	0xbc1f2538	-0.0097134635
231	0xbd0bf66a	-0.034170546
232	0xbd58fee6	-0.052977465
233	0x3d53dea5	0.051726002
234	0x3d5ba34f	0.05362254
235	0xbd7e805c	-0.06213413
236	0xbd5259a6	-0.051355027
237	0x3c4f9aa9	0.012671151
238	0x3ce96b38	0.028493509
239	0x3cda1c41	0.0266248
240	0xbd28087e	-0.041023724
241	0xbb4c17be	-0.003114208
242	0xbd0b13a9	-0.033954296
243	0xbd2fc1cc	-0.04290943
244	0x3c90fd45	0.017698893
245	0x3d519365	0.051165957
246	0x3d6d2837	0.05789968
247	0x3c11890c	0.008882772
248	0x3d328436	0.043583117
249	0x3d046610	0.032323897
250	0xbd137ade	-0.036005847
251	0x3d140c9f	0.03614485
252	0xbcab9664	-0.020945735
253	0x3c99e5cd	0.018786335
254	0xbd569492	-0.05238778
255	0xbca250dd	-0.01981395
