pynn/models/heidelberg_256/fc_ho.weight.npz (npz, 20744 bytes, 1 tensors)

arr_0 f4 [20, 256]
000000 be b5 01 bc e6 8b a8 3d 85 c9 ca bc 06 aa a6 bb
       -0.007916866 0.082298085 -0.024754295 -0.0050861863
000010 76 f9 48 be aa a7 30 bd ef ca 70 3b ab 80 6c be
       -0.19626412 -0.043128647 0.0036742052 -0.23095958
000020 1e b0 89 be ab fc 15 3b b6 4f 98 bc a2 c9 04 bd
       -0.2689218 0.0022886198 -0.018592697 -0.032418855
000030 b5 99 94 3c 67 13 5a 3d df 20 70 bd 90 3f 29 be
       0.0181397 0.05324116 -0.0586251 -0.16528153
000040 18 34 16 be 78 7b 53 3d 30 18 eb 3c 8f d4 17 3c
       -0.1466831 0.05163142 0.028698057 0.0092669865
000050 3f 09 81 bc c7 c1 91 bb 57 d3 13 3d ae 69 87 bd
       -0.01575148 -0.004448149 0.03609022 -0.06611954
000060 83 fd 66 bd a6 38 4a 3c ff e9 0f bd b5 3e fd bd
       -0.05639411 0.012342608 -0.035135265 -0.12365476
000070 d2 88 c4 3c eb ee 95 3d 8d 92 37 bd 28 8e 07 bd
       0.023991022 0.073209606 -0.044817496 -0.033094555
000080 c8 34 d7 3c f7 8d a2 3c f2 62 a2 3c 8f 5d 52 3d
       0.026270285 0.019843085 0.019822571 0.051358756
000090 b0 2b c4 3d 03 cd 0a be 36 b7 15 bd a2 3e a9 3d
       0.09578645 -0.13554768 -0.036551677 0.082638994
0000a0 33 17 08 bc 95 0a c6 bc f3 0f 80 bc 56 23 3d 3c
       -0.008306312 -0.024174968 -0.015632605 0.011544069
0000b0 2d 6a ac bc 6b ae 0c be 7f bb 24 3d ba ea 91 bb
       -0.021046722 -0.1373841 0.040217873 -0.0044530304
0000c0 6d c1 63 bd 14 2a c2 bc 63 a2 2d be d2 4f 80 be
       -0.055604387 -0.023701705 -0.16956477 -0.25060898
0000d0 d3 45 62 3d b6 d3 95 bd 5f f8 40 3d 3c cc 41 bc
       0.05524237 -0.07315771 0.047111865 -0.011828478
0000e0 32 c6 da 3c e6 5a 2b 3d 9c 65 0a bd c5 7c c2 bd
       0.026705835 0.041834734 -0.03378831 -0.09496454
0000f0 ca 43 0b bd 08 f9 28 bc 15 84 67 3d 2f f3 09 bd
       -0.034000196 -0.01031328 0.056522448 -0.033679184
000100 8b 34 0f 3c 5d 76 ff bb 44 a2 01 3c 1e 64 73 3c
       0.008740555 -0.0077960924 0.007912222 0.014855413
000110 00 55 bc bc 90 3e a2 bd eb cc f0 3d c1 3f fd bc
       -0.02298975 -0.07922089 0.11757835 -0.03091419
000120 99 eb 86 bc 3c 2c b5 3d a6 8b 97 bb 4d e9 2a 3d
       -0.016469764 0.08846328 -0.0046248017 0.0417264
000130 59 0f 0f 3d 1d 05 d5 3c 5a 0a 90 bd 97 47 26 3c
       0.034926746 0.026003415 -0.070332244 0.010148904
000140 4f 45 60 bd 7f 3f e1 bc 7e f8 91 bc 7b 7c 73 3c
       -0.054753598 -0.027496098 -0.017818686 0.014861221
000150 18 21 97 bd 50 3f e2 3c 5d d7 c0 3c 6d 8f ab bd
       -0.07379359 0.02761808 0.023540193 -0.08376966
000160 63 b8 ff 3c f2 48 66 3b 47 00 25 3d 24 3f 18 be
       0.031215852 0.0035138694 0.040283468 -0.14867836
000170 95 18 0f be 40 ab 5f 3d a6 b9 ca bc 8f ab 1e bc
       -0.13974221 0.054606676 -0.024746727 -0.009684457
000180 fa e2 c3 3c 8e b0 1c bd 6c e6 0f 3d 2a af 70 bd
       0.023911942 -0.038254313 0.035131857 -0.0587608
000190 d6 d8 3c be 36 0d 73 bd 91 98 af 3c f5 f3 02 3d
       -0.18442091 -0.05933877 0.021435054 0.031970937
0001a0 e7 b4 36 bd 53 1f 14 3d 33 b4 e3 bd 07 92 60 3c
       -0.044606116 0.036162686 -0.11118355 0.013706691
0001b0 e3 10 d0 bd 24 c7 d0 bd 1f 37 f1 3b 08 ef 85 3d
       -0.10159471 -0.10194233 0.0073613073 0.06539732
0001c0 cc 92 44 3c a1 1e ac bd 51 83 9a bd e3 09 0f bd
       0.01199789 -0.084042795 -0.07544578 -0.034921538
0001d0 f9 65 72 bc 85 c4 00 3d 30 84 8d be f2 de 22 be
       -0.01479482 0.031437416 -0.27639914 -0.1590536
0001e0 00 c2 ac bd 80 28 3d bd d6 8b f8 3c d8 3d 18 ba
       -0.0843544 -0.046181202 0.030340116 -0.0005807555
0001f0 b5 83 80 3d 6e 97 25 3c de 73 62 bd ac 26 b5 bd
       0.06275121 0.010106904 -0.05528628 -0.08845267
000200 42 b1 38 bd 21 b9 c6 3d 1b 6b 93 bd da 2f a9 bd
       -0.04509092 0.09703279 -0.07198163 -0.0826108
000210 02 a9 a4 3d 4d 2c 0d 3e b2 ca 88 3d b7 3d 85 be
       0.08040048 0.1378643 0.06679286 -0.26023647
000220 c5 2d ef bd 70 0b e9 bc a6 72 c3 bc f0 b0 03 bc
       -0.11678652 -0.028447837 -0.02385838 -0.008037791
000230 ab ae 47 3d 37 07 0d bd 2b 98 a3 bd dd d0 ea bb
       0.04875056 -0.03443071 -0.07988008 -0.0071660117
000240 ab bc eb bc dd 41 08 bd 97 1b 32 bc 81 26 ad 3c
       -0.028776487 -0.033265937 -0.010870836 0.021136524
000250 39 72 9e 3d a6 77 29 3d 1d 51 92 bc a7 c1 bb bd
       0.0773663 0.04137387 -0.017860943 -0.09167796
000260 11 c0 5a 3b 70 2d d1 3c 3c 81 32 3d 66 4e 4c bd
       0.003337864 0.025534362 0.04358028 -0.049879454
000270 ad f9 23 bc e9 8e 4d 3d 20 cc 65 3d b7 10 9a bd
       -0.010008258 0.050185118 0.056102872 -0.07522719
000280 c2 4b 9a 3d 20 d1 45 3d 26 9a 33 3b 94 01 88 3b
       0.07533981 0.04829514 0.0027405112 0.0041505788
000290 fa 6e 2b be 12 c9 26 3c 8d 5f a5 bc 8d 21 fe 3b
       -0.16741553 0.010179775 -0.020187164 0.0077554644
0002a0 42 39 84 bd 55 79 2b bd eb 5e 9e 3d 4f 2f 32 3d
       -0.064562336 -0.041863758 0.07732948 0.04350215
0002b0 e6 08 06 bd 82 db 70 bb f9 e2 a9 3d 35 5e ac bd
       -0.03272333 -0.003675193 0.08295245 -0.08416406
0002c0 05 45 1d 3d 02 c4 da 3c 2e cf a6 bc 55 85 2a 3c
       0.0383959 0.026704792 -0.020362463 0.010407765
0002d0 ef f1 fa bb af 4b be 3c f5 c3 a6 3d 6f a9 bc 3c
       -0.0076582353 0.023229448 0.081428446 0.023030011
0002e0 88 c2 20 bc fe 67 a6 3d 2b 61 88 bd 8b 28 9c 3c
       -0.009812005 0.08125304 -0.06659158 0.019062301
0002f0 b7 ec b0 bd 4c 51 3f bd ec 4a 18 3c 66 0e 87 bc
       -0.086389 -0.04670839 0.0092952065 -0.016486358
000300 e2 c1 d0 bd ec 50 19 3d 4d c6 9b bd af 7c 1f 3d
       -0.1019323 0.03743069 -0.07606182 0.038937267
000310 d7 e3 a1 3c ed 81 0c be bd c2 1e 3d df ef aa bd
       0.019761963 -0.13721438 0.038759936 -0.08346533
000320 a1 9f bd bc ae 3e 0a 3d e2 76 ca bd e8 e9 dc bc
       -0.023147406 0.033751182 -0.09885956 -0.026967004
000330 80 28 2d be e6 84 86 bd 6a 07 14 3d 52 ef e2 39
       -0.16909981 -0.06568317 0.036139883 0.00043284387
000340 b2 b0 c6 3d 5a 54 d5 bb 0a 2f 6a bd ac bb 4e 3c
       0.09701671 -0.0065102996 -0.057173766 0.012617987
000350 dc 1d f4 b9 24 05 89 3c 1c 42 79 3d 79 31 09 be
       -0.00046561554 0.016726084 0.060854062 -0.13397779
000360 03 b0 c9 3d bb 68 a7 3d 33 dc 48 bd 40 7f f0 3c
       0.09848025 0.081742726 -0.049038123 0.029357553
000370 c2 50 54 3d e4 9d 73 3d 18 da 49 3d 9e 84 c3 3c
       0.05183483 0.059476748 0.049280256 0.023866948
000380 6b 39 4f 3e 87 90 0c bd a8 18 79 bd 4d d5 86 bc
       0.20236747 -0.03431752 -0.06081453 -0.016459132
000390 46 0f 34 bd 29 9d 05 3d 26 71 0e bd 8b e2 2e 3d
       -0.04395988 0.032620583 -0.034775876 0.042696517
0003a0 f3 d4 f1 bc ab b7 98 bd 5d b4 8f bd e0 f0 79 3d
       -0.029520487 -0.07456907 -0.070168234 0.061020732
0003b0 ea 8d b5 bc c2 fe 42 3b f6 96 03 be 92 c1 4e be
       -0.022162396 0.0029753898 -0.12850556 -0.20191029
0003c0 85 5d c1 bc 08 ae 84 bd 6c 6d 15 3d c8 65 8f bc
       -0.023604164 -0.06478506 0.036481306 -0.017504588
0003d0 55 08 8f 3c 0c 03 a6 bd ef 11 4d 3b af 6c f2 bb
       0.017460028 -0.0810605 0.0031291207 -0.00739821
0003e0 a0 c8 d4 bb 96 a8 fe bd f9 7e 65 be 22 9f 67 3d
       -0.006493643 -0.12434499 -0.22411717 0.056548245
0003f0 7b 94 9a 3d 1b 7c 1c 3d 2a 9d 7a bd a7 b8 29 3d
       0.07547852 0.038204294 -0.06118504 0.041435864
