pynn/models/heidelberg_256/fc_ih.weight.npz (npz, 717064 bytes, 1 tensors)

arr_0 f4 [256, 700]
00000000: 244a c2ba ddb3 3a3b d365 acbc f5f1 d83b
00000010: e400 61bb f3f0 0c3d 97e9 063d 3daa 803c
00000020: 6dd4 9a3c ab43 19bd 2ce6 5ebc d705 393b
00000030: 787f 4f3c 7aa2 aebc c07e 29bd 2a2d 023c
00000040: b83f a5bb 5891 1bbc 87bd 0bbd 6339 043d
00000050: 2d79 33bc ddac b1bc afc7 3d3d 0433 9b3c
00000060: f050 34bb 85e3 a63b 64d9 b6bc 0a9a 193c
00000070: dd7e 15bc 1e08 ff3c 7368 c53c 2496 2bbc
00000080: 7338 f2bc ad31 333d 07fb 23bd 0c48 acbc
00000090: aa97 fa3b ef47 823b b6b8 193d 4fd2 37bc
000000a0: e8b2 123c dadb ef3c 0b69 23bd c7e9 2fba
000000b0: bf43 ac3c bba2 0cbd 6066 293c 8cb7 66bc
000000c0: 0cb2 4c3d 256d 933b 63ae 24bc dfc4 2fbc
000000d0: 3fcb 2b3d 3655 8c3b b490 1a3d 9281 b6bc
000000e0: 47c2 3d3d 9aa8 3f3d e930 e53b c770 013d
000000f0: 101a dc3c 61db 273d 2fb8 22bd 6dc4 9fbc
00000100: ab32 a2bc 080c 153d 0183 74bc 5d68 48bb
00000110: 4617 963c 0873 223d ca80 7b3c a53d cdbc
00000120: 4897 6d3c dab2 413d c63f 463d 7344 873c
00000130: 06ae 86bb 4dd8 c23b 9a23 1c3c 6b5a bf3c
00000140: 18c9 be3c ba0d 95bc f812 babb 78e0 a0bc
00000150: b8f4 61bc 4e18 073d 983f 9abc 1871 d7bc
00000160: 6ebe 113c ced4 263d 4fb0 483d ea1c 1b3c
00000170: 33e7 843b b237 15bb eda7 fc3c c3d1 3d3c
00000180: 75b7 b8bc 5d67 b3bb 0fcc a7bc cca6 a93c
00000190: 16ec 853c 170a 1ebc 50ee aa3b 83a4 073b
000001a0: d313 cabb b176 8a3a ad4f 163d e068 873c
000001b0: ea21 2abb 2ffd 163d eb06 c73c adf9 be3b
000001c0: 5f69 48bc f0cb ec3b faf9 7aba fa72 9abc
000001d0: a298 a33c 9df6 f73b 241a aa3a 5d27 203c
000001e0: 6d48 9a3c 29fa a43c ec6b 5f3d f810 6d3c
000001f0: 0e9a 6b3d c3a3 55bc 5a40 3e3d 6b6f 463d
00000200: 7c82 7b3c e318 a53c e695 35bc 7728 3c3c
00000210: 0e80 243b 5222 303d 56ea efbc 9d08 14bc
00000220: 4422 2c3c 9890 a2bc 2382 f73c 58c6 583d
00000230: 6b68 d13b faa5 cabc 90e6 ba3c be68 f63c
00000240: c971 be3a edf0 493c 552b a3bc d0fa 15bc
00000250: e350 87bc 4c50 e3bc 89e9 ee39 6994 97bb
00000260: 764d 5e3c a06c fa3c f5a7 723c 2372 4abb
00000270: f365 2b3c 1110 363d 5ef0 1a3d 8b66 243d
00000280: 4f19 76bb 6718 cd3b 4e29 863c 1e72 bbbb
00000290: a14a bcbc 9779 a73c 8b3c 2a3c da0e 473d
000002a0: 985c 5abc 48ce 00bc f1d6 173c 807a c63c
000002b0: 55bb c93c 1959 59b9 8bea eb3c fc8a bc3c
000002c0: 0ea7 143d 54b6 02bd 28de 85bc f4ca 90bc
000002d0: 8c24 ad3c 9242 00bd 220a d23c 2880 67bc
000002e0: 96b9 bd3c 85af 7c3c 2f0f ebbc 6fc6 8abb
000002f0: eb48 9cbc ca2f c7bc 555c 0ebd ac90 61bc
00000300: 8c28 ce3c 0460 a0bc 1c72 c9bc 8c42 3e3c
00000310: 55cd 0ebc 29ba 013c e900 20ba 8468 383b
00000320: 0c12 ebbc ee79 713c e2ba bdbc 10b7 843c
00000330: 10fb bb3c dea3 d1bc 8437 febc 698a 193d
00000340: 064e f83c 92b7 bf3c 4222 463d 2911 303b
00000350: 3b3c b0bc 79c8 4d3c 9f13 a8bb 13d1 20bc
00000360: 501e c3bc 3da0 35bc bdd6 463d 952a 933c
00000370: 843c 74bc 08dd 80ba 9fde 713c f96d 993c
00000380: 3936 1d3d 1e16 35bc 5ce0 c53b 6ef7 323d
00000390: 57c4 1a3b 78f2 2ebd e001 e3bc 0ad6 3a3b
000003a0: 4fd4 c0ba 879b 17bc d798 0eba 57ca 12bd
000003b0: c3e1 c4bc 9de2 0abd 6b64 09bb 2366 aa3b
000003c0: c880 cb3c b9c0 b33b 1913 60bc 5d25 393d
000003d0: 3ca7 353b 4f6e aa3c b1f3 183d b353 a33c
000003e0: 7a52 b2bc d276 5c3c 1511 ab3c 0c1d a6bc
000003f0: bbe9 f2bc 34f5 513c e984 883c 8f2f edbc
-0.0014823121 0.0028488555 -0.021044647 0.0066206404 -0.0034332806 0.034409475 0.032937612 0.015706176
0.01890012 -0.03741805 -0.013604682 0.002823224 0.012664668 -0.02131771 -0.041380644 0.007945338
-0.0050429963 -0.009495102 -0.034116294 0.03228129 -0.0109541835 -0.021688873 0.04633301 0.018945225
-0.0027514063 0.0050930404 -0.022320457 0.009375105 -0.009124485 0.0311318 0.024097657 -0.010472808
-0.029567933 0.043748546 -0.04003432 -0.021030448 0.0076474743 0.0039758603 0.03752967 -0.011219575
0.008953787 0.029279638 -0.0398951 -0.0006710556 0.021028398 -0.03433488 0.0103393495 -0.014081847
0.049974486 0.004499095 -0.010051343 -0.01072809 0.041941877 0.004282619 0.037735656 -0.02227858
0.046327855 0.04679165 0.006994356 0.031601693 0.026867896 0.0409807 -0.039726432 -0.019502843
-0.019799551 0.036388427 -0.014923812 -0.0030579783 0.018321645 0.039660484 0.01535053 -0.025053808
0.0145014 0.047289707 0.048400663 0.016512131 -0.0041101007 0.005946195 0.009529972 0.023358544
0.023289248 -0.018195022 -0.005678531 -0.019638285 -0.013791256 0.032982163 -0.018829152 -0.026299044
0.0088955 0.04073029 0.048996266 0.009467343 0.0040558814 -0.0022768793 0.030841792 0.011585656
-0.022548417 -0.0054749683 -0.020483045 0.020709418 0.016347926 -0.00964596 0.0052163973 0.0020697422
-0.006166914 0.0010563937 0.03669708 0.0165295 -0.0025960156 0.03686255 0.024295291 0.0058281035
-0.012232154 0.0072264597 -0.00095739926 -0.018853653 0.019970242 0.0075672404 0.0012977761 0.00977501
0.018833363 0.020138817 0.05454628 0.014469378 0.057519965 -0.013039532 0.04644809 0.0484461
0.015350934 0.020153468 -0.011083102 0.011484257 0.002510074 0.04300148 -0.029286545 -0.009035257
0.010506216 -0.019844338 0.030213421 0.05292353 0.0063906214 -0.024737347 0.022815019 0.030079242
0.001452976 0.012325508 -0.019918123 -0.009154037 -0.016518062 -0.02774825 0.00045568895 -0.004625846
0.013568273 0.030569375 0.014810552 -0.0030890785 0.010461318 0.044448916 0.03782689 0.040136855
-0.0037551706 0.0062590125 0.016377117 -0.005720391 -0.022984805 0.02044372 0.010390411 0.048598148
-0.01332774 -0.007861681 0.009267555 0.024228334 0.02462546 -0.00020727924 0.028798362 0.023015492
0.03629213 -0.031912163 -0.016341284 -0.0176749 0.021135591 -0.031313486 0.025639597 -0.014129676
0.023159783 0.0154227065 -0.028693764 -0.004235081 -0.019077739 -0.02431478 -0.034756023 -0.013767403
0.025165819 -0.019577034 -0.024590544 0.011612546 -0.008715947 0.007917919 -0.0006103651 0.0028138468
-0.028695129 0.014738543 -0.023160402 0.016200572 0.022946864 -0.025590833 -0.031032331 0.037485514
0.030310642 0.023402963 0.048372515 0.0026865697 -0.021513095 0.012560003 -0.005129292 -0.009815472
-0.023818165 -0.011085567 0.048544634 0.01796464 -0.014907006 -0.0009831497 0.01476255 0.018729197
0.03838179 -0.011052636 0.0060387086 0.043693 0.0023615563 -0.042711705 -0.027710855 0.0028508925
-0.001471171 -0.009253389 -0.0005439645 -0.035837498 -0.024033433 -0.03390752 -0.0020964395 0.005200164
0.024841681 0.005485621 -0.013676428 0.045201648 0.0027718088 0.020804552 0.037341777 0.019937372
-0.021767844 0.013456063 0.020882169 -0.020277523 -0.029652467 0.012814809 0.016664939 -0.028953342
