pynn/models/nmnist_256/fc_ho.weight.npz (npz, 10504 bytes, 1 tensors)

arr_0 f4 [10, 256]
00000000: 4c29 17be fa7d 403d 2e7e 5d3e de85 073e
00000010: fa5f 10bc 0f4f 8ebe 84c1 763d 2022 c13d
00000020: 2ca2 b739 bd01 04bd 8ef7 0ebd 65a1 ed3d
00000030: b025 9c3e 4a25 e23d b26f 94bc 53cb 93bd
00000040: 28bd 593d 84d5 fd3d 6d80 07be 81a8 0ebe
00000050: 3226 11be a1a1 e2bd 89fa f2be b81a c0be
00000060: fad8 e9bd 286c ae3c 369f 15bd 09f1 4bbe
00000070: 1624 fbbd 8599 95b9 00a4 aa3d 532d 5f3c
00000080: 3d48 603e 7939 a8bd 5476 91bd 8b52 4f3e
00000090: 779d 24be a61a fcbc 3b12 61be 7e18 05be
000000a0: 12d1 11bd 39f5 553d 59aa 4a3e 41ee 1d3e
000000b0: d6e0 d1be ff85 b83d 65b5 e2bd 618d 2bbf
000000c0: a84a 103c a917 84be 6ea6 a83c 356a 3fbe
000000d0: 8527 c83d 17b0 5c3d 1b8e 7ebd 716b 8f3e
000000e0: 3b1d aabe 98db d53d 7269 d13d 1b6b 8e3d
000000f0: 222f 943b ae7b 5fbc 5229 343d 8a34 1ebe
00000100: 7cad cdbc 4f8f a8be 605f 3abd 05fb 14bd
00000110: acd7 92bd 11e9 6d3e 0233 143d 294a a6be
00000120: 0af1 b9bd 78fd 1c3d 99e4 a73b 5b9e 50be
00000130: 33cf 293e d1b9 e9bd 676b f7bd 49a5 c93d
00000140: 6327 77bd 5ac1 9ebb 3a90 11be 7f22 38bd
00000150: a9af 353d d089 0abd e18d a3bd ccbf 66be
00000160: 04c0 18bf bb24 18be 6a67 9abd 8138 c13c
00000170: beaa a0bd 40b9 893d d25c febd 3012 c23a
00000180: d25a 373e f7fb 6e3d 8ed7 28bc 847b 40be
00000190: cfcb 14be 1758 963e 79a5 a53a 472a 91bd
000001a0: ec79 a33d 03a2 053d 8882 f13d b0e4 073c
000001b0: 1be1 9b3e 037e 683e e2c2 4dbd 9da3 483e
000001c0: 2725 09bd 3448 cc3d 3b2e edbc eb5e cabd
000001d0: 0e2c 3e3d 3c97 3e3e 6f58 a73c 0a19 003e
000001e0: bc15 d7be 4292 943c c6d9 6f3d b8e4 833d
000001f0: 590e 27be 3037 b9be 47f0 f93d bbe7 1cbe
00000200: 823c ffbc 45f3 bbbd 9f74 58bd 68d2 0b3e
00000210: e7e7 af3c a4f7 bbbb e873 36bd ac8b 93be
00000220: 206c 49bd 716e 9e3d eb6f a7bc bfe2 973d
00000230: 3264 7d3d b918 443d 0fb3 e23d fe20 18be
00000240: f8b4 47bd 4744 c1bd 028c 843e f8e3 bc3d
00000250: 7cec 5ebe 330d b23d 13f6 8cbd d476 303d
00000260: 4bc2 d5bb bf62 a1bc ab1e 27be 3023 1fbe
00000270: e186 d03d 7b16 913d d006 2ebe 8835 94be
00000280: e873 69be b5eb 31be be43 643d 24de cb3d
00000290: 94d1 96bd 1e23 6cbe 78c0 71bc 5a33 1fbd
000002a0: 17a2 85bd 8792 f33d 4bb6 7abd 20f5 d0bd
000002b0: 4470 6ebe 2bb4 833d 9376 043d 82db a83d
000002c0: 4932 263e 430c 21bc 3433 1a3e 3f14 8ebc
000002d0: 75b6 833d 4aad f03c 01ee bc3d c539 55bd
000002e0: c3b1 b43d 0c1a c2be 3658 60bd 1d44 7c3d
000002f0: ba0d e33d 3e40 b93d 97a7 b9be 91b9 fe3c
00000300: f0c9 e0bc 8edd 1f3c 52aa 553e 5f2a aabe
00000310: 47ff 88be b007 fcbc fdb8 37be 3c16 ba3c
00000320: 320f 87bc f836 9cbe edf5 d83d ce80 063e
00000330: 600c 9d3e bbf6 b2be 2504 75bd 16e5 063e
00000340: 1749 95be 16a5 ac3d eb2d 033b 337e a63d
00000350: 8864 d7bd 399e 823e a2e4 02bf 7417 9bbd
00000360: 5620 80be 0072 e2bd 81d6 51be f67a 593d
00000370: fa8f a3bc d037 d43d e68b a63c c453 013e
00000380: 4dab c33c c93a a13d e2ba 61bc 4e10 a83d
00000390: 01d5 163d 1302 043e 9402 2f3e 349b b7bd
000003a0: 8d96 1e3e fc40 453d 6ee3 563d 5056 13bf
000003b0: 6fe3 8f3d 7ea4 eabd 4b6c f33d 438a 2e3c
000003c0: 591c 623e 63fb a8bd 2ce5 84bd ec29 453c
000003d0: 0592 d6bd 6670 a9bd ef7d bcbd 0184 68be
000003e0: 61f8 a9be 5c45 c63d 96a6 b3bd 7592 d03c
000003f0: 4ac2 80bd 7bb7 acbb 9330 39be 6557 2b3e
-0.14761847 0.04699514 0.21630165 0.1323466 -0.008811945 -0.27794692 0.060243145 0.09430337
0.00035025307 -0.03222822 -0.034904055 0.11603049 0.30497503 0.110422686 -0.018119667 -0.072165154
0.05315891 0.123942405 -0.13232584 -0.13931467 -0.14174727 -0.110659845 -0.47456768 -0.37520385
-0.11418338 0.021291807 -0.03652879 -0.19916166 -0.12262742 -0.00028533876 0.08332062 0.013621646
0.21902557 -0.08214087 -0.071026474 0.20246331 -0.16075693 -0.030774426 -0.2197961 -0.12997624
-0.035599776 0.052235816 0.19791545 0.15422918 -0.4099185 0.09009933 -0.110697545 -0.670126
0.008806862 -0.257993 0.020587172 -0.18692859 0.09773163 0.05387887 -0.06214724 0.2801166
-0.33225426 0.10442275 0.1022519 0.069540225 0.00452222 -0.013640327 0.04398472 -0.1544973
-0.025107138 -0.32921836 -0.045501113 -0.036372203 -0.071700424 0.23233439 0.036181457 -0.32478455
-0.09079178 0.038327664 0.0051236865 -0.20372908 0.16582946 -0.11412395 -0.12081032 0.09845979
-0.060340296 -0.0048448266 -0.14215174 -0.044954773 0.044356976 -0.033822834 -0.07986046 -0.22534102
-0.5966799 -0.14857762 -0.07539256 0.023586513 -0.078450665 0.06724787 -0.12420048 0.0014806446
0.17905739 0.05834576 -0.0103052985 -0.18797117 -0.14530872 0.29364082 0.0012637816 -0.07088142
0.07982239 0.03262521 0.11792475 0.008294269 0.3044518 0.2270432 -0.050234683 0.19593664
-0.033482697 0.09974709 -0.028952708 -0.098813854 0.046428733 0.18612379 0.02042791 0.12509552
-0.4200877 0.018136147 0.058557294 0.06440109 -0.16314067 -0.36174917 0.122040324 -0.15322773
-0.031156782 -0.09177259 -0.052845594 0.13654482 0.021472884 -0.005736308 -0.04454413 -0.288175
-0.04917538 0.07735909 -0.020439109 0.07416295 0.06186313 0.04787514 0.11069309 -0.14856336
-0.04875657 -0.09436851 0.25888067 0.09223169 -0.21769899 0.08693924 -0.068828724 0.043082073
-0.0065234057 -0.019700406 -0.16320293 -0.15540767 0.10181976 0.07084366 -0.16994786 -0.2894709
-0.22798121 -0.17375071 0.055728666 0.09954479 -0.073641926 -0.23060271 -0.014755361 -0.038867332
-0.06525057 0.11893182 -0.061209004 -0.10203004 -0.23285013 0.06430849 0.032339644 0.08244993
0.1623012 -0.009829584 0.15058595 -0.017343638 0.06431285 0.029379506 0.09225083 -0.052057046
0.08822968 -0.37910497 -0.054771625 0.061588395 0.110866025 0.09045456 -0.36260673 0.031094344
-0.027440041 0.009757413 0.20865753 -0.33235452 -0.2675726 -0.030765384 -0.17941661 0.02271568
-0.016486738 -0.30510688 0.105937816 0.13135073 0.30673504 -0.34953865 -0.059818406 0.13173327
-0.29157326 0.08429925 0.0020016383 0.08129539 -0.10517222 0.2551134 -0.51130116 -0.07572833
-0.2502467 -0.110569 -0.20491983 0.05309578 -0.019966114 0.10362208 0.02033038 0.1262961
0.023885394 0.078725405 -0.0137774665 0.08206235 0.03682423 0.12891416 0.17090827 -0.089651495
0.15487118 0.048157677 0.052462988 -0.5755358 0.070258014 -0.11457156 0.118858896 0.010653081
0.22081126 -0.08251073 -0.064890236 0.012033921 -0.1047707 -0.082733914 -0.092037074 -0.22706605
-0.3319731 0.09681198 -0.08772008 0.025460461 -0.06287058 -0.005270896 -0.18084936 0.16732557
