pynn/models/shd_ffw_d_512/fc_ho.weight.npz (npz, 41224 bytes, 1 tensors)

arr_0 f4 [20, 512]
00000000: 6cd4 1e3d ccdc c73c c901 2d3d 7854 923d
00000010: 231c cb3c d883 903c 3f3f 58bd 27d8 57bd
00000020: d822 2d3d bb71 1e3d 3e21 2cbd 5448 503b
00000030: 5269 4ebc edb4 8bbd cd1e a23b e1d9 36bc
00000040: de0a 32bc aaab 0f3b 389f c4bc 878d e53c
00000050: 83b3 d93c a3cf 2ebd 5a6d 18bc daec 82bd
00000060: 311c 99bd 3c7d 86bc 49da c03b 4f99 c03c
00000070: bd50 2e3d 89de 12bd 9bf2 a9bc 65fb 9ebd
00000080: a9f7 f03c 745d 4f3d 5e65 21bd 0b32 8abc
00000090: 0304 fa3c 7937 a73c b05b efbc fec6 fcbc
000000a0: e4df c5bc bca9 4a3c 71b7 b8bc 1f62 91bc
000000b0: b7d3 90bd 0397 463d 7db6 51bd 6822 af3b
000000c0: 7ba4 323d 3a32 d6bb 821a 363d 8a8b c03c
000000d0: f055 19bd ae22 fb3c c5ca 9e3b 95b9 bf3c
000000e0: 7a0e 30bd ba39 15bd 1506 f33c c64a 19bc
000000f0: 62fc 2c3d 5580 883d 69d6 e83c 1b23 84bd
00000100: 13dc 803d 7fb9 c8bc 3502 07bd 69dc 2d3d
00000110: 8f66 4fbd a9a3 45bd 36be 563c 490c 223d
00000120: 9d11 8bbc bb37 0d3d 79fc 14bd a063 b43b
00000130: 4a1d 983c 79d7 8ebc 3d7f 2cbc 4134 26bd
00000140: ac82 c2bc 8f04 60bd 708b d2ba 411e 6ebd
00000150: 2457 fc3c e783 54bd 47d0 c2bc 47cf f3bb
00000160: a3a9 81bc b310 853d 6401 09bd 8df3 08bc
00000170: 2675 c1bb 1d62 1e3d c589 a1bc 9cb5 093d
00000180: b36f 64bd 6f8f 353b 4b92 483d b9c5 4fbd
00000190: 7ecb 5dbc 2e31 27bd f1b7 163d 63ba e8bc
000001a0: 9191 d63c ca02 52bc f042 e33c c6e5 e3bc
000001b0: d62e 083d c19c 22bd 806d b4bc bff1 5fbd
000001c0: 2dfb ef38 22a6 84bc 7fed bbbc 2abc ec3c
000001d0: a9f2 1f3d 42f5 0d3d ff75 a53c 2ec4 9dbc
000001e0: d7ba abbd 1561 34bd 16d2 e5bc 302c e03b
000001f0: 0860 943c 30b2 3e3d cbf0 0f3d b280 a3bc
00000200: dbd2 be3c a155 573c 506f a33b 5d86 0dbd
00000210: 52a2 11bd 2dcb 5c3b a5a9 553d cdc2 cb3c
00000220: 2256 603d fa9a f1bc 2718 51bc c850 7ebd
00000230: 73ed ce3c 9acb 96bc 91d8 8dbd 1f5f 2d3d
00000240: bfe7 74bc 68d8 4ebd bf5e 2f3d 8c28 95bc
00000250: c337 833d 9bf3 45bd 09df 153d 4ae5 303d
00000260: a323 a2bc 19e8 a8bc 5d7a b43b 8f54 6cbd
00000270: dff8 28bd c850 55bc e561 fd3c 8bc8 f3bc
00000280: d7b5 1cbd a380 a83c 5fb3 033d 5540 423d
00000290: b1d2 513d be51 3bbd be44 c03c 789c 8dbc
000002a0: e537 c9bc eff5 02bd 48fe 7c3c 3670 4bbc
000002b0: 0522 053c a57a d23b 7691 923d 422d edbb
000002c0: 9187 3a3c d93b 56bd f3bb 57bd bd7d 33bc
000002d0: b3fa cabc 4363 463c a02a 07bc aef2 15bc
000002e0: 54e5 22bd 87d9 2c3c c94f 1cbd 8191 86bd
000002f0: fd61 02b9 1af5 c73b 2c15 50bd 1df3 023d
00000300: 8b24 54bc b964 9d3c 44f1 113d e054 a5bc
00000310: b3fe 2b3d d353 babc fdcc 073d 8c71 f73c
00000320: a7fd 3b3d dffa 013c 722a b33c b6b2 9cbc
00000330: f99f f23c 1575 9dbc 8580 273d e7d0 f93b
00000340: 3ea5 1c3d 75d3 2abd e2e7 0e3c f1f0 afbc
00000350: 7a05 3abd 9a30 68bd 4b45 f5bc cf6a 99bc
00000360: 650f 7ebd aece d03c 0fe7 64bd 7e40 bf3c
00000370: fc92 f63c ee99 263d 6b45 193c d2b8 90bc
00000380: 7700 3ebd 9d57 16bd 9892 133c a2d0 3c3d
00000390: 49f6 9d3c a186 563d ed6e 23bb fb4a 90bb
000003a0: daab 27bd 1be4 3a3d dbe6 f3bc 3efa 263d
000003b0: 130e 9cbd 2261 4d3d 9adb 3d3c 2b55 50bd
000003c0: 4921 9e3a 4f12 48bd 3b47 a53c 1273 95b9
000003d0: c5d4 cfbc db12 443d dae2 a3bb 5078 2dbd
000003e0: 75e8 2e3d d340 f6bc f478 313d f74c d6bc
000003f0: f8b2 7f3c d81f 22bd b9ef 213d c7af a4bd
0.0387768 0.024397276 0.04223803 0.071450174 0.02479369 0.017640993 -0.05279469 -0.052696373
0.042269558 0.03868268 -0.04202389 0.0031781392 -0.0125983525 -0.06821618 0.0049475194 -0.011160345
-0.010866849 0.0021922388 -0.024001703 0.028021587 0.026574856 -0.042678487 -0.009303415 -0.06392832
-0.0747608 -0.016417138 0.0058853966 0.023510603 0.042557467 -0.035856757 -0.020745566 -0.077627935
0.029414969 0.050626233 -0.039403312 -0.016869565 0.030519491 0.020412194 -0.029218525 -0.030856606
-0.024154611 0.012369569 -0.02254841 -0.017746983 -0.070716314 0.04848386 -0.051199425 0.0053446777
0.043613892 -0.006536749 0.044458874 0.023504037 -0.037435472 0.030656185 0.0048459494 0.023403922
-0.042982556 -0.036432005 0.029665986 -0.009356206 0.04223288 0.066651024 0.028422551 -0.06452008
0.06291976 -0.024502514 -0.03296109 0.042446528 -0.050634917 -0.04825178 0.013106873 0.039562497
-0.016976172 0.034476977 -0.03637359 0.0055050403 0.018568654 -0.01743673 -0.010528383 -0.040577177
-0.02374395 -0.054691847 -0.0016063284 -0.05813432 0.03080327 -0.051883604 -0.023780955 -0.007440481
-0.01582796 0.06497326 -0.03344859 -0.008358848 -0.0059038578 0.038667787 -0.019719014 0.03362046
-0.055770587 0.0027703901 0.04896764 -0.050725672 -0.013537286 -0.040818386 0.036796514 -0.028409189
0.026192458 -0.012818048 0.02774188 -0.027819525 0.03324779 -0.039700273 -0.02202487 -0.054673906
0.00011443193 -0.0161925 -0.022940395 0.028898317 0.039049778 0.034657724 0.020197866 -0.019258585
-0.08385246 -0.044037897 -0.028054278 0.006841205 0.018112198 0.04655665 0.035141747 -0.019958828
0.023293903 0.013142974 0.0049876347 -0.034551967 -0.03555519 0.0033690438 0.05216374 0.024873162
0.054769643 -0.029492844 -0.012762106 -0.062088758 0.025259709 -0.018407632 -0.069260724 0.042327043
-0.014947831 -0.05049935 0.042814966 -0.01820781 0.0640712 -0.048328023 0.036589656 0.043187417
-0.019792384 -0.020618485 0.005507751 -0.05769783 -0.041252967 -0.013019748 0.030930469 -0.029758712
-0.038259353 0.020569151 0.032153483 0.047424633 0.05122632 -0.045732252 0.023470279 -0.017286524
-0.024562785 -0.03197282 0.015441485 -0.01241689 0.008125787 0.006423312 0.07156651 -0.007238061
0.011384861 -0.05230317 -0.052669477 -0.010955271 -0.024777746 0.012108627 -0.008249909 -0.009152098
-0.039769486 0.010549909 -0.038162027 -0.065707214 -0.0001243427 0.0061022164 -0.05080144 0.031970132
-0.012948166 0.019213067 0.03563048 -0.020182073 0.041990947 -0.022745049 0.033154476 0.03020551
0.0458962 0.0079333475 0.021870825 -0.019128185 0.029617297 -0.019220868 0.04089405 0.00762378
0.038243525 -0.041705567 0.008722277 -0.021477195 -0.04541538 -0.056686975 -0.029940268 -0.018727688
-0.0620264 0.025489178 -0.055884417 0.023346182 0.030099384 0.040674143 0.009354929 -0.017666254
-0.046387162 -0.03670465 0.009007119 0.046097405 0.019282477 0.052374486 -0.0024937943 -0.0044034696
-0.040935375 0.045627695 -0.029773166 0.040765993 -0.07619872 0.05014146 0.011588002 -0.050862473
0.0012064363 -0.048845585 0.020175567 -0.0002850523 -0.025370011 0.047869544 -0.005001408 -0.042351067
0.042702157 -0.030060207 0.04332824 -0.026159747 0.015606634 -0.03958115 0.039535258 -0.08041339
