pynn/models/nmnist_rnn_32/fc_ih.weight.npz (npz, 296200 bytes, 1 tensors)

arr_0 f4 [32, 2312]
0	0x3c896403	0.016771322
1	0xbab74905	-0.0013983554
2	0x3c2e9a36	0.010656884
3	0x3c8302bf	0.01599252
4	0x3c01e942	0.007929148
5	0x3ca1415f	0.019684492
6	0xbc809fdd	-0.015701229
7	0xbb32463b	-0.0027202505
8	0x3c56726a	0.013088802
9	0x3b72e4d0	0.0037062652
10	0xbbb26872	-0.0054445798
11	0xbc132ac9	-0.008982369
12	0x3c655802	0.0139980335
13	0xbc75508e	-0.014972819
14	0xbbbfcd0e	-0.005853302
15	0x3c913557	0.01772563
16	0x3bd2c100	0.006431699
17	0xbc6d9ea1	-0.014503152
18	0x3c1b4c9a	0.009478712
19	0x3b6d46d8	0.0036205556
20	0x3ac49010	0.0014996547
21	0x3b479160	0.003045164
22	0x3c881d33	0.016615486
23	0xbbfa370a	-0.0076359557
24	0xbc89815a	-0.016785312
25	0xbb0e2c30	-0.0021693818
26	0x3bb16b68	0.005414415
27	0x3b76b460	0.0037644133
28	0x3b9ccfcc	0.0047855135
29	0xbc8bd521	-0.017069401
30	0xbca630d6	-0.020286959
31	0xbca15788	-0.019695058
32	0x3be30944	0.006928595
33	0xbc996277	-0.01872371
34	0x3c273ebc	0.010207828
35	0xbcbd079a	-0.023074914
36	0x3c8fef9f	0.017570315
37	0xbab26cc0	-0.0013612732
38	0x3bc60be0	0.006043896
39	0xba4056eb	-0.00073371705
40	0xbb99860d	-0.0046851696
41	0xbca467f6	-0.020069104
42	0x3c5abdf2	0.013350951
43	0x3ca01003	0.019538885
44	0x3d3fdcf6	0.046841584
45	0xbca557c8	-0.020183459
46	0x3a9cc6a0	0.001196105
47	0xbb9ad30c	-0.004724866
48	0xbc3737bc	-0.011182722
49	0x3b3a6168	0.0028439406
50	0xbc7ac8fc	-0.0153067075
51	0xbc06312e	-0.008190436
52	0xbbb1ced0	-0.0054262653
53	0x3c31683a	0.010828072
54	0x3ac27940	0.0014837161
55	0x3c1ca2fa	0.009560341
56	0x3b038dae	0.0020073461
57	0x3bf7165c	0.0075405072
58	0xbca89d7c	-0.020582907
59	0x3c1bb0b6	0.00950258
60	0x3c944d13	0.018103158
61	0x3ca862ff	0.020555018
62	0x3c6efd5e	0.014586775
63	0x3d20d63a	0.039266802
64	0xbba59648	-0.0050533153
65	0x3bdfd8ed	0.0068312795
66	0x3bdf2a4c	0.006810462
67	0xbc72a49b	-0.014809753
68	0x3c848093	0.01617459
69	0xbc428435	-0.011872341
70	0xbc836915	-0.016041318
71	0x3a674500	0.00088222325
72	0xbc470271	-0.012146578
73	0x3bfd0a30	0.0077221617
74	0xbb875fd4	-0.0041312966
75	0xbc0d7fe8	-0.008636452
76	0xbbf2452a	-0.007393499
77	0xbc96ee70	-0.018424243
78	0x3ca52ca9	0.020162897
79	0xbca9b3aa	-0.020715553
80	0x3c26d6e2	0.010183068
81	0xbac2b3f0	-0.0014854651
82	0xbc970803	-0.018436437
83	0x3c32f26e	0.010922058
84	0xbb8fa15c	-0.004383249
85	0x3c40fb96	0.011778733
86	0xbc5f4d64	-0.013629291
87	0xbc88cdff	-0.01669979
88	0xbcc081cd	-0.023499394
89	0xbc78f316	-0.015194675
90	0xbc826449	-0.01591696
91	0xbbf3ee78	-0.007444199
92	0x3ba09914	0.004901061
93	0xbb9d6188	-0.0048028864
94	0xbc58ebdf	-0.01323983
95	0x3ca6fd4b	0.020384451
96	0xbb224510	-0.0024760403
97	0xbc6a002a	-0.014282266
98	0xbc9d6707	-0.019214166
99	0xbc3474f0	-0.011014208
100	0xbc418164	-0.011810634
101	0xbc7a35fa	-0.015271658
102	0x3bb52ac4	0.0055287797
103	0x3c6d58ee	0.0144865345
104	0x3c5e570a	0.013570556
105	0x3bc0ff78	0.0058898292
106	0xbba4b43c	-0.0050263684
107	0x3a2867c0	0.00064241514
108	0x3ba53758	0.005041998
109	0xbbf6e488	-0.0075345673
110	0x3a190b2a	0.00058381504
111	0xbab0f446	-0.0013500534
112	0xbc893df9	-0.016753184
113	0x3c0f0217	0.008728526
114	0x3ca2ce48	0.019873753
115	0x3b9750b2	0.004617774
116	0x3c518a2e	0.012789292
117	0x3c67be91	0.014144556
118	0xbca1de88	-0.019759431
119	0xbcb74532	-0.022371862
120	0xbbae3d9e	-0.005317404
121	0xba843846	-0.0010087572
122	0xbab5e9cd	-0.0013878882
123	0xbc82c287	-0.015961898
124	0x3c091158	0.0083659515
125	0x3b79be48	0.0038107801
126	0xbca9cf80	-0.020728827
127	0xbc8a160c	-0.016856216
128	0x3c2b3750	0.010450199
129	0x3c61197a	0.013738984
130	0x3be13c4b	0.0068736426
131	0x3c810925	0.01575143
132	0xbc93e042	-0.01805127
133	0x3c576f02	0.013149025
134	0x3c9d8d6c	0.019232474
135	0x3bcd49dc	0.0062649082
136	0x3b364f08	0.0027818102
137	0xbc2df874	-0.010618318
138	0xbc364a40	-0.011126101
139	0xbc496a9f	-0.012293487
140	0xbc8e01ed	-0.017334903
141	0xbc87ca8f	-0.01657608
142	0x3c8384d7	0.016054554
143	0xbbf92356	-0.0076030893
144	0xbc144b03	-0.009051087
145	0x3c3d1c4c	0.011542391
146	0xbcb56152	-0.022141133
147	0xbd1f5c59	-0.03890643
148	0x3c78ddff	0.015189647
149	0xbcc2baa3	-0.023770636
150	0xbc40623c	-0.011742171
151	0xbd051f2f	-0.032500442
152	0xbcea7de3	-0.02862448
153	0xbd0acf2f	-0.033888992
154	0xbcccbd6b	-0.024992665
155	0xbc4bbd41	-0.012435258
156	0xbc4b7bd8	-0.012419663
157	0xbc585ae7	-0.013205267
158	0x3b33f2a5	0.002745786
159	0xbc2476d8	-0.0100381
160	0xbcfdcd49	-0.030981677
161	0xbc75171f	-0.014959126
162	0x3bfad9ec	0.007655373
163	0xbc9cc903	-0.019138819
164	0xbb0bda48	-0.0021339823
165	0xbbbfc88c	-0.0058527645
166	0xbbd8f6a8	-0.0066212006
167	0x3bfdfffc	0.007751463
168	0x3c8e73b3	0.017389154
169	0x3c857559	0.016291307
170	0xbc7b65fa	-0.015344137
171	0xbb8fd0c8	-0.0043889023
172	0x3b59a7d8	0.0033211615
173	0x3b95e411	0.004574307
174	0xbb87e940	-0.0041476786
175	0xbc18625b	-0.0093007935
176	0x3c2559a9	0.010092177
177	0xbd3fa476	-0.0467877
178	0xbd17ff80	-0.0371089
179	0xbc5bf91e	-0.013426093
180	0x3ba11460	0.004915759
181	0xbc522b5f	-0.012827723
182	0xbcc9c893	-0.024631774
183	0xbcf4ae92	-0.029868398
184	0xbc7537ed	-0.014966947
185	0xbc09926f	-0.008396729
186	0xbceff4ca	-0.02929153
187	0xbd1b9849	-0.037987027
188	0xbb0affff	-0.0021209714
189	0x3c52251f	0.012826233
190	0x3bb4e626	0.0055206
191	0x3d2eab4b	0.042643826
192	0x3c44eab2	0.012018846
193	0xbbda4c85	-0.006661954
194	0xbc1b8e9d	-0.009494451
195	0xbc46063e	-0.012086449
196	0xbc018fef	-0.007907852
197	0xba51ee16	-0.0008008195
198	0x3b88ce80	0.0041750073
199	0x3c8e85cf	0.01739779
200	0xba07a220	-0.0005174
201	0xbc257fa5	-0.010101234
202	0x39498f00	0.00019222125
203	0x3c5ab86e	0.0133496355
204	0x3ba196f0	0.004931323
205	0xbc9ff250	-0.019524723
206	0x39170c80	0.00014405139
207	0x3b86cbd8	0.0041136555
208	0x3cecc4c0	0.028902411
209	0x3c99f59f	0.01879388
210	0x3ca7ddbb	0.020491472
211	0xbd4e201e	-0.050323598
212	0x3ba05639	0.004893091
213	0x3a987932	0.0011632799
214	0xbd412ff2	-0.047164865
215	0xbc130623	-0.008973631
216	0xbca47855	-0.02007691
217	0xbc9958d4	-0.018719114
218	0xbc469fda	-0.0121230725
219	0xbb7e5f15	-0.0038813998
220	0xbcf698d3	-0.03010217
221	0x3b57ac60	0.003290914
222	0xbc2e09a6	-0.010622418
223	0xbb9b42b7	-0.0047381776
224	0x3beac6c1	0.0071648066
225	0xba23efdb	-0.0006253698
226	0xbcd08ba3	-0.025457209
227	0x3c0771eb	0.008266906
228	0x3c159e0b	0.009131919
229	0xbc998a18	-0.018742606
230	0x3c717aa6	0.014738714
231	0xbba327e8	-0.0049791224
232	0x3c5f94ca	0.013646314
233	0x3c03a82c	0.008035701
234	0x3ca3224d	0.019913817
235	0x3c9d9b47	0.019239081
236	0x3a8bfe10	0.0010680575
237	0x3c44dda6	0.012015736
238	0xbc941c72	-0.01807997
239	0xbc1973a1	-0.009365947
240	0xbb8d92cc	-0.004320478
241	0x3d2391e8	0.03993407
242	0x3cd0ab85	0.025472412
243	0xbaf56657	-0.0018722516
244	0x3b6101c6	0.0034333332
245	0x3c46ce9a	0.012134219
246	0x3c80c423	0.015718525
247	0xba9f4f88	-0.001215444
248	0x3b1c6dc7	0.0023869143
249	0xbc10962c	-0.008824866
250	0xbc79ceed	-0.015247089
251	0xbd18bd0a	-0.037289657
252	0xbd3daf38	-0.04630968
253	0xbc9d36ef	-0.019191233
254	0xbc8e75ec	-0.017390214
255	0xbcc41f86	-0.023940813
