pynn/models/nmnist_rnn_256/fc_ho.weight.npz (npz, 10504 bytes, 1 tensors)

arr_0 f4 [10, 256]
000000 4c 51 3a 3d 1d c8 5d 3d ab ee 2a 3d f8 75 99 3c
       0.045487687 0.05414592 0.041731518 0.01873301
000010 a3 a1 08 bd ca af b2 3c 73 29 7d bc 93 86 a5 3c
       -0.033357274 0.021812338 -0.015451777 0.020205772
000020 1d f4 b1 bd 23 b0 03 bc 10 6b 10 3d 61 45 8a bc
       -0.08689139 -0.0080376 0.035258353 -0.016878786
000030 5b 11 07 3c 7d b8 e4 bc f4 19 27 3d f4 dd a1 3c
       0.008243884 -0.027920002 0.040796235 0.019759156
000040 a6 3d 92 bb e4 e2 9d 3c b5 fb 84 bd b6 c7 fd 3c
       -0.0044629155 0.019273229 -0.06493322 0.030979019
000050 84 93 b7 3c 7c 7d b3 3c 9f bf d4 3c 58 5b 13 bb
       0.022409208 0.021910422 0.025970278 -0.0022484865
000060 43 2d ad bd 22 2f c7 3c ee c2 04 3c 53 4e 3f 3d
       -0.084558986 0.024314467 0.0081031155 0.046705555
000070 9a 8b f7 bc 1e c1 60 bb 22 cb b3 bd 3e d2 7f 3d
       -0.030217934 -0.0034294794 -0.08778979 0.062456362
000080 85 7b 65 bd 91 8b 5a bd 41 96 71 3d 6f 09 e0 3c
       -0.056026 -0.053355757 0.058981184 0.027348248
000090 d4 bd db bc 88 2f 58 bc c9 24 11 3d e5 7d 61 bd
       -0.026823916 -0.013194926 0.03543547 -0.055051703
0000a0 84 b2 cc bd b5 43 25 bd 62 12 92 3c 92 8b e0 bc
       -0.09994987 -0.040347774 0.017831031 -0.027410302
0000b0 e3 d6 f2 3b c5 49 08 bd 8b de 4a 3d 8a a2 3d bd
       0.0074108704 -0.033273477 0.04952864 -0.046297587
0000c0 f2 c8 56 bd 9c 3a e5 bc 25 45 3e b9 43 85 bc bd
       -0.05243773 -0.027982049 -0.0001814557 -0.09205105
0000d0 51 bc 4c bd 2a 5d 50 3a 2b f7 85 bd c7 f8 9f bd
       -0.04998428 0.0007948453 -0.06541284 -0.078111224
0000e0 2b 6e 5b bd ff 06 0d be 5f 57 30 bd 37 e6 36 bd
       -0.05357186 -0.137722 -0.043052074 -0.044653144
0000f0 80 73 62 bd 74 b3 5c bd ff bc fd bc 99 19 58 bd
       -0.05528593 -0.053882077 -0.03097391 -0.052758787
000100 81 16 96 bb 84 ba 06 bc 81 d7 2f bd 81 9d eb 3c
       -0.0045803194 -0.00822318 -0.04293013 0.028761627
000110 4d 3e 9d bd 69 e5 13 3a 23 28 0a bd 6d be af bd
       -0.076778986 0.000564179 -0.033729684 -0.08581243
000120 d0 7e 64 3c ff 31 7e bd e2 4a 9d 3d 19 4b 31 3d
       0.01394625 -0.0620594 0.076802984 0.04328451
000130 f5 f3 fe 3c dd d7 3c 38 b1 08 e5 bc 89 44 1f 3d
       0.031122187 4.502373e-05 -0.027958246 0.03888372
000140 54 f1 4d bc 60 03 63 bc 2a 53 f1 bd a5 4f 95 3b
       -0.012569744 -0.013855785 -0.117834404 0.0045566135
000150 98 58 93 bc ac e1 c9 3d 3f 03 73 3d c4 ae 63 bd
       -0.01798658 0.098574966 0.059329268 -0.05558659
000160 d1 15 28 bb 7b eb 6b bc 1b 1f fe 3c 5e 3e 2d bb
       -0.002564777 -0.014399405 0.031020692 -0.0026434879
000170 c2 7e b1 3d a7 9c 6b 3c cc 19 05 3d 4d fb f9 3c
       0.08666755 0.014380611 0.032495305 0.030515337
000180 93 e5 3c bc 34 38 45 3d 8e 3f b8 bc 54 54 0e 3d
       -0.011529344 0.048149303 -0.022491243 0.03474839
000190 9a 26 88 3d ce af 8f bd 51 61 2f 3d 6f 09 85 3d
       0.06647988 -0.07015954 0.042817418 0.0649594
0001a0 39 1b 8a bc 2f 85 91 bd 6f 38 ca bc 3e c1 e6 bc
       -0.016858684 -0.07105481 -0.024685113 -0.028168317
0001b0 81 77 94 bd 1b 97 72 bd 83 ef a0 bc ef af 32 bd
       -0.07249356 -0.059226137 -0.019645458 -0.043624815
0001c0 87 95 73 bd a7 67 fa 3c b9 93 39 3d 64 68 9f bd
       -0.059468772 0.030567003 0.045306895 -0.07783583
0001d0 e5 0e c0 3c 01 7a 09 3e 09 05 89 3c 67 c3 99 bc
       0.023444602 0.13425447 0.016726034 -0.018769933
0001e0 80 80 8e bc 03 d5 93 bd ad c4 39 bd 87 ca 10 3d
       -0.017395258 -0.07218363 -0.04535358 0.035349395
0001f0 b4 5f b5 bd 57 76 01 3d ac e0 15 3b ee 5b bc bd
       -0.088561445 0.031607 0.002286951 -0.09197222
000200 aa 68 1d 3d 0c 66 35 bb f4 52 2f 3c b7 03 b1 bd
       0.038429894 -0.0027679233 0.01070093 -0.08643287
000210 f9 50 62 bd 2f 98 8c bd 95 9b 85 bd f1 76 19 bc
       -0.055253003 -0.06864964 -0.065238155 -0.009366737
000220 5b e1 76 bd 42 21 56 bd 12 ff 1f 3d 13 74 b9 bb
       -0.06027351 -0.05227781 0.039061613 -0.005659589
000230 6f 11 99 bc 7c 28 77 bd e4 9c ae bc e7 e1 99 3d
       -0.01868507 -0.060341343 -0.021315046 0.075137906
000240 f6 e7 78 bb e9 99 a3 bd 61 ca e7 3c cf 7f d0 bc
       -0.0037980056 -0.079883404 0.028294744 -0.025451569
000250 78 13 06 3d 3d 7d 76 bd 9c 7f a0 3a 94 59 83 3d
       0.03273341 -0.06017803 0.0012245062 0.0641357
000260 d6 d9 d0 b9 01 a7 88 bd 82 40 ad bc b5 77 bb bd
       -0.00039835152 -0.066724785 -0.021148924 -0.09153692
000270 c5 20 98 bc 50 c9 74 bd b7 1b 5f bd 9c 94 ba bc
       -0.018570313 -0.0597623 -0.05446979 -0.02277594
000280 69 6c b2 3c fb 50 16 bd 3c 46 a7 bd cc 18 a3 3e
       0.02178021 -0.036698323 -0.08167693 0.31854856
000290 c1 d5 35 bd 25 40 97 bc fe 80 1f 3d d6 0f c3 3c
       -0.044393305 -0.018463204 0.038941376 0.023811262
0002a0 e9 26 0f 3d b2 4b 09 3d 19 0d 90 bb e4 d4 5a bd
       0.034949217 0.033519454 -0.0043960926 -0.053425685
0002b0 62 05 c4 3c c2 88 aa ba 13 f3 2a bc f4 2e 1c bd
       0.023928348 -0.0013010728 -0.01043393 -0.038130715
0002c0 1d 89 5c bc e9 54 99 bd 8b e7 8e 3c 4a 60 38 bd
       -0.013460425 -0.074868985 0.017444393 -0.045013703
0002d0 7e e2 d4 bc 39 fe be bb d1 2f b9 3b e3 f8 fc bc
       -0.025986906 -0.0058286455 0.005651452 -0.030880397
0002e0 7c 5c 74 bd dc 54 3b 3d d2 f0 36 bd 20 e1 be 3c
       -0.059658512 0.045735225 -0.044663258 0.023300707
0002f0 b0 30 83 bd de 73 2f 3d a4 48 91 3c 07 82 2e 3d
       -0.06405771 0.04283511 0.017734833 0.042604472
000300 5f 24 80 bd 17 16 97 bd 00 29 1b 3b 38 05 0d 3e
       -0.06256937 -0.0737726 0.002367556 0.13771522
000310 2d d3 4b bd 21 a2 b0 bd 9a 1a c3 3c 44 76 21 bd
       -0.04976194 -0.08624674 0.023816396 -0.039419428
000320 dc da 67 3b 01 92 74 bd 5e 14 8a 3c 2e e5 34 bd
       0.0035378253 -0.059709553 0.016855415 -0.044163875
000330 04 b5 64 bc 8c b6 44 bc 07 c1 3d ba 4e 62 17 3c
       -0.013959173 -0.012006413 -0.0007238541 0.009239746
000340 70 9d 98 3c 34 3b 7e bd cb 02 9a bd a3 54 48 3d
       0.01862976 -0.06206818 -0.07520064 0.04890884
000350 84 5e c5 bd 74 b8 aa bd d5 77 d2 3c f8 08 c9 bd
       -0.09637168 -0.08335963 0.025691906 -0.09816164
000360 bd d8 b3 bd 5d 4c 86 3c e6 70 a7 ba 4a 6a d2 bc
       -0.08781574 0.016393835 -0.0012774735 -0.025685448
000370 c4 80 3f bc b1 34 9f bd b5 de 5f 3d ec 55 5c bd
       -0.011688415 -0.07773722 0.05465575 -0.05379288
000380 1c be db 3c 9f 8c fe 3c 78 1c b3 bd ef eb 21 bd
       0.02682405 0.031072913 -0.08745664 -0.039531644
000390 0a d6 82 bd 7f 32 e6 bc ae 3b 89 bd c0 14 48 39
       -0.06388481 -0.02810025 -0.06700836 0.00019081216
0003a0 53 37 93 3c 77 eb 79 3d a9 4c 3e bd 04 11 17 bd
       0.017970717 0.061015572 -0.046459828 -0.03688146
0003b0 c8 41 45 3c f6 31 16 bd 14 48 3a bd cd f9 61 3d
       0.012039609 -0.03666874 -0.045478895 0.05516987
0003c0 d6 98 47 bd d6 b7 52 3c fd d4 73 bd 13 c3 b1 bc
       -0.04872974 0.012861213 -0.059529293 -0.021699464
0003d0 fc 80 aa bd 49 6d 28 3d 18 63 62 bd 66 c9 35 3d
       -0.08325383 0.041119847 -0.055270284 0.04438152
0003e0 00 64 58 bc 95 51 ac bd 07 d0 d5 3a 36 ef a5 bc
       -0.013207436 -0.08413998 0.0016312607 -0.020255666
0003f0 0d bd 55 3d a8 c5 07 3d f2 a5 57 bd 04 be 06 3d
       0.052182246 0.033147484 -0.052648492 0.032896057
