pynn/models/shd_rnn_256/fc_ih.weight.npz (npz, 717064 bytes, 1 tensors)

arr_0 f4 [256, 700]
000000 81 fd 4e 3c 6c 98 c9 3c 40 ac ba bc 5f bb ff bc
       0.012633682 0.024608813 -0.022787213 -0.031217275
000010 3b 53 df bb 28 dc 8e 3c ce 75 83 3c bf 96 c5 3c
       -0.0068153418 0.017438963 0.016047385 0.024119733
000020 8f 65 c0 3c 5c 70 d1 bb 1e 3b a4 3b 2c dd 1b 3c
       0.023485927 -0.006391568 0.00501193 0.009513181
000030 2b 52 3b 3c 1e d4 3d bb f5 c2 e6 3b c6 de 5f bc
       0.011433165 -0.0028965543 0.0070422837 -0.013663953
000040 ad 56 8b bb 2c 36 e5 3b 6f a4 73 bc 87 bd 8d 3b
       -0.004252276 0.006994983 -0.014870747 0.004325572
000050 0d 6e af 3c 5b 1b cd bb f1 e1 1f bb b1 0c cd bb
       0.021414781 -0.0062593645 -0.0024396146 -0.0062576164
000060 0f 79 d4 3c 10 bf 20 3c f8 db 80 3c b4 b2 e8 3c
       0.025936631 0.009811178 0.01572989 0.028405525
000070 d4 b7 c3 b7 dc e5 e5 bc 3c 24 9d 3c e9 ca 66 3c
       -2.3331413e-05 -0.028063707 0.019182317 0.0140864635
000080 74 6c 91 bb 29 67 26 bc 31 5f 07 3d bb 91 20 bd
       -0.0044379774 -0.010156431 0.033049766 -0.03920148
000090 19 3c a6 3c 06 df 02 3d 8c ad bb bc e5 bd 38 bc
       0.020292329 0.031950973 -0.022909902 -0.011275743
0000a0 ba 02 1a 3d 1b 92 bd bc 84 19 fa ba cf 3a 6b 3c
       0.037600257 -0.023140958 -0.001908109 0.014357283
0000b0 b9 93 74 3c 54 70 1d 3d d1 3d ba 3c 21 ec 03 3c
       0.014927798 0.038437203 0.022734554 0.008051903
0000c0 36 5a 29 3d 60 8c 66 ba f0 dd f2 3c da fc 91 3c
       0.041345797 -0.0008794721 0.029646844 0.017820764
0000d0 ce 55 26 3b f3 7e 52 bc 43 8f e4 bc d4 ab d3 3a
       0.0025380733 -0.01284765 -0.027900344 0.0016149231
0000e0 fb 62 8f bc dc 14 b0 b9 96 10 12 bd b2 64 00 3c
       -0.017503252 -0.00033584877 -0.03566035 0.007836508
0000f0 75 a2 27 3b 76 f6 cf 3b 8f 81 28 3b a9 a1 96 bc
       0.002557901 0.006346519 0.0025711989 -0.018387632
000100 84 d3 08 3d fe 9f 9e 3a 34 5f 4f bc 58 64 c2 3c
       0.033404842 0.0012102125 -0.012656976 0.023729488
000110 c9 5f 26 bd c3 e7 56 bc 98 a9 ad bc d1 c6 1d 3d
       -0.04061869 -0.01311678 -0.021199033 0.038519684
000120 0e da 08 3d c7 d7 8e 3b b0 55 2b bc ca f6 b7 bc
       0.03341108 0.0043592188 -0.010457441 -0.022456545
000130 04 a1 6f bc 2e 8a 76 bc 28 e9 2d bd cf 2e a0 ba
       -0.014625791 -0.015047593 -0.042458683 -0.0012220981
000140 d9 ae 85 bc 09 09 2c bd 21 8a 11 bc e2 d7 1b bd
       -0.016318725 -0.042000804 -0.00888303 -0.03804768
000150 be b1 df 3c a5 a1 18 3a 0a 79 37 bd 7b 8b 85 3c
       0.027306434 0.0005822427 -0.044793166 0.016301861
000160 79 dc a5 3c 4a 0a 95 3b 4e 00 09 bd 1c ca f6 3c
       0.020246731 0.0045483457 -0.033447556 0.03012567
000170 d2 ca 8f 3a 8d 13 3a bc 13 3e 55 3c 05 10 2c 3b
       0.0010970479 -0.0113572 0.013015288 0.0026254666
000180 27 6b 6f bc 19 5b 0e 3b 91 49 27 bd e5 eb 22 3c
       -0.014612949 0.002172178 -0.040841643 0.009943937
000190 a2 1e bb bc 57 c8 d6 3b 8e 11 f7 b9 18 b6 8e 3c
       -0.022841755 0.006554644 -0.0004712459 0.017420813
0001a0 dd 4f 1b 3b 4d b3 72 bb f6 bd cc 3c 82 cf a6 ba
       0.0023698725 -0.003703314 0.024992924 -0.0012726637
0001b0 85 25 5b 3c 43 54 e3 3a 2c 37 2f bd a4 e3 43 bd
       0.013375645 0.0017343838 -0.042777225 -0.047824517
0001c0 01 a2 f8 3b 5e 21 96 3c ff 1f bc 3c 35 29 cd bc
       0.0075876717 0.018326458 0.022964476 -0.025044063
0001d0 2d 35 76 3c 8f a2 41 bc 84 fd 21 bb 01 36 1a bc
       0.0150273265 -0.011818542 -0.0024717757 -0.00941229
0001e0 a9 76 ff bc 0e 52 97 3c cf cb d6 bc 42 97 42 bd
       -0.031184511 0.018471744 -0.02622023 -0.047507532
0001f0 d2 f4 ba bc f7 ea 3d 3c 8e 1d 34 bd 43 4d 19 3d
       -0.022821818 0.0115916645 -0.043973498 0.0374272
000200 8d 18 78 bc d2 22 46 bd 57 59 db bc b8 50 46 bb
       -0.015142572 -0.04837305 -0.026775999 -0.0030260514
000210 78 ea 83 3c f4 52 78 bb d5 48 0b bd 37 ba 67 bc
       0.016103014 -0.003789124 -0.034005005 -0.014143518
000220 05 c2 57 bc e8 a4 64 3c b6 3c f5 3c 87 14 85 bc
       -0.013168816 0.013955332 0.029936176 -0.01624514
000230 d6 4c 17 3d cc a5 07 bd 68 45 06 bb 5b 06 46 bd
       0.03693851 -0.0331171 -0.0020488147 -0.048345905
000240 d0 6c 1c bb 7d aa 07 bd 8e 70 fa bc e1 e7 c7 ba
       -0.0023868568 -0.033121575 -0.030571248 -0.00152516
000250 e3 97 31 3d 3e 4d 20 3d 7c 61 0d bd 55 35 d4 3c
       0.04335774 0.039136164 -0.034516796 0.025904337
000260 bf b4 23 bd be fa 5f bc 65 86 dc 3a fd 50 41 bd
       -0.039967295 -0.013670621 0.0016824721 -0.047196377
000270 14 42 ab 3c 8b 83 9c 3b a8 d2 f4 3a 52 92 e5 bc
       0.020905532 0.0047764233 0.0018678503 -0.028023873
000280 c5 d5 97 3c bb cc 37 bc 83 4c f5 bc 91 3f 37 bc
       0.01853455 -0.011218245 -0.02994371 -0.011184589
000290 58 13 e5 bc a4 7e ed 3b b7 fe ce 3a 23 e2 60 3c
       -0.027963325 0.0072477628 0.0015792464 0.01372579
0002a0 c1 f8 f9 3c 81 d7 ec 3b f3 b5 80 bb b0 67 1c 3c
       0.030514123 0.0072278385 -0.00392794 0.009546205
0002b0 71 44 28 3c 07 1a 9e 3b 0b cf 0c 3b e3 25 10 bc
       0.010270224 0.00482488 0.0021485712 -0.008798095
0002c0 54 eb c4 bb 98 c3 ec 3c 0e 74 13 3d 63 3f 9c bc
       -0.0060094986 0.02890186 0.03599935 -0.019073194
0002d0 e3 6b a2 bc 92 83 5d bb f9 13 6a bc 79 a2 a7 3c
       -0.019826835 -0.0033800346 -0.014286988 0.020463215
0002e0 a8 de 45 3c c2 60 58 bc a6 24 27 3b 13 63 bd 3b
       0.012077011 -0.013206663 0.0025504022 0.005779633
0002f0 3e 6b 03 3c 8f 82 b5 3c 13 21 6e bc b2 ab 63 bc
       0.008021174 0.022156982 -0.014534253 -0.013895916
000300 ad 84 e6 3c eb 79 f6 3b c6 e9 ee 3b 57 cd 10 bd
       0.028139437 0.007521858 0.0072910516 -0.035352077
000310 a1 8b 97 3c 08 7b 2b bc 76 dd c7 3c e9 91 0c bd
       0.018499197 -0.010466345 0.024397593 -0.03431884
000320 67 f9 d1 bc b5 ef c8 3a 82 d8 ef 3c 53 bd 05 bd
       -0.02563162 0.0015330227 0.029278044 -0.032651257
000330 30 50 a0 3c 30 6b ee 3c a3 1c 86 3b c9 18 79 3c
       0.019569486 0.029103845 0.004092769 0.015203663
000340 27 41 1d 3d 3d 2a 09 3d 76 47 e1 bc 1f 06 69 bc
       0.038392212 0.033487547 -0.027499896 -0.014222651
000350 51 14 0e 3d f1 75 24 3c 58 39 ef bc b0 e8 b1 bc
       0.034687344 0.010037885 -0.029202148 -0.0217174
000360 bb 1e d6 38 11 81 e7 3c c8 d3 e2 3c 6b 0e 1a bd
       0.00010210039 0.028259786 0.027688876 -0.037611406
000370 9b d2 c7 bc 51 53 44 bc 04 f7 b3 bc d8 3a c6 3c
       -0.024392417 -0.011982755 -0.021968372 0.02419798
000380 f4 26 d6 bb c9 85 a8 3b 4f f8 34 bd 98 01 9b 3c
       -0.0065354053 0.0051429016 -0.044182118 0.018921658
000390 9a 09 c9 3c 87 7c 03 3c d1 cf 05 bd ad 08 3b 3d
       0.024540711 0.008025295 -0.032668892 0.04566257
0003a0 a1 25 2d 3a cb 1f 24 bd 71 b2 8a bc 41 ab 79 bc
       0.00066050334 -0.040069383 -0.01693079 -0.015238584
0003b0 50 89 ba 3c 7d 8a 5e 3c cc f9 03 bd a3 a1 8b bc
       0.022770554 0.013582823 -0.032220647 -0.017044848
0003c0 7a f5 13 bd 4f 18 24 bc 41 d5 96 3c c2 d0 ac 3c
       -0.036122777 -0.010015561 0.018412234 0.021095637
0003d0 eb b2 ea bc 14 7b d2 3b 39 82 c4 ba 04 4b 9b 3c
       -0.028649768 0.0064233635 -0.0014992423 0.018956669
0003e0 1b 21 3a bd d9 fd 3d 3c 2c 58 75 3c 54 3f 17 bd
       -0.045441728 0.0115961665 0.014974635 -0.03692563
0003f0 30 67 55 bb e7 e0 29 bc d2 c0 98 3c a1 ec 7b 3c
       -0.0032562725 -0.010368562 0.018646631 0.015376241
