notebooks/checkpoint/shd_rnn_32/fc_ho.weight.npz (npz, 2824 bytes, 1 tensors)

arr_0 f4 [20, 32]
00000000: 5227 003e f7be 8dbc 93da 23be a0c9 1abe
00000010: 65be a53d 3f32 4bbc e70b a9bd 2258 713d
00000020: b806 8d3d f76e 0ebd b172 a03d b7af 4fbe
00000030: 6214 783d fc49 d239 2023 61be 7fae 1bbe
00000040: 6f1e 903d 0505 15be b115 c63d 297c 31be
00000050: fb86 ab3d 1d72 c43d bdbe 8e3d 6c57 463d
00000060: b735 0f3e 9f15 2f3d 612b 6e3d 43b8 343d
00000070: 1f08 943d 0bad 1ebe 9dbc 103d c534 843c
00000080: 2cfc 253d f09e 373d da8b d53c 636e 20be
00000090: 5596 f03d 3355 8b3d ae61 7b3d 3c99 123d
000000a0: 3c1d 2cbe 0ab3 173e 4f3e 523d e66c f53d
000000b0: 6748 f33d 40c7 253e 3e4b 413d 5350 673a
000000c0: 0f81 a5bd 90cb 11be a27f 00bd 2ad6 36bd
000000d0: ab35 583d a33a 32be c217 a5bd 5da6 bb3d
000000e0: c7a7 3abe a28f 1dbe 430e d9bc 6b12 28bd
000000f0: fe25 9abd 7c46 bb3d 5a1c 87bd 24aa 35be
00000100: 94b0 123e 29db 1c3e 2d48 883d 010e 52bd
00000110: 6503 d13d fbeb 4cbd e12c 2cbe 8daa 6d3c
00000120: 2845 cdbc 3216 e7bc 44b9 303d 5bab bebd
00000130: 5cab 32be 2352 0a3e a9dd 2c3e d3fa c6bd
00000140: 8186 17be 7176 813d a969 a3bd d72b 953d
00000150: 7904 143d 231c 0dbe dcec 4b3d 439f f8bc
00000160: 2eac f93c 3c1f 2f3e bd0a 82bd af71 ce3c
00000170: 08fc a43b 690a 9cbd 30c6 2bbe 8917 07bd
00000180: 78ee d63d 5278 9bbd 68dc e1bc 7e99 073e
00000190: 112c 44bb e182 b5bb c114 3bbe a99a 20bd
000001a0: 2011 6bbd 1a4f 3f3d d077 123e 9010 16be
000001b0: 24f0 5d3d 8b93 643d 77b4 dabd ed24 50be
000001c0: 9591 76be 597e 9ebd 2ac3 1d3d eae7 f8bd
000001d0: 59ec 44bd ab66 653d dfc3 ebbd c878 1b3e
000001e0: 5b75 1a3d 34dd 063e eab3 a63d b85e d53d
000001f0: b336 10be 78e8 afbd e858 81bd 5fc0 57bb
00000200: cbf7 293e 2148 d43d 0107 f63d 3cc2 4bbe
00000210: 05f4 5d3e 4d80 d9bc 75f0 e4bd bd02 b53d
00000220: 50db 22bd 62f5 47be e866 00be ae5b fd3d
00000230: 3c17 3ebb 70a6 bc3d 62f3 0abe b8eb d13d
00000240: c496 eebd ac6b cabd fca9 02bd d589 173e
00000250: 0c24 c03d d91e 93bd ffa2 18be dc4d 003e
00000260: 85b5 c1bd e129 7ebd 4d5e 303e 8726 7abe
00000270: 58a2 bbbd 9f91 21be bc20 3dbe 3136 2cbe
00000280: f4a6 5fbb 1b5f 4abe b17a 7eba 5318 50bb
00000290: 2998 00be fd53 203d 71f7 3dbe c415 453c
000002a0: dc98 c53d ce2b d53d a39c adbd 71fa 1ebe
000002b0: 4b48 1cbe 1e47 ffbd 1171 d33d f186 2b3e
000002c0: fec3 183e 2cc5 8d3c 4509 1f3e 1409 0d3e
000002d0: 2c17 1dbe a7a2 82bd 03a6 433d 245b 44be
000002e0: 4cc2 52b9 7164 2abd 4c8f 1abd 1558 9b3d
000002f0: a9a6 9fbb abc2 cb3d abf3 043e 4b82 28be
00000300: 2065 e03d 8579 543b 7773 3ebd 0cd7 213e
00000310: 27ff e4bd d61c efbd 6842 85bb d02d a53d
00000320: 2be9 2ebd c595 083c 3d01 bc3c 3a02 0dbe
00000330: 92b8 14be 9056 2a3d 55bb fcbc 0a82 413d
00000340: a4b1 e43d 7127 323e 42bb 163d bc9d 28be
00000350: a687 d43d fc04 01be 8ccd d43d 592c 17bd
00000360: 9b07 04bd 835d 4e3d a1da 213e 0261 0dbe
00000370: 4a6b 2bbe 0074 f93d 4fdd 3f3d 7a35 bf3d
00000380: 0300 97bd caab 803d 220b fa3d 47ec 01be
00000390: f022 673d 433e 1b3e d1b1 8f3d ac02 01be
000003a0: 463a 2cbe a945 5b3d 4003 053e be69 083b
000003b0: 8575 97bd 7827 1a3d 67fb 053e 3e19 00be
000003c0: 4293 0ebe 0fd6 9cbd e7fe b0bd 4ce9 083e
000003d0: 4a55 343d 5dae eabd 1adf 1d3c 19be 97bd
000003e0: 2dae 28bd 2e40 1dbe b480 c93d c2d5 68bd
000003f0: 3a9f 003e a02d 103e b312 a6bd 5876 023e
0.12515 -0.017302973 -0.16001348 -0.15115976 0.080929555 -0.012402116 -0.08254223 0.05892194
0.06886047 -0.034773793 0.07834376 -0.20281874 0.060566314 0.00040109444 -0.21986055 -0.15203284
0.07037055 -0.14552696 0.09672106 -0.1733252 0.08375355 0.09592078 0.06969974 0.048423216
0.13985334 0.04274523 0.058146838 0.04412104 0.072281115 -0.15495698 0.035336126 0.016138444
0.040523693 0.04482931 0.026067663 -0.15667109 0.117474236 0.0680336 0.06137245 0.035790667
-0.16808027 0.14814392 0.051328953 0.11983661 0.11879044 0.16189289 0.047190897 0.000882392
-0.080812566 -0.14237809 -0.03137172 -0.044637837 0.052785557 -0.1740518 -0.08061172 0.09162591
-0.18228064 -0.15386823 -0.026496058 -0.04103319 -0.07526778 0.09144303 -0.065972045 -0.17740685
0.14325172 0.15317978 0.066543914 -0.051282886 0.102057256 -0.050029736 -0.16813995 0.0145059945
-0.02505739 -0.028208826 0.043145433 -0.09310027 -0.17448181 0.13507895 0.16881432 -0.0971581
-0.14797403 0.06321419 -0.079791375 0.072837524 0.036137078 -0.13780265 0.049786434 -0.03034938
0.03047761 0.17101759 -0.063497044 0.025200693 0.0050349273 -0.07619173 -0.16774821 -0.03298143
0.10494703 -0.07591309 -0.027570918 0.13242146 -0.0029933492 -0.0055392836 -0.18269636 -0.039209995
-0.05738938 0.046706297 0.14303517 -0.14654756 0.054184094 0.05580477 -0.10678952 -0.20326586
-0.24078973 -0.07738943 0.0385162 -0.12153609 -0.04807696 0.056006115 -0.11511969 0.15182793
0.037709575 0.1317032 0.08139785 0.10418457 -0.14083366 -0.08589262 -0.06315786 -0.0032921059
0.16598432 0.1036532 0.12013055 -0.19898313 0.21675117 -0.026550436 -0.11178676 0.08838413
-0.039759934 -0.195272 -0.12539256 0.12371002 -0.0029005548 0.09211433 -0.13569406 0.10250038
-0.1164985 -0.09883818 -0.03190039 0.14798672 0.093818754 -0.07183618 -0.14905928 0.12529701
-0.0945845 -0.062051658 0.17223473 -0.2442876 -0.09161824 -0.15778206 -0.18469518 -0.16817547
-0.0034126611 -0.19762842 -0.00097076135 -0.003175278 -0.12558044 0.039142597 -0.18551423 0.012029115
0.09648296 0.10408746 -0.08477142 -0.15525223 -0.15261953 -0.124647364 0.103243 0.16750695
0.14918515 0.017305933 0.1553088 0.13772994 -0.1534087 -0.0637868 0.047765743 -0.19175392
-0.00020099542 -0.041599695 -0.037734315 0.0758516 -0.0048721624 0.09949239 0.12983577 -0.16455953
0.10956788 0.0032421064 -0.046496835 0.1580469 -0.11181479 -0.11675422 -0.004066754 0.08065379
-0.042702835 0.008336489 0.02294981 -0.1377038 -0.14523533 0.04158646 -0.030851046 0.047243156
0.11166695 0.17397858 0.036799677 -0.16466421 0.103774354 -0.12599558 0.103907675 -0.036907528
-0.032233816 0.05038215 0.15806057 -0.13806537 -0.16740146 0.12180328 0.046841916 0.09336372
-0.07373049 0.06282766 0.12209155 -0.12687789 0.056429803 0.1516047 0.07016338 -0.12598675
-0.16819105 0.05353323 0.12989521 0.002081498 -0.07395462 0.037635297 0.13084184 -0.12509629
-0.13923362 -0.07658016 -0.08642369 0.13370246 0.04402665 -0.114590384 0.009635711 -0.07409305
-0.041181732 -0.15356514 0.09839001 -0.05684448 0.1256074 0.14079905 -0.08109035 0.12740457
