notebooks/checkpoint/shd_rnn_32/fc_hh.weight.npz (npz, 4360 bytes, 1 tensors)

arr_0 f4 [32, 32]
00000000: 3ef0 253e 9862 0fbd 6bd3 ed3d bae3 e8bd
00000010: 9097 32bd 1f9e f0bd 8bb4 bebc b2ba 633d
00000020: 13fd 24bd 2f8d c63d 9408 0e3e 1f81 e6bc
00000030: 1580 2bbd d934 cb3d 3f85 d7bd 8ae8 123e
00000040: c8db b83d d9b6 703d a31a 343c cf70 043e
00000050: 95df 1d3e 0a61 f33d 74df 04be be85 f4bd
00000060: aecf d13d 217e 283e 1f90 8c3d 8749 d6bd
00000070: 0cad 663d c38c b83c d5b0 493c 280d 443e
00000080: 3425 0c3e 8a8c e33c 69f9 9dbd 7209 053e
00000090: 6e03 ff3d 5c58 6dbd b5c3 11be e828 22bd
000000a0: 70e9 203e 0a18 1a3e 6616 1a3d 1e53 ab3d
000000b0: 5c68 e9bd ada3 e6bd 75ce 393e 0c5d cc3b
000000c0: eb7c 89bd ccfa 9d3d d2b7 353d f85a 393d
000000d0: 016e 583d 2514 af3d ad68 993d 432a a73d
000000e0: d515 0a3d 50e9 1abe b7ba 833d 4f29 083e
000000f0: dfd2 d23d d951 0abd 0542 183e 4a6d 17be
00000100: 89e8 8d3d 20fa babd 2fba 55bc 2de4 19be
00000110: 58d1 803d cd4e a0bd 992a b03d 1f4e b43d
00000120: 6624 c63d 8f47 0abe f571 083d 95eb 143e
00000130: 4aff ebbd 9720 1fbd 43ca 853d 34fb 32be
00000140: 1726 d73d f91d adbd d6ed 38bd eb17 21be
00000150: 038b 0cbe 35e3 25bd 115c a5bd 0d89 2abe
00000160: 2aa4 0d3e 2731 e3bd 7971 85bc dd55 81bd
00000170: 9bab 0ebe 1227 c6bd 9524 ed3d 65b7 f23d
00000180: 9089 e8bd 473a 17be bf0e eb3d 4a64 513d
00000190: 7587 adbd e25d 283d 150e 2f3e e995 63bd
000001a0: 853c 163e 6f74 9d3d bec7 f33d 0523 3ebd
000001b0: 00c8 1b3e 9b99 c6bd c5ff 33bd 6766 1bbe
000001c0: 175c ac3d e929 0c3e 662c 9abd 37f8 b93d
000001d0: 78b3 eabb f562 e4bd 6fed 6e3d 6394 10be
000001e0: f009 bdbd 3387 553d 4596 6d3c 28f8 5a3d
000001f0: 7b15 11be 1555 e03d ee7e 74bd 4b0c e63d
00000200: 5b67 323d 0896 883d bb8c 823d 8566 e7bd
00000210: 6905 0fbe 73e1 b6bd b02f e93c d809 bf3d
00000220: 2662 303e ad53 093e 9b16 15be 156f c13c
00000230: 37c9 0dbc 95f2 233e 8790 17be 03ff 643d
00000240: 28a2 1dbe 031d b43d da40 423d b43d ad3c
00000250: dd2d e3bd e9b4 f23d 6817 1f3e b4ca a2bd
00000260: 37db ac3b 1ef1 ec3c 827c 233d a93e c6b9
00000270: 2e23 efbc c062 183e df79 09be 8902 b2bc
00000280: c06c f7bd b571 063e 6e81 2abe bb91 af3c
00000290: abc5 91bc 8520 d0bc e336 bc3c 4b24 003e
000002a0: 0f06 d43d aefb b03b 1a39 fe3d 71af a2bd
000002b0: 0390 a3bd 3c95 cabd 6f95 15be 7888 2e3e
000002c0: b6d8 873d 2e52 013d 5dc0 4c3d ae85 253e
000002d0: f1c5 04bd b767 cdbd 0d53 b63d adf6 103e
000002e0: 0acb 2f3e 0cc8 da3d 5450 f23d e011 ec3d
000002f0: e539 d2bd dc33 29be aa21 afbd bc9a 1c3d
00000300: 36c8 ff3d f2b4 ff3c ecc9 bf3c ecf9 833d
00000310: b794 fe3d 5aaa 533d 49fe d93d cbb6 1dbe
00000320: 4a61 da3c aa36 7b3d 3661 0f3e 29eb b33d
00000330: 99d9 fd3d 8cb5 f8bd ecc2 bb3d b59e 193e
00000340: 9080 ec3d 4ae4 a23d 93ca 05be 4724 4e3e
00000350: 8860 183c 0b89 af3c 29fb 193e f632 623d
00000360: 6275 d13b 65dc 8fbb 2938 92bd dfc5 1ebb
00000370: 19cb f4bd 78d9 fe3d 187b 00bd cedc f1bd
00000380: c57f 073d f04f a43d bd21 193e 2ffc 283e
00000390: c1fd 93bb 0067 ad3d 4ead b73c 583f 093e
000003a0: 22e9 183e a5ad e7bd 4ba6 f83c b50a d4bd
000003b0: 9594 29be ad84 d13d 1b77 fcbd 27f6 36bd
000003c0: 1075 f73d cc22 3cbe f704 18be 6a09 24be
000003d0: e73b 2bbd 6e6f 34bd 287a 17be dc51 813d
000003e0: a070 2abe 87fe 063d 19be c8bd a559 ef3d
000003f0: ee43 a5bc 1d10 0abe e7a6 ccbd 81d5 fb3d
0.16204926 -0.035006136 0.116125904 -0.113715604 -0.043601573 -0.11748909 -0.023279449 0.05559797
-0.040280413 0.096948974 0.1387046 -0.028137742 -0.041870195 0.09922189 -0.105234616 0.14346519
0.09026295 0.058768127 0.010992679 0.12933658 0.15417321 0.11883743 -0.12975866 -0.11939572
0.1024469 0.16454364 0.068634264 -0.10463243 0.056317374 0.022528058 0.012310226 0.19145644
0.13686067 0.027776975 -0.07713587 0.12991884 0.12451826 -0.057945594 -0.14234813 -0.039589792
0.1571405 0.15048233 0.037619017 0.08365463 -0.11396858 -0.112616874 0.18145163 0.006236678
-0.06713279 0.07713851 0.044364758 0.04525277 0.052839283 0.08548764 0.074906684 0.08162358
0.033712227 -0.15128064 0.064320974 0.13297008 0.10294127 -0.033769462 0.14868934 -0.14787784
0.06929118 -0.09129739 -0.013044878 -0.15028448 0.06289929 -0.0782753 0.08601875 0.08803963
0.09674911 -0.1350386 0.033311803 0.14542992 -0.11523302 -0.03884944 0.06532719 -0.17478639
0.10505312 -0.084529825 -0.045148693 -0.1573178 -0.13724904 -0.040499885 -0.08074201 -0.16653843
0.13832155 -0.110933594 -0.01628946 -0.06315205 -0.1393265 -0.09675421 0.11579243 0.11851386
-0.11354363 -0.14768325 0.11477422 0.051121034 -0.08473102 0.04110516 0.17095216 -0.055562887
0.14671524 0.076882236 0.11903332 -0.046420116 0.15213013 -0.09697267 -0.043945093 -0.15175782
0.08416002 0.13687862 -0.075279996 0.09080546 -0.0071625076 -0.11151687 0.058331903 -0.14119105
-0.09230411 0.05213089 0.014501159 0.053459316 -0.1416835 0.10953728 -0.059691362 0.112328134
0.0435556 0.06669241 0.063744985 -0.11298851 -0.13966908 -0.0892972 0.028465122 0.093280494
0.1722494 0.13410826 -0.14559405 0.023612538 -0.00865393 0.16010506 -0.14801227 0.05590726
-0.15393889 0.08794596 0.04742513 0.021147586 -0.11092732 0.11850912 0.15536273 -0.07948819
0.005275156 0.028923567 0.03991366 -0.00037812188 -0.02919158 0.1488142 -0.13425396 -0.021729724
-0.12081289 0.13129313 -0.16650936 0.021431794 -0.01779445 -0.025406132 0.02297539 0.12513845
0.10352718 0.0054010963 0.12413235 -0.07943619 -0.079864524 -0.098917454 -0.14607786 0.17044246
0.06633131 0.031572513 0.04998814 0.16164276 -0.032415334 -0.10029548 0.089025594 0.141566
0.17167297 0.10682687 0.118317276 0.11526847 -0.10264949 -0.16523689 -0.08551343 0.038233504
0.12489359 0.031214211 0.023411714 0.06444153 0.12430709 0.05167613 0.10644204 -0.15401761
0.02665772 0.06133143 0.14001927 0.087850876 0.12395019 -0.12144002 0.09168038 0.15001948
0.11547959 0.07953699 -0.13065557 0.20131026 0.009300359 0.021427652 0.15037216 0.05522438
0.006392167 -0.0043902867 -0.07139618 -0.0024226827 -0.119528 0.124438226 -0.03136739 -0.11809693
0.033080835 0.08023059 0.14954276 0.1650245 -0.004516334 0.08466911 0.022421505 0.1340307
0.14932683 -0.11312417 0.030352732 -0.10353605 -0.16560586 0.10230384 -0.12327405 -0.044668343
0.12082875 -0.18372649 -0.14845644 -0.16019216 -0.041805174 -0.04405158 -0.14792693 0.063144416
-0.16644526 0.03295758 -0.09801883 0.1168702 -0.020173993 -0.13482709 -0.099927716 0.12296582
