notebooks/checkpoint/shd_rnn_256/fc_ho.weight.npz (npz, 20744 bytes, 1 tensors)

arr_0 f4 [20, 256]
000000 25 b7 33 3d 06 16 1b 3d 8d 39 22 bc 25 04 3e 3c
       0.043875832 0.0378628 -0.0099014165 0.011597668
000010 a1 e8 9c bc 6a 17 2c 3c 93 11 4e bc 8a 18 7b 3c
       -0.019153895 0.010503629 -0.012577432 0.015325675
000020 67 83 7b bd ec b7 bd bd a6 33 29 bd 25 8a 45 bb
       -0.061404612 -0.09263596 -0.04130902 -0.0030142155
000030 99 bd be bc 8a 52 04 3d b9 5b 27 bd 6c 21 15 3d
       -0.023283767 0.032305278 -0.040858958 0.036408827
000040 3c d9 50 bd 4d 92 66 3d 67 16 40 3d d3 03 79 3d
       -0.05098842 0.056291867 0.046896365 0.060794663
000050 b9 b4 d5 3c 90 b1 60 bc 0d 4d d1 3c 39 49 8f 3d
       0.026087152 -0.013714209 0.025549436 0.06996388
000060 0c e8 34 bd e0 ed 4b 3d 66 1d fe bc 5b fc 2d bd
       -0.04416661 0.049787402 -0.031019878 -0.042476993
000070 71 e8 69 3c a0 16 09 3d 87 bf 8a 3d 90 00 97 bd
       0.01427661 0.033468843 0.06774812 -0.07373154
000080 55 ff c6 bd d5 74 92 3b ca 14 6d bd 28 35 92 bb
       -0.097166695 0.004469494 -0.057881154 -0.004461903
000090 e2 80 f4 bc f8 b5 0c bd 54 58 45 3d 6d 3d 2a 3d
       -0.029846612 -0.034353226 0.04817994 0.041562486
0000a0 76 14 ec bb d2 13 14 3b 48 37 2b 3c 30 11 7c 3c
       -0.0072045876 0.0022594822 0.010450192 0.015384957
0000b0 dd 34 a6 bd 4e 3d 0e 3d f5 b2 28 3d 0b b2 23 bd
       -0.081155516 0.034726433 0.04118629 -0.039964717
0000c0 e9 ce df bd 16 e8 00 bc 5f 78 01 3d 3e 14 1a 3d
       -0.10928137 -0.007867834 0.031608935 0.03761696
0000d0 e2 93 d4 bc ec 0c 30 bd 1d 80 b2 3c 6a 2d 1a bd
       -0.025949422 -0.042981073 0.021789605 -0.037640966
0000e0 6c 0b a0 bd fe bc 48 3d cb 4b 1e 3d 9a 5a 39 bc
       -0.078146785 0.049008362 0.0386465 -0.011313105
0000f0 64 e4 73 bc 52 cf 13 bd 84 e6 ce bc 7e e2 5b bd
       -0.014885996 -0.036086388 -0.025256403 -0.053682797
000100 04 1a 86 bd 51 4d 55 3d 76 41 3a bc b4 51 96 3d
       -0.06547931 0.052075688 -0.011368146 0.073398024
000110 76 f4 7c bd d7 79 ed 3c 33 99 35 bc 0c 88 20 bd
       -0.061756574 0.028988762 -0.011083889 -0.039192244
000120 7e 5d 49 bd a7 8c 8e 3c 16 9c 41 3d ab 35 35 3d
       -0.049161427 0.017401053 0.047267996 0.044240635
000130 f8 6a 1e bc cd 0a e3 bc 50 14 16 3c 8d af 75 3d
       -0.009669058 -0.027715111 0.009160116 0.05998187
000140 cc cb 08 3d 3d 68 81 bd 90 a3 bb 3c a5 a1 21 3d
       0.03339748 -0.0631871 0.022905141 0.039460797
000150 44 09 86 3d 51 6b e4 bc a1 0e a4 3c 1e 85 2d bd
       0.06544736 -0.027883204 0.020026507 -0.04236328
000160 24 59 d8 bc 31 19 22 3b 9e 5e 30 3d 23 5a 7b bd
       -0.026409693 0.0024734254 0.043058984 -0.061365258
000170 0c 2b b0 3c 0a 2c 51 bd 92 54 99 3d 9f 4d 8a 3c
       0.021504901 -0.05106739 0.07486834 0.016882716
000180 c1 2e 5c bd 2d e2 f5 3c a4 6e 14 3d 9e 40 35 bd
       -0.053755525 0.030015076 0.036238328 -0.044251077
000190 b4 38 f9 bc d3 d8 3a 3d 06 94 bc bd 8f 72 4d bd
       -0.030422546 0.045616936 -0.09207921 -0.05015808
0001a0 d1 c3 80 3c 15 d6 8d 3d 2b 40 62 bc a8 4f c0 3c
       0.015718373 0.069255985 -0.013809244 0.023475483
0001b0 64 db f1 bc fc de 20 3d ba 01 47 bd 6c 55 98 bb
       -0.029523559 0.039275154 -0.04858563 -0.004648855
0001c0 1f 7e ef 3b 2f 24 79 bc 34 84 65 bc ea 5d 85 bc
       0.007308736 -0.015206381 -0.01400857 -0.016280133
0001d0 3b 0f 54 bd 13 94 fe 3c c4 e3 b1 b7 d8 0e df 3c
       -0.051772337 0.031076467 -2.1206106e-05 0.027228758
0001e0 37 d9 4d bc d3 7a 19 bd 05 d0 f0 bc 14 7d 91 3d
       -0.012563995 -0.03747065 -0.029396066 0.07103935
0001f0 ee 42 b1 3c 24 f3 c1 bd b2 ef 44 3d de 6a 21 3b
       0.02163836 -0.094702035 0.048080154 0.0024630348
000200 b9 ed 8c 3c 12 f1 8c 3d 34 83 55 3d 48 c6 3f bd
       0.017203199 0.06881918 0.05212708 -0.046819955
000210 f2 bf db bd 5c 49 57 3d 28 1f 3a bb a5 a1 8e 3d
       -0.1072997 0.052560195 -0.0028399918 0.06964425
000220 44 f2 25 bd cb 35 2e bd c7 30 8c bd d8 55 36 3d
       -0.040514246 -0.04253177 -0.06845241 0.04451546
000230 87 bc 2d 3c e8 99 7a bd db 0e 16 3d 6a 9a 6a 3c
       0.01060403 -0.061181933 0.03663526 0.014319042
000240 35 94 79 bd 63 31 bf bd ef 97 90 3d 39 19 51 bd
       -0.060932357 -0.09335592 0.07060229 -0.051049445
000250 5d 09 ef 3c db 8d e7 bc 8f 9d 21 bd 36 1b 12 bd
       0.02917927 -0.028265884 -0.0394569 -0.03567048
000260 b4 ae e3 3c 32 b9 6d b7 72 ac 1f 3d e1 49 57 bd
       0.027793266 -1.416942e-05 0.038982816 -0.05256069
000270 b0 79 10 bc 3c d7 62 bd 06 25 c1 bd 37 e3 2d 3d
       -0.008818075 -0.055381045 -0.0943089 0.042453017
000280 44 48 94 bb d5 79 1c 3d 92 f4 ae 3c 13 18 0b bd
       -0.0045252163 0.038202126 0.021356855 -0.033958506
000290 d9 36 bd bd 69 2c 44 bd c2 fa 13 3d f9 f2 09 3c
       -0.09238977 -0.047893915 0.036127813 0.008419746
0002a0 f8 f9 03 3d 59 d5 01 bc 7f af 7b 3c 4e a1 0f 3d
       0.03222081 -0.007924401 0.015361666 0.03506594
0002b0 d6 21 5d 3d ef 6f 83 3c e0 a5 0a bd 20 da 06 3c
       0.053987347 0.016044585 -0.033849597 0.008230716
0002c0 36 e9 d8 3c 52 e5 0c 3b e0 17 94 3c 9f 52 9a bd
       0.026478391 0.002149899 0.01807779 -0.0753529
0002d0 11 91 c9 bd 52 b8 a0 bc 9b cc e4 ba a5 59 44 bc
       -0.09842122 -0.01961914 -0.0017455997 -0.011984264
0002e0 d9 e8 0a bd 58 f1 a3 bc e3 c0 4a 3d 89 18 db bc
       -0.033913467 -0.020012543 0.049500357 -0.026745098
0002f0 07 2f 3f 3b b5 9b af 3c ca 91 7c 3c 7f 9a 47 3d
       0.0029172318 0.021436552 0.015415618 0.048731323
000300 bb ca 43 bd 64 90 b2 bd b8 dc 6a 3d fe 48 83 bd
       -0.04780076 -0.087189466 0.0573394 -0.064104065
000310 35 06 fd 3c 7a e4 c1 3c 52 6e b3 3c a2 a8 a6 bc
       0.030886749 0.023668516 0.02190319 -0.020344082
000320 49 cf 3a 3d 7b 43 55 3c 47 73 99 bd e0 6a 03 bd
       0.04560784 0.013016577 -0.074926905 -0.032084346
000330 e1 d3 21 ba 29 d4 21 bd eb a2 a0 3d 8b 38 0d bd
       -0.0006173235 -0.039508972 0.07843574 -0.03447775
000340 f7 0c 70 bd 9a 29 1a bd 55 12 ad bc a4 7b ee bc
       -0.058606114 -0.03763733 -0.021126905 -0.02911169
000350 50 57 0d 3c 8e fe c1 3c 92 a4 3b 3b 14 c4 89 bd
       0.008626774 0.023680951 0.0028632027 -0.06726852
000360 25 e0 0f 3d bb de 90 bd c1 e6 3f 3d d5 c7 06 bd
       0.03512587 -0.070737325 0.046850923 -0.03290542
000370 4a b5 bf bc f1 2f dd bb 2a 7d ad 3c da ed b0 bd
       -0.023401875 -0.0067501 0.021177847 -0.086391166
000380 04 58 da 3c 93 72 4b 3d b0 48 d9 3c 49 80 a3 bd
       0.026653297 0.049669813 0.026523918 -0.07983453
000390 be 4d 16 bd ec a9 08 3c fd 30 9b bd 3a 12 69 3b
       -0.036695234 0.008341294 -0.07577703 0.0035563842
0003a0 80 2a 8d 3b 6f 05 eb 3c 09 19 be bd cc 9f b6 bc
       0.004308045 0.028689114 -0.09282119 -0.022292994
0003b0 c4 67 81 3d f2 b2 99 bd 6a ab 6b 3d 8c f7 fa bc
       0.0631862 -0.07504834 0.05753652 -0.030635618
0003c0 17 83 62 bd d2 60 38 bd 27 96 cc bc ba ee e0 bb
       -0.0553008 -0.04501421 -0.024973942 -0.006864396
0003d0 d2 86 b1 bc 56 94 b5 bc 09 42 4a bd 69 6b 7b bd
       -0.021670733 -0.022165459 -0.049379382 -0.06138173
0003e0 8a de 08 3d 20 6d 15 3d f5 21 83 bc 14 8f 57 bd
       0.033415355 0.036481023 -0.016007403 -0.052626684
0003f0 1a cb 54 bc c4 a8 6a bd c0 42 1a bd d8 12 f5 bc
       -0.012987876 -0.057289854 -0.037661314 -0.029916212
