notebooks/checkpoint/shd_rnn_256/fc_hh.weight.npz (npz, 262408 bytes, 1 tensors)

arr_0 f4 [256, 256]
00000000: 709d ad3b edc0 e33c 28bb a23c bc95 353d
00000010: fc0e 393c 3abc c13c 463f acbc b0f9 0abc
00000020: 647b 913c a726 803c e3b8 123d 0415 10bd
00000030: 983f ecbc 92f9 ccbc f59d 443d 59f8 743c
00000040: 5216 533d 9ffc 49bc 958d d7bb 980a 15bd
00000050: 2874 e8bb 21c2 21bd a75c ccbc bc15 a7bc
00000060: 9e42 f63c fd2d c1bc 4fa5 28bd df6d d03c
00000070: 5de2 f33c ec48 413b 4613 6cbd db23 77bd
00000080: ea5d 25ba 54db 5dbb 93c3 4dbc 5c20 15bd
00000090: 6e9b 2c3d 9afa 4a3c 4df6 503d 8fed 723d
000000a0: 728f 973c 3115 5b3d c8e6 913d 67fa 61bc
000000b0: a3c4 7dbc 6100 b8bc 6f78 843c 040b 61bd
000000c0: e511 1abd 0337 a7bc 2e86 23bc 8a56 1ebb
000000d0: 8e73 55bd 78d4 b33b 1d73 c7bc ed31 10bb
000000e0: e3a3 36bd 8cb7 5e3c 7291 76bb 4582 083d
000000f0: 0287 813c 4e7a 2b3d d984 11bc f876 2f3b
00000100: 8f9f 353d da76 693d 8eac 663d a685 51bd
00000110: d18f f23a d323 3ebd 8b60 833d ae00 253d
00000120: 84a8 0a3d 8d74 8a3d e564 afbc f0d7 063c
00000130: b586 283d 65c2 3d3d ee86 423c 86ad 5dbc
00000140: 9290 393d e9ac f33c a7c6 bfbb 6518 833c
00000150: 3713 26bd 951e 723d fc13 6d3d 01f3 363d
00000160: ad6a 603d b8cf ffbc 87f4 d53b 045f 6c3d
00000170: 9ce4 cd3a 1e09 66bc 235e b3bb 0380 1d3d
00000180: 9130 7d3c 3943 6ebd 150d 8f3b 2b12 5d3d
00000190: 5160 dd3c 4bf9 053d a878 323d b8db edbc
000001a0: cf72 09bd 7acc 723b d95a 3ebb 5ce8 07bd
000001b0: 082d 14bd b8a2 4d3d 9727 b93b 37a2 273d
000001c0: 957b 6b3c 2863 093d ed67 22bd 89f9 cf3c
000001d0: 9d8d 8a3c 54a3 71bd 4db1 2cbd b5fb 9c3c
000001e0: ac56 e0bc eb8d 47bd 7393 5abd da08 653d
000001f0: cf4d cfbc f114 653d fdc2 2a3d 60ae b23c
00000200: 7420 08bd cd37 b13c da51 eabc 146c 59bd
00000210: 1fa6 03ba 49ea 24bd 878c 96bc 0b0f 233c
00000220: 9aeb 38bc 69d3 1bbd 5836 053c 56f0 153d
00000230: c646 4e3d 2fd3 e6bc b37f c23c 5f4b e13c
00000240: 9a16 143c 3986 cbbc 62e1 46bd 9e91 16bd
00000250: 4343 f9bc a6e9 a23c 30d4 153c a002 3e3d
00000260: defd 1e3d a2a5 5abd 9468 d33c d052 983c
00000270: 80ac 15bc 3dfd 71bd dc66 3bbd 90c3 823d
00000280: 3e67 383d bd49 81bd 828b 3fbc 2cb9 813d
00000290: 8961 63bd 51fd 50bd 20b9 b83b 5758 acbc
000002a0: 3d1a 19bd 747d 17bd 48d8 d9bc dcc0 3a3d
000002b0: 21d7 15bd 64b7 92bd 6d82 993d 201a 85bc
000002c0: 267c 42bd 6faa ddbb 25b9 b13c 47a1 383b
000002d0: 98d9 90bb a0d4 debc 7c92 873d 1ebc c5bb
000002e0: 3810 543d dbfe 423d 3dd5 28bd 22de fcbc
000002f0: 0281 85bd f398 c13c ab28 afbc c5dc 6abc
00000300: e040 86bc 1634 79bc e17d 093c 320d 01bd
00000310: 5fd2 5ebd 3d4f 2c3d 1ad3 38bd 4b0b 413c
00000320: ed57 b3bb e7d6 89bc ae8d 413d dcdc 763d
00000330: 2450 4f3b d60d 2c3d 2ec8 5abb f559 513c
00000340: e85e e83b eecb 063d ddb2 59bd d6fb 80bc
00000350: 4fc1 293d 9f73 293d f6b8 87bc d1b1 6ebd
00000360: 17c7 243d 6eb7 5ebd a166 433c 3007 b13c
00000370: 26db 6fbd b00c 4e3d 8ceb 2bbd 043e 493d
00000380: bc1e 78bc 5559 1cbc 347b 103d b77a a8bc
00000390: 7898 55bd b794 963c 5565 ec3c 5de8 f3bc
000003a0: 172a acbc 780a 4b3d b90d f33c c440 f13c
000003b0: fd50 0ebd 2f91 debc 5edf 2d3d 0fcb cb3c
000003c0: 5f75 cdbb eb21 09bd dcbd ffbc 032f 163d
000003d0: 62fb c3bc 6e81 3fbd 41e1 563d eee8 233d
000003e0: db3d 2b3c 2de7 1c3d c684 e3bc 240a 38bd
000003f0: 0ea9 4a3d b9fb c03c d665 2ebd 5e73 09bc
0.005298309 0.027801955 0.019864634 0.04433225 0.011295076 0.023649324 -0.021026265 -0.008482382
0.017759033 0.01564343 0.035820853 -0.035176292 -0.028838918 -0.025021348 0.048002202 0.014951789
0.05153496 -0.012328296 -0.006578157 -0.036387056 -0.007093925 -0.039491776 -0.024946524 -0.020396106
0.030061062 -0.0235815 -0.041173276 0.025443016 0.029771024 0.0029492928 -0.057635568 -0.06033693
-0.0006308245 -0.0033852654 -0.012558836 -0.036407813 0.042140417 0.01238885 0.05101614 0.059308585
0.018501017 0.053487007 0.07124096 -0.013792611 -0.015488776 -0.022461118 0.016170708 -0.054942146
-0.03761472 -0.020411974 -0.009980721 -0.0024160468 -0.052112155 0.0054879747 -0.024346882 -0.0022002414
-0.04458989 0.013593566 -0.0037623313 0.03332736 0.015811447 0.041864686 -0.008881771 0.0026773792
0.04434162 0.05699811 0.056316905 -0.051152848 0.0018505995 -0.046420883 0.064148985 0.04028385
0.033852115 0.067605115 -0.021410415 0.008230194 0.04114409 0.046327967 0.01187299 -0.013530141
0.04530389 0.029745536 -0.0058525386 0.016002843 -0.04054567 0.059111197 0.057880387 0.04466534
0.054789234 -0.031226978 0.006529394 0.0577078 0.001570839 -0.01404026 -0.0054738685 0.03845216
0.015453474 -0.058169577 0.004365573 0.053972404 0.027023466 0.032708447 0.043572098 -0.029035434
-0.033556756 0.0037048147 -0.0029045849 -0.03318058 -0.036175758 0.05020401 0.0056504714 0.040926185
0.014372726 0.03354183 -0.039649893 0.025387542 0.01691323 -0.058993652 -0.042161275 0.019162992
-0.027385078 -0.048719328 -0.053363275 0.055916645 -0.025305657 0.055928174 0.04168986 0.021811664
-0.033234075 0.021633053 -0.028603483 -0.053081587 -0.00050220074 -0.040262494 -0.018377556 0.009952317
-0.011286641 -0.038043413 0.008130632 0.036606155 0.050360464 -0.028176872 0.023742532 0.02750176
0.009038592 -0.024844276 -0.048554786 -0.036759965 -0.03042758 0.019886803 0.009144828 0.046389222
0.038816325 -0.053380616 0.025806703 0.018594176 -0.0091353655 -0.059079397 -0.04575239 0.06384957
0.045020334 -0.063128926 -0.011690976 0.06334147 -0.05551294 -0.05102283 0.005637303 -0.021038217
-0.03737854 -0.036984876 -0.026592389 0.04559408 -0.036582116 -0.07163885 0.0749558 -0.016247809
-0.04748168 -0.006764702 0.02169473 0.00281723 -0.0044204704 -0.027200997 0.066197366 -0.006034388
0.05177328 0.04760633 -0.041218985 -0.03086764 -0.06518747 0.023632502 -0.021381697 -0.014334862
-0.016388357 -0.015210172 0.008391828 -0.031506725 -0.054399844 0.042067755 -0.045123197 0.011782478
-0.005473128 -0.016826106 0.047254257 0.06026922 0.003163346 0.042005382 -0.0033383477 0.012777795
0.007091392 0.032909326 -0.053149093 -0.015745085 0.04144412 0.04137003 -0.016567688 -0.058275048
0.04022893 -0.05437415 0.011926324 0.021609873 -0.058558606 0.05030507 -0.041972682 0.04913141
-0.015144046 -0.009542783 0.035273746 -0.020566327 -0.05214736 0.01838146 0.028856913 -0.029773885
-0.021016164 0.04957053 0.02966963 0.029449828 -0.034745205 -0.027168838 0.042449348 0.0248771
-0.0062700952 -0.033479612 -0.031218462 0.036665928 -0.02392358 -0.046754293 0.052460913 0.04001706
0.010451759 0.038306404 -0.027773272 -0.044931546 0.04947763 0.02355753 -0.042577587 -0.008389322
