notebooks/checkpoint/shd_rnn_256/fc_ho.weight.npz (npz, 20744 bytes, 1 tensors)

arr_0 f4 [20, 256]
00000000: ee38 7e3d aeba 8a3b 3f3e febc 9fba 38bc
00000010: 7b4b 30bd 89ee 99bc 22eb 42bc 8510 68bd
00000020: 283f 6f3d fccf 723c 6795 553d 2268 7ebc
00000030: f6cc 693d cd7c 30bd cea6 9dbc 01b1 fdba
00000040: 91d1 413d 05cb 713d 9699 7cbd a8be 32bc
00000050: 4281 98bb eff3 de3c 39ae b73c 3936 95bc
00000060: 5797 cbbc e864 7ebd 646b 7d3d f6c9 69bd
00000070: 3610 453d d088 aa3c a5b1 8bbc ec4e 34bc
00000080: 76d5 68bd 7402 27bb 50fa 7fbc bc3e 033d
00000090: c81c fbbb 93b6 2d3d cabb 273c fd53 dabc
000000a0: 9cfc 11bd efaa 3fba 1514 1e3d 80a4 3cbd
000000b0: 6dbb 5d3b 2263 59bd 8448 a8bc 35df c33c
000000c0: 5ae7 7e3c ecf1 14bd 0c18 51bd 8636 0cbd
000000d0: df63 983c 2e39 30bd e920 f43c 49e5 3abc
000000e0: 6fd8 3bbd 4ccd 7c3d 235e 4dbd 2fec 62bb
000000f0: 6fa7 4abd 3e8c 51bd 8275 43bc 3103 c53c
00000100: 9559 393d a70a 65bd 1fa1 d13c aa4b e6bc
00000110: 1f8a 8f3c 269d 753d 6767 5ebd 3c4c 423d
00000120: bed2 14bd 8c8b 553d 5e8b b8bc 391a 5e3c
00000130: 56f4 28bd 8fce e1bc 7607 3abb 35f5 e9bc
00000140: 37af 59bd 6459 69bd b8d5 a63c 1046 043c
00000150: 9e7a 973b 9bd9 283d 0348 24bb d7fd 1f3d
00000160: c328 81bd 886e 06bd 0b38 203d b0cc 813c
00000170: c049 c6bc 3b77 e73c 5c35 cfbc 566c 423c
00000180: 0fd5 f73c a4c9 78bb 5a21 08bd 9fd9 d1bc
00000190: 2930 3ebd 5b57 89bc 1a90 0f3d bc27 c03c
000001a0: f8d0 28bd 7aed b0bb 1aa7 3a3c 8a2b 533c
000001b0: e25a 3abd ddbf 223b f874 253d 802d 293a
000001c0: 8ba1 363d cc0f 62bd 3156 113d 7b0c 533c
000001d0: 8309 1ebd fc62 adbc 1584 3fbc 0022 ea3c
000001e0: 0b26 453d e792 503d f348 33bd 4657 0e3d
000001f0: 90bf 46bd ea59 893c bfd4 5bbd 19dc 433d
00000200: 1d02 3cbd 3e81 633d a06e 2fbc bd28 91bc
00000210: 86a0 19bd bd8c 033d ccc2 46bd a50e 6f3d
00000220: 8572 34bd c254 2abd 9850 233d 6f21 cd3b
00000230: ed03 c43b 1ac0 2a3d 4957 463c 8aed febb
00000240: f8e4 193d c40b f93c dd93 253d 19c8 63bd
00000250: 1418 22ba c5bd 3cbd 8e7a 3d3d 89ab 3b3d
00000260: 6905 1d3b 0362 ac3c cc56 443c a97f 553c
00000270: 507b d33b 95c8 433d 6745 1f3d 67a5 72bd
00000280: 6120 8c3c def6 1c3c 19fc fbba 94ec ed3c
00000290: ad1d 613d 9565 74ba dcc1 df3c a2a5 373d
000002a0: 8bdd 73bd b3be 083c 0b83 eabc 528e 0bbd
000002b0: 44e4 70bd 6c05 cfbc 0d7f ff3c ffac cd3b
000002c0: aade e23b 3b0e 5abc b167 6b3d fa2a 4c3d
000002d0: 1512 583d ade0 873c adff 473d 46c6 7a3b
000002e0: 0f7b 03bd 1190 033c f1ff 053d 9799 57bd
000002f0: d6be 77bd 5ffe 51bd d56a 3a3d 5bed 413d
00000300: 6304 8ebc 926a d23c 42bd 293d 21f7 903c
00000310: 6186 13bd 4649 2dbd 893a 023d 0ee9 b1bc
00000320: 8df7 0cbb 7426 f7bb ea96 d0bc d172 27bd
00000330: a7e3 5fbd 24a9 613d 1dac 8f3c e29b 9c3c
00000340: ba52 c0bc 7192 31bd f300 f53c dde9 e7b9
00000350: 4169 263d 9fa6 2d3d ebef 85bb 82b7 463d
00000360: 6182 74bd 2aa6 5f3d 7918 52bc 3d78 2fbd
00000370: 9bc7 5fbd afcf 3dbd 132c fa3c 66c3 223d
00000380: e740 2c3c 7701 5c3d c260 d6bc 63a0 d13b
00000390: 2c5a ecbc accc 4fbd 922f 353d c335 a1bc
000003a0: 57ac f63c 8968 d53c 68cf 593d 1ab5 bdbb
000003b0: 97ad 24b6 b499 cb3c e7f9 313b 9213 733d
000003c0: cdc5 e1bc 8bcb 07bb a075 9f3c 3ed8 ce3b
000003d0: 9355 e5bc 40e0 cfba 5b20 ee3b 1565 4dbc
000003e0: ed29 da3c bfdd 4ebd bd21 4e3b d52e 443d
000003f0: a542 7a3d a6ac d63c 03cd 09bc 55b8 003d
0.06206601 0.0042336797 -0.03103554 -0.011274963 -0.043040734 -0.0187905 -0.01189688 -0.05665638
0.05840984 0.014820095 0.052144434 -0.015527757 0.05708023 -0.04308777 -0.019244578 -0.001935512
0.047319 0.059031505 -0.06166991 -0.010909714 -0.0046540806 0.027215926 0.022421943 -0.018214332
-0.024852438 -0.06210795 0.061869994 -0.05707737 0.048111163 0.02081719 -0.017052481 -0.011005145
-0.056844197 -0.002548364 -0.015623644 0.03204225 -0.007663343 0.042410444 0.0102376435 -0.026651377
-0.035641298 -0.0007311543 0.03859337 -0.046055317 0.0033833638 -0.053073056 -0.02054239 0.023910144
0.015558088 -0.036363527 -0.051048324 -0.034231685 0.01860231 -0.04302328 0.029800849 -0.011407205
-0.045860704 0.061719224 -0.050138604 -0.003462564 -0.049476083 -0.051159136 -0.0119298715 0.024049373
0.045251448 -0.055918362 0.025589524 -0.028112251 0.017521916 0.05996432 -0.05429783 0.047435984
-0.036333792 0.052135035 -0.022527393 0.013556057 -0.041248642 -0.027564315 -0.0028385795 -0.028559307
-0.053145614 -0.056970015 0.02036558 0.008073345 0.0046227714 0.04122315 -0.0025067336 0.03906044
-0.06306603 -0.032820255 0.039115947 0.015844673 -0.024205089 0.028255096 -0.025293998 0.01186665
0.030252961 -0.0037961984 -0.03323493 -0.025616465 -0.046432648 -0.016765287 0.035049535 0.023456447
-0.041214913 -0.005399403 0.011392379 0.0128887985 -0.04549683 0.0024833598 0.040394753 0.00064536184
0.044587653 -0.055190846 0.03548259 0.012881394 -0.03858329 -0.021165363 -0.011689206 0.028580666
0.048131984 0.050921347 -0.04377074 0.0347512 -0.048522532 0.016766507 -0.053669687 0.047817323
-0.045900453 0.055543177 -0.010707527 -0.01771962 -0.037506603 0.03211664 -0.048525617 0.058363575
-0.044054527 -0.041584738 0.039871782 0.006260089 0.0059819133 0.04168711 0.012105771 -0.0077797817
0.037571877 0.030401118 0.040424217 -0.05561075 -0.00061833975 -0.046079416 0.046259455 0.045817886
0.0023959524 0.02104283 0.011983585 0.013030925 0.006453909 0.04779871 0.038884547 -0.05923977
0.017105283 0.009580342 -0.0019224911 0.029043473 0.05495994 -0.0009322998 0.027314119 0.044835694
-0.05953745 0.0083462475 -0.02862694 -0.034071274 -0.05881144 -0.02527114 0.031188512 0.0062767263
0.0069235163 -0.013309057 0.057471935 0.049845673 0.05275162 0.016586626 0.048827816 0.0038265153
-0.03209978 0.008029954 0.032714788 -0.05263671 -0.06048473 -0.051267978 0.04551204 0.0473455
-0.017336076 0.025685582 0.041440256 0.017695965 -0.036016826 -0.042306207 0.031794105 -0.021717574
-0.0021509856 -0.0075424258 -0.025462586 -0.04088098 -0.054660466 0.055092946 0.017538125 0.0191173
-0.023476947 -0.043352548 0.02990768 -0.00044233995 0.04062772 0.04239523 -0.0040874383 0.04851485
-0.05969465 0.054601826 -0.012823218 -0.042839278 -0.054633718 -0.04634064 0.030538594 0.039737128
0.010513521 0.053712334 -0.026169185 0.0063972934 -0.028851591 -0.0507323 0.04423482 -0.019678956
0.030111475 0.026050823 0.053176314 -0.0057894113 -2.4538947e-06 0.024853565 0.002715701 0.059344836
-0.02756014 -0.0020720686 0.019465268 0.006312399 -0.027994907 -0.0015859678 0.0072670407 -0.012536307
0.02663132 -0.050504442 0.0031453215 0.047896225 0.061098713 0.026205372 -0.008410695 0.031425793
