pynn/models/shd_rnn_d_512/fc_ho.weight.npz (npz, 41224 bytes, 1 tensors)

arr_0 f4 [20, 512]
0.03327065 0.024342665 -0.04045574 -0.0146042 0.039512996 0.046993528 0.03093467 0.027918048
-0.016479596 -0.007502792 0.03885558 -0.008513164 0.039641976 0.03075066 0.049461257 -0.020162506
0.023604045 0.017093556 0.015660776 -0.012383071 -0.030929571 0.011651386 -0.0065167523 -0.0007120417
0.032299563 0.02100879 0.027862847 0.030544212 0.035649545 0.024444988 0.0048218663 0.033754665
-0.04928781 -0.04531764 0.015618344 -0.033508632 -0.0071995724 0.04966239 -0.05054787 -0.00353741
-0.062379383 -0.017407656 -0.027936656 -0.024216967 -0.04550236 -0.034216147 0.014554214 -0.036169972
0.018498614 0.0079259705 0.04775851 -0.051218092 0.012495432 0.013301187 0.03901901 -0.049902182
-0.015604491 0.028557051 -0.0020136482 0.033711955 -0.00570417 -0.0024407753 -0.022131817 -0.019327879
0.024637088 0.029780924 0.013940974 0.024407465 -0.037624903 -0.03105737 -0.07783201 -0.019284463
0.020389704 -0.030983318 0.027167866 0.0024103061 -0.058176205 0.022613853 -0.010787571 -0.060007423
0.032543134 -0.0071005174 0.0235222 -0.0495494 0.033022862 -0.029428478 -0.06294466 0.018131554
0.023035303 0.0488078 0.025373153 -0.08266938 0.014822233 -0.016391497 -0.040691193 0.03239173
0.044639714 -0.00891875 0.01270046 -0.019571893 0.0036650219 0.008202997 0.0042670844 -0.025379555
0.026083024 0.015860856 -0.002618124 -0.010387959 -0.011914002 0.034007225 0.005481691 -0.0005380463
0.027728397 -0.023471517 -0.032443605 -0.06432038 0.038329657 -0.041182805 0.034641713 0.028080817
0.004375489 -0.040830918 -0.052798674 -0.0076351766 -0.015765844 0.010103442 0.0033955476 0.02774073
-0.010836431 -0.044833172 -0.007319827 -0.0099123595 0.0069376226 -0.072634734 0.00079210574 0.020384325
-0.007849246 -0.028128585 -0.035019424 -0.033395085 0.024371626 0.004089608 -0.014452565 -0.0063096043
0.009699384 0.047852043 0.0014361113 0.01387568 -0.055911705 -0.027396202 -0.011459764 0.043467905
0.042382635 -0.040086154 -0.073693 -0.035026785 -0.013931127 -0.010555176 -0.01609111 0.025983933
0.010383078 -0.002698288 -0.017553728 -0.0061878343 -0.014819699 0.03734577 -0.014216485 -0.00572058
-0.008242514 -0.050161954 -0.00689989 -0.014108144 -0.016997091 0.01146845 0.031673215 -0.063981496
0.00085589243 0.010047949 -0.035765916 -0.03762622 -0.013974538 -0.041687462 0.02269388 -0.047099445
-0.011509119 -0.032781746 -0.002354145 0.01969817 -0.014413034 -0.051446594 0.041744303 -0.032921623
-0.022015447 -0.016750451 -0.0060974737 -0.022821942 0.009282221 0.0147758825 -0.044701528 -0.024516813
-0.06643297 -0.03870494 0.010889011 -0.018442048 0.039540548 0.01819437 0.020566335 -0.039960455
-0.044918213 -0.02595668 0.024760338 -0.04474509 -0.05670479 0.040251356 0.039685972 0.018754475
-0.020987319 -0.025395421 -0.032381903 -0.02219705 0.0045395466 0.028183652 -0.022049615 -0.038799435
0.03254877 0.0098695615 -0.008514583 -0.013092777 -0.038880777 -0.07834111 0.008065699 -0.012495576
0.015402704 -0.020268299 -0.028564978 0.030793196 0.044944264 -0.023697682 -0.025530834 -0.020115556
-0.03705125 -0.003475208 -0.04226466 -0.03727503 0.035643738 -0.019649332 -0.012781485 0.026944153
-0.027554339 -0.027738089 -0.0039350684 0.039725624 0.004004784 -0.03480078 0.0045857043 -0.048702154
00000000: ce46 083d 456a c73c ebb4 25bd 7446 6fbc
00000010: 61d8 213d 497c 403d b46a fd3c 64b4 e43c
00000020: 3800 87bc fbd9 f5bb 0727 1f3d cc7a 0bbc
00000030: a05f 223d cfe8 fb3c e397 4a3d d72b a5bc
00000040: 455d c13c c907 8c3c 074b 803c 5de2 4abc
00000050: 0360 fdbc 74e5 3e3c 7b8a d5bb 4fa8 3aba
00000060: 8c4c 043d a01a ac3c a040 e43c db37 fa3c
00000070: 4205 123d db40 c83c bf00 9e3b 5542 0a3d
00000080: 04e2 49bd fd9e 39bd 15e4 7f3c 5940 09bd
00000090: 64ea ebbb ca6a 4b3d 490b 4fbd e4d3 67bb
000000a0: 8681 7fbd 809a 8ebc 6adb e4bc a962 c6bc
000000b0: af60 3abd 3b26 0cbd cc74 6e3c f726 14bd
000000c0: 688a 973c eedb 013c 6d9e 433d 10ca 51bd
000000d0: a4b9 4c3c 39ed 593c 66d2 1f3d 3b66 4cbd
000000e0: fba9 7fbc 7af0 e93c 69f7 03bb 8c15 0a3d
000000f0: 0cea babb 6af5 1fbb c94d b5bc 8055 9ebc
00000100: b8d3 c93c 20f7 f33c af68 643c 2af2 c73c
00000110: 921c 1abd 076c febc 6466 9fbd 73fa 9dbc
00000120: 4f08 a73c bad0 fdbc 258f de3c 3af6 1d3b
00000130: 2c4a 6ebd b040 b93c 5abe 30bc 58ca 75bd
00000140: f34b 053d 75ab e8bb a1b1 c03c 50f4 4abd
00000150: fb42 073d fe13 f1bc 21e9 80bd a088 943c
00000160: 88b4 bc3c b0ea 473d 5cdb cf3c 904e a9bd
00000170: f3d8 723c 7647 86bc cfab 26bd 31ad 043d
00000180: 22d8 363d f31f 12bc 9715 503c 3c55 a0bc
00000190: dd30 703b dd65 063c e6d2 8b3b c9e8 cfbc
000001a0: 11ac d53c a0ee 813c d594 2bbb 4232 2abc
000001b0: f232 43bc 294b 0b3d c29f b33b ad0b 0dba
000001c0: aa26 e33c 5747 c0bc 96e3 04bd 67ba 83bd
000001d0: 8fff 1c3d 4daf 28bd 78e4 0d3d be09 e63c
000001e0: 4360 8f3b 523e 27bd 6c43 58bd 8130 fabb
000001f0: 5f27 81bc e888 253c d687 5e3b 8740 e33c
00000200: 498b 31bc fda2 37bd 29db efbb 7367 22bc
00000210: ff54 e33b 85c1 94bd 51a5 4f3a 07fd a63c
00000220: 209a 00bc eb6d e6bc 8770 0fbd 49c9 08bd
00000230: 01a7 c73c 1e02 863b 74ca 6cbc ccc0 cebb
00000240: 2aea 1e3c 8100 443d e63b bc3a d256 633c
00000250: ac03 65bd 006e e0bc bcc1 3bbc 670b 323d
00000260: 6a99 2d3d 6131 24bd 5bec 96bd 3f78 0fbd
00000270: 623f 64bc 9eef 2cbc 81d1 83bc 42dc d43c
00000280: c91d 2a3c c3d5 30bb d6cc 8fbc 51c3 cabb
00000290: 53ce 72bc e1f7 183d 43ec 68bc b473 bbbb
000002a0: 9c0b 07bc 9f76 4dbd 7918 e2bb d825 67bc
000002b0: 7c3d 8bbc 2ae6 3b3c c6bb 013d bb08 83bd
000002c0: f85d 603a 27a0 243c 487f 12bd f41d 1abd
000002d0: 76f5 64bc 79c0 2abd 84e8 b93c 59eb 40bd
000002e0: be90 3cbc 2746 06bd 0048 1abb 0e5e a13c
000002f0: a524 6cbc aab9 52bd 13fc 2a3d d3d8 06bd
00000300: bd59 b4bc 3e38 89bc 51cd c7bb 15f5 babc
00000310: 7514 183c 8b16 723c f318 37bd 7cd7 c8bc
00000320: 020e 88bd 1289 1ebd d367 323c c713 97bc
00000330: 45f5 213d 5c0c 953c bb7a a83c 93ad 23bd
00000340: 29fc 37bd 1aa3 d4bc 31d6 ca3c a146 37bd
00000350: 4843 68bd 9bde 243d c28d 223d fca2 993c
00000360: 99ed abbc 0f0a d0bc e3a2 04bd 96d6 b5bc
00000370: 7ac0 943b 67e1 e63c 65a1 b4bc 28ec 1ebd
00000380: dc51 053d f1b3 213c c080 0bbc 1683 56bc
00000390: 7341 1fbd 4e71 a0bd fe25 043c 3fba 4cbc
000003a0: 9f5b 7c3c b409 a6bc 1a01 eabc 0342 fc3c
000003b0: 7a17 383d a421 c2bc 0a26 d1bc 61c9 a4bc
000003c0: 0dc3 17bd 51c0 63bb b51d 2dbd b4ad 18bd
000003d0: 2bff 113d a3f7 a0bc 6f69 51bc fcb9 dc3c
000003e0: a3b9 e1bc fd3a e3bc bff1 80bb 56b7 223d
000003f0: 903a 833b 438b 0ebd ad43 963b e97b 47bd
