pynn/models/shd_rnn_d_512/fc_ho.weight.npz (npz, 41224 bytes, 1 tensors)

arr_0 f4 [20, 512]
0.0058534206 0.00010060778 -0.027716573 0.03445061 -0.035593864 -0.04134424 -0.013280204 -0.04797291
-0.010857975 0.03593832 -0.0030904505 -0.007198504 0.010742616 0.036730647 0.026052896 -0.037527382
-0.03146618 -0.019293282 -0.009259706 -0.015912963 -0.09599127 0.032960597 -0.024862673 -0.0064401543
-0.0016169607 0.054176174 -0.031303294 -0.019948829 -0.04623009 0.0030773468 0.0026152013 -0.0031867453
5.9118323e-05 0.003473054 -0.002604447 -0.02931084 0.050530266 0.0040590526 0.0012048489 -0.05996011
0.041426785 0.034281712 -0.046807896 0.0023866866 -0.0045975186 0.026988875 -0.00093501795 0.00814836
-0.02908696 0.021538401 0.004728838 0.0061282413 0.017374838 -0.017189397 -0.020287616 0.0129129
-0.04204479 0.0026614706 -0.009275036 0.027192185 -0.04192419 -0.052607227 -0.035226136 0.025012024
0.020516602 0.026724057 0.0035576674 0.011611193 -0.024442155 0.008876763 -0.037470482 -0.046285473
-0.0059863194 0.03477406 0.042560443 0.026259124 -0.07417313 0.03460625 0.03384168 -0.0473377
0.05391792 -0.018475909 -0.007907928 -0.043571904 -0.021214956 -0.008579749 -0.012099092 -0.0086647635
-0.06096572 -0.025217371 -0.044222392 -0.061880775 -0.04812095 0.01100479 -0.033397727 0.008778959
0.017315472 0.0034034979 -0.029401613 0.03556269 -0.002236814 -0.045219485 -0.028226223 -0.014005949
-0.025506027 -0.07159903 -0.04435112 -0.018338982 -0.0469983 0.038333304 -0.016158076 0.019247346
-0.02300366 -0.04689649 0.015080728 0.023825318 0.05709261 0.055495217 0.015758146 -0.039332747
-0.010276531 -0.0072568813 -0.0043499945 -0.03252013 -0.03304428 -0.014096684 0.01373981 0.040931348
-0.022718083 0.03617424 -0.029786078 -0.032302123 -0.039657187 0.0056606606 0.024552053 -0.034082916
-0.045871582 0.05145659 -0.0018002455 -0.05419995 -0.06273207 0.014654462 0.022236977 0.044384267
-0.03149162 -0.06785555 -0.018620115 0.033381894 0.051753562 -0.034485266 -0.048139177 -0.04287607
-0.029551418 -0.00993247 -0.015136389 0.004261242 -0.03106424 0.032630015 -0.023103427 -0.021630531
-0.020842504 0.029553251 -0.014748234 0.033647873 -0.062389076 -0.051751427 0.04454182 0.027048375
0.020642076 -0.03365054 -0.01518963 0.045463823 0.029006783 -0.018041123 -0.074276395 0.033772804
0.021571878 0.04139038 0.027894365 0.0055639595 0.028176418 0.028935542 -0.035777334 -0.064032145
0.02480994 -0.023343602 0.015363877 -0.003798751 -0.059246924 0.019939227 0.035271302 -0.004678185
-0.022875411 0.036216978 -0.020854898 0.027626472 -0.012794641 -0.016069131 0.044731077 -0.051296525
-0.056050956 -0.009376488 -0.04491815 -0.016825482 -0.016208766 -0.0048983544 0.014495497 -0.026339727
-0.016805772 0.02127654 0.055092875 -0.03344874 -0.030111874 0.03395106 0.003687184 0.036430612
-0.034411084 -0.025746856 0.044268858 -0.034625143 0.031817473 0.0104314955 -0.007638861 0.043862857
0.009944361 0.044019543 0.058207057 0.015384511 -0.020659763 -0.011137389 -0.016918171 0.04155605
-0.007820588 -0.027115347 -0.015503466 -0.010882481 -0.04105893 0.042746194 -0.022950402 -0.043104973
-0.02086864 -0.017644156 -0.010840039 0.009140732 -0.027468614 0.031290833 -0.040586095 0.0047228388
-0.041859344 0.041777942 -0.028898256 -0.009334603 0.0038259062 -0.031981412 0.017546667 -0.0033972727
00000000: 0dce bf3b 64fd d238 de0d e3bc 151c 0d3d
00000010: dfca 11bd 9458 29bd 3695 59bc 3e7f 44bd
00000020: a6e5 31bc 0f34 133d 2889 4abb 6ee1 ebbb
00000030: cc01 303c e072 163d e26c d53c 50b6 19bd
00000040: aee2 00bd f20c 9ebc 06b6 17bc e75b 82bc
00000050: 1297 c4bd b101 073d ceac cbbc ee07 d3bb
00000060: 33f0 d3ba d6e7 5d3d e237 00bd ba6b a3bc
00000070: c35b 3dbd 50ad 493b cc63 2b3b b7d8 50bb
00000080: d1f5 7738 2d9c 633b 5faf 2abb 491d f0bc
00000090: d3f8 4e3d cd01 853b 05ec 9d3a bb98 75bd
000000a0: 22af 293d fb6a 0c3d a3b9 3fbd f569 1c3b
000000b0: c8a6 96bb c617 dd3c fe1b 75ba b380 053c
000000c0: c747 eebc 4d71 b03c 5ef4 9a3b 6acf c83b
000000d0: ad55 8e3c c7d0 8cbc 3732 a6bc a190 533c
000000e0: 2837 2cbd 116c 2e3b 52f6 17bc 25c2 de3c
000000f0: b3b8 2bbd ad7a 57bd 4849 10bd 04e6 cc3c
00000100: 6f12 a83c 69ec da3c c127 693b e03c 3e3c
00000110: ea3a c8bc d86f 113c a67a 19bd d695 3dbd
00000120: e328 c4bb 3f6f 0e3d dc53 2e3d 601d d73c
00000130: 15e8 97bd 48bf 0d3d 939d 0a3d 2de5 41bd
00000140: 09d9 5c3d ca5a 97bc 4190 01bc 7478 32bd
00000150: fdca adbc 1392 0cbc 453b 46bc a7f6 0dbc
00000160: 31b7 79bd a994 cebc 8a22 35bd b276 7dbd
00000170: 791a 45bd 6f4d 343c 0ecc 08bd 9fd5 0f3c
00000180: 2dd9 8d3c 380d 5f3b a7db f0bc 2faa 113d
00000190: 8397 12bb 1138 39bd ae3a e7bc 3579 65bc
000001a0: 04f2 d0bc 83a2 92bd 85a9 35bd a23b 96bc
000001b0: 4a81 40bd 6203 1d3d f15d 84bc 9cac 9d3c
000001c0: 2c72 bcbc 8916 40bd 2815 773c 502d c33c
000001d0: f1d9 693d f44e 633d 3a17 813c 601b 21bd
000001e0: e55e 28bc 22cb edbb 668a 8ebb d433 05bd
000001f0: 7059 07bd c7f5 66bc f11c 613c a1a7 273d
00000200: 461b babc 712b 143d ef01 f4bc 3b4f 04bd
00000210: 936f 22bd 107d b93b 6321 c93c 879a 0bbd
00000220: d7e3 3bbd 25c4 523d 37f6 ebba c400 5ebd
00000230: ac79 80bd 4519 703c 522a b63c 47cc 353d
00000240: 5bfd 00bd daf7 8abd 3689 98bc 74bb 083d
00000250: 8bfb 533d 6c40 0dbd 962d 45bd d19e 2fbd
00000260: d115 f2bc ccbb 22bc 9efe 77bc e4a1 8b3b
00000270: 6f7a febc 0da7 053d 6643 bdbc 8332 b1bc
00000280: e6bd aabc a919 f23c 94a2 71bc 5ad2 093d
00000290: b08b 7fbd 4ef9 53bd 7c71 363d 8e94 dd3c
000002a0: 9219 a93c 26d5 09bd eddd 78bc 4638 3a3d
000002b0: a29f ed3c faca 93bc 391e 98bd 5a55 0a3d
000002c0: 82b7 b03c f688 293d b982 e43c e051 b63b
000002d0: 3bd2 e63c 3b0a ed3c 418b 12bd 4923 83bd
000002e0: 373e cb3c 153b bfbc c5b8 7b3c 77f4 78bb
000002f0: e7ac 72bd 9757 a33c a478 103d 764b 99bb
00000300: 3765 bbbc 4158 143d e4d7 aabc e950 e23c
00000310: 9da0 51bc 69a3 83bc ef37 373d 4e1c 52bd
00000320: b095 65bd d79f 19bc 18fc 37bd 98d5 89bc
00000330: 3fc8 84bc 6082 a0bb 857e 6d3c 69c6 d7bc
00000340: 42ac 89bc 234c ae3c 11a9 613d 8c01 09bd
00000350: 2dad f6bc 4410 0b3d afa4 713b 4438 153d
00000360: a3f2 0cbd 12eb d2bc 4353 353d 18d3 0dbd
00000370: 0a53 023d dde8 2a3c 694f fabb 8aa9 333d
00000380: aced 223c d64d 343d 866a 6e3d 510f 7c3c
00000390: aa3e a9bc 9879 36bc fa97 8abc ad36 2a3d
000003a0: ec21 00bc 0121 debc 4002 7ebc 6f4c 32bc
000003b0: 692d 28bd a216 2f3d 7b02 bcbc d78e 30bd
000003c0: b6f4 aabc 7a8a 90bc 6b9a 31bc 02c3 153c
000003d0: dc05 e1bc d12a 003d 9b3d 26bd 0bc2 9a3b
000003e0: b474 2bbd 591f 2b3d 09bc ecbc 2af0 18bc
000003f0: 0ebc 7a3b f1fe 02bd 07be 8f3c c7a4 5ebb
