pynn/models/shd_rnn_d_512/fc_ho.weight.npz (npz, 41224 bytes, 1 tensors)

arr_0 f4 [20, 512]
0	0x3d2da0da	0.042389728
1	0xbd837112	-0.06418051
2	0x3c94f981	0.018185379
3	0xbd791401	-0.060810093
4	0x38b60d0a	8.680865e-05
5	0x3d65e8cf	0.056130227
6	0xb680207f	-3.8184803e-06
7	0x3cf2a7cd	0.02962103
8	0xbc9968b7	-0.01872669
9	0xbcbdef83	-0.023185497
10	0x3aa3fae5	0.0012510685
11	0xbc1f81cc	-0.009735536
12	0x3d2445e7	0.040105727
13	0x3d1f0c23	0.038829934
14	0x3d3d1b58	0.046168655
15	0xbbecd729	-0.0072277975
16	0xbd1b5f19	-0.03793249
17	0xbd0e8126	-0.034791134
18	0x3bea1972	0.0071441466
19	0x3cddc79a	0.027072717
20	0xbd9049cc	-0.07045326
21	0xbd381f73	-0.044951867
22	0x3cceab27	0.025228096
23	0xbd4af6dc	-0.04955183
24	0xbd1ab422	-0.037769444
25	0xbd295065	-0.041336436
26	0x3bfcd8fd	0.0077162967
27	0x3d0c340e	0.03422933
28	0xbd42912f	-0.04750174
29	0xba954f37	-0.0011391406
30	0xbc51f20a	-0.012814054
31	0xbc1df535	-0.009640981
32	0xbd082df6	-0.033246957
33	0x3cf071b4	0.029351093
34	0x3cf3b4bc	0.029749267
35	0x3d1ef580	0.038808346
36	0x3d286bfd	0.04111861
37	0x3d34cfc0	0.04414344
38	0xbc43c2d2	-0.011948304
39	0xbcf7a18a	-0.030228395
40	0xbc39f367	-0.011349536
41	0x3c9b52b4	0.018960334
42	0xbcd31b58	-0.025769874
43	0x3cf2c96c	0.029637061
44	0xbd4a5e5a	-0.049406387
45	0xbd0c5a5a	-0.034265853
46	0x3d0a3348	0.03374031
47	0xbceb9619	-0.028758096
48	0xbcbd51b3	-0.023110246
49	0xbd5abc85	-0.053402442
50	0x3ca83377	0.020532353
51	0x39a33f36	0.00031136879
52	0x3cebcc5e	0.028783973
53	0xbcac25ca	-0.021014113
54	0xbce85c9d	-0.028364474
55	0xbd038385	-0.03210785
56	0xbc8782a8	-0.016541794
57	0x3d20366e	0.03911441
58	0xbce7a43c	-0.028276555
59	0x3bb2a1c5	0.0054514133
60	0x3d129b16	0.035792433
61	0x3d15c280	0.036562443
62	0xbb330801	-0.0027318003
63	0x3b4b0c30	0.0030982606
64	0xbd071009	-0.032974277
65	0xbd022aa3	-0.031778943
66	0xbcff0b24	-0.031133242
67	0x3d41e5bd	0.047338236
68	0x3be0b5b7	0.0068575996
69	0xbd474711	-0.04865176
70	0xbc8322af	-0.01600775
71	0x3ce42be5	0.027852962
72	0x3d252071	0.04031414
73	0xbd1a1097	-0.037613478
74	0x3d10c69b	0.035345655
75	0x3bde8432	0.0067906613
76	0xbc2fb490	-0.010724202
77	0xbccd950c	-0.025095485
78	0xbc4de086	-0.012565738
79	0xbd30971a	-0.04311285
80	0xbdc51219	-0.096225925
81	0xbca37a0e	-0.019955661
82	0x3d06e80f	0.032936152
83	0x3c3391a4	0.010960016
84	0x3d52c033	0.051452827
85	0xbc21b1d3	-0.009869057
86	0xbcdc798c	-0.026913427
87	0xbc58d140	-0.013233483
88	0x3d432981	0.047647003
89	0x3d20cb9f	0.03925669
90	0xbcc7ca66	-0.024388503
91	0xbd02d693	-0.031942915
92	0xbd861134	-0.0654625
93	0xbcad7188	-0.0211723
94	0x3d69e67a	0.057104565
95	0x3bd3b145	0.006460341
96	0xbcc38f76	-0.023872118
97	0xbcf3cb63	-0.029760068
98	0xbd5a5bbd	-0.053310145
99	0xbce14eb2	-0.027503345
100	0x3c60018b	0.013672243
101	0x3d247fc0	0.040160894
102	0x3d398181	0.04528952
103	0x3bdfbc6f	0.006827883
104	0xbc2fd044	-0.010730807
105	0xbd3147c5	-0.043281335
106	0x3d05ff79	0.03271434
107	0xbcf75cab	-0.030195555
108	0x3b9b6a0f	0.004742868
109	0xbbf79711	-0.0075558503
110	0x3d2f49d5	0.04279502
111	0xbd5f44ea	-0.05450908
112	0xbcd88e13	-0.026434934
113	0xbc04c83f	-0.008104383
114	0xbd4010ba	-0.04689095
115	0x3b5a0d64	0.0033272142
116	0xbca69152	-0.020332966
117	0x3bbd1b77	0.0057710963
118	0x3cbdb5e8	0.023158029
119	0x3d2f7a48	0.042841226
120	0xbcb173d8	-0.021661684
121	0xbcb257b2	-0.021770332
122	0xbcbb7fce	-0.02288809
123	0xbd52246e	-0.051304273
124	0xbc7dd32d	-0.015492243
125	0xbca04df6	-0.019568425
126	0x3cf45406	0.029825222
127	0xbd28774c	-0.041129395
128	0xbcaa7c12	-0.020811114
129	0x3c93dd4f	0.018049864
130	0xbd0bfabe	-0.034174673
131	0x3d1827b1	0.037147228
132	0xbbb88158	-0.0056306534
133	0xbc735bdb	-0.014853443
134	0xbd1387d5	-0.03601821
135	0xbd524cc6	-0.051342748
136	0xbd4bb762	-0.049735434
137	0xbd2ad06c	-0.041702673
138	0xbd326efa	-0.043562867
139	0x3d0923fb	0.03348158
140	0xb99a14c3	-0.00029388638
141	0xbcd69d25	-0.02619798
142	0x3cc5af55	0.024131456
143	0xbc371189	-0.011173614
144	0xbd176c8f	-0.036968764
145	0x3cd12c8f	0.025533943
146	0xbac06571	-0.0014678669
147	0xbc964776	-0.018344622
148	0xbd567c4b	-0.05236463
149	0xbd75a046	-0.0599673
150	0xbcd95c84	-0.026533373
151	0xbcd52d1a	-0.026022483
152	0x3d2babb9	0.041911814
153	0xba0a1746	-0.000526775
154	0xbd3bf149	-0.045884404
155	0xbd58754a	-0.05284623
156	0xbd82dbd8	-0.06389588
157	0xbcda3d13	-0.02664045
158	0xbc8adec8	-0.016951934
159	0xbc7df519	-0.01550033
160	0xbd881477	-0.06644528
161	0x3cd4079a	0.025882531
162	0xbd488faa	-0.048965134
163	0xbc46194b	-0.012090991
164	0x3c2f3b01	0.01069522
165	0xbd6da2f0	-0.058016717
166	0xbc01da86	-0.007925635
167	0x3ce4cc06	0.027929317
168	0x3c7f445d	0.015580264
169	0xbc068a85	-0.008211737
170	0x3ccaa41d	0.024736458
171	0xbc9b2292	-0.018937383
172	0xbbb4381c	-0.005499853
173	0x3c3c27dc	0.011484113
174	0x3cf0eb90	0.0294092
175	0x3c701590	0.014653578
176	0xbd889243	-0.06668522
177	0x3c09930e	0.008396877
178	0x3b15e931	0.0022874589
179	0x3d0963ca	0.033542432
180	0xbd495cea	-0.049160875
181	0xbd6a78af	-0.057244
182	0xbc561875	-0.013067354
183	0xbb98ad2c	-0.0046593156
184	0xbc01c8f3	-0.007921445
185	0x3d196273	0.037447404
186	0xbd40c072	-0.04705853
187	0xbd32573a	-0.043540217
188	0xbc48abae	-0.012247963
189	0x3cd2c826	0.025730204
190	0xbd64ab36	-0.055827342
191	0xbd751f68	-0.059844404
192	0xbd78c97c	-0.060739025
193	0x3d28893a	0.041146494
194	0xbb815cf4	-0.0039478485
195	0x3cb11534	0.021616556
196	0xbcd4fc8d	-0.025999332
197	0xbc7eb5d9	-0.015546286
198	0xbcafbfb1	-0.02145371
199	0x3cc6d19e	0.024269875
200	0xbd39fe44	-0.045408502
201	0xbc2fde61	-0.010734172
202	0xbd431604	-0.047628418
203	0x3c3444e7	0.011002756
204	0x3cf97bed	0.0304546
205	0xbb0c8a4d	-0.0021444738
206	0x3c88b7c2	0.016689185
207	0xbd2a87ac	-0.041633293
208	0xbc1763c9	-0.009240099
209	0x3d197540	0.037465334
210	0xbcbbb60a	-0.022913951
211	0xbd032479	-0.032017205
212	0xbcb7f444	-0.022455342
213	0xbd15f508	-0.036610633
214	0xbd14ab32	-0.036296077
215	0x3d06826f	0.032839235
216	0xbd277a9a	-0.040888406
217	0x3d17b1fd	0.037034977
218	0x3d4b5eb6	0.04965087
219	0xbcbbd9e0	-0.02293104
220	0x3c45a72b	0.012063782
221	0xbbb3a80b	-0.005482679
222	0xbd5f7c95	-0.05456217
223	0xbcab37f3	-0.020900702
224	0xbc8a543d	-0.016885871
225	0x3b34feab	0.0027617614
226	0xbca1ff9a	-0.0197752
227	0x3cb637d1	0.022243412
228	0xb9cd749c	-0.00039187528
229	0x3ca589e4	0.020207353
230	0xbc8fdf74	-0.017562605
231	0xbd820acb	-0.06349715
232	0xbd2def5b	-0.042464595
233	0xbcb571cd	-0.022148991
234	0x3bdd37ab	0.006751021
235	0x3d2c4765	0.042060275
236	0x3d3ae949	0.045632634
237	0xbd08bc9b	-0.033382993
238	0x3cdfd20d	0.02732184
239	0xbc36bf1d	-0.011153963
240	0xbae203f4	-0.001724361
241	0xbd6929e0	-0.0569247
242	0x39a72357	0.00031879052
243	0xbd79dbdf	-0.0610007
244	0xbc481e61	-0.012214274
245	0xbc96b38c	-0.018396161
246	0xbd4ef913	-0.050530504
247	0x3c59979f	0.013280778
248	0xbd2f85c7	-0.04285219
249	0xbd68af99	-0.056808088
250	0xbc8f0f27	-0.01746328
251	0x3b4bf0b3	0.003111881
252	0xbcaae95a	-0.020863224
253	0x3b781a68	0.0037857536
254	0x3bc23998	0.005927276
255	0xbc618979	-0.013765686
