pynn/models/shd_rnn_d_512/fc_ho.weight.npz (npz, 41224 bytes, 1 tensors)

arr_0 f4 [20, 512]
-0.040008374 0.018782938 0.00015295696 0.0013306021 -0.024090929 0.0049201692 -0.051708132 0.03562567
-0.051437236 -0.051292926 0.018689575 -0.028098257 -0.04733359 -0.054645058 0.01525273 0.007254529
-0.026807724 -0.018741148 -0.009752499 0.044823974 0.031301048 0.0383734 -0.037969958 0.0025241866
0.005863248 -0.07508862 0.0022416557 0.021105185 0.03432703 0.006277314 -0.03988281 -0.009744006
-0.06387504 0.033720247 4.4745997e-05 0.025079794 -0.043728225 -0.016410558 -0.01653653 -0.013294155
0.04156417 -0.03812836 -0.053496163 0.0011818531 0.012692487 0.0024211104 -0.027275216 0.0313206
-0.007792666 -0.020103408 -0.0037068203 -0.029426448 -0.054789834 0.055742376 -0.027911497 0.0340838
0.017740428 -0.0031416968 0.0056641134 0.00025196184 0.0049088676 -0.024224384 -0.0833337 0.032297995
0.016761798 0.034753274 0.017564137 0.018530644 0.045825712 -0.016466752 0.064133644 -0.0033755281
0.028515296 0.04104723 -0.015667172 -0.038206015 -0.06368987 -0.007848203 -0.04379915 -0.035706133
0.004624932 -0.03128382 0.03509019 -0.029330645 -0.010354858 -0.014292358 0.042014275 -0.017305588
-0.008603387 0.01784836 0.041443378 0.018363843 0.02319324 0.0012387381 0.022103172 -0.048900742
0.016264075 0.010443059 0.00608153 -0.0076926057 -0.00909137 -0.05520124 0.016139612 0.04764392
0.009550571 -0.057713795 -0.040733814 0.011879753 0.015332303 -0.015753545 -0.017279685 0.031284325
0.007139181 0.046887252 0.000621615 -0.052449994 -0.022372799 -0.016415149 0.009753701 0.03795306
0.02939225 -0.052599188 -0.012837054 -0.0030061046 0.015572792 0.011631351 0.0074660587 0.025589325
-0.012547695 -0.015218344 -0.021930274 0.011543993 -0.045169037 0.011979139 -0.016364383 0.018342113
-0.0070100348 -0.0054821447 0.02950441 -0.042904798 -0.026657278 0.040562343 -0.062200256 0.022392364
-0.0051199496 -0.028541354 0.039148465 0.04096404 -0.011591346 -0.03829189 -0.029600907 -0.023513189
-0.03197099 0.026631627 -0.04159995 0.008428329 -0.05294182 0.042775925 0.01998029 -0.051769752
0.012604564 -0.010775147 -0.037329596 0.034559645 0.009693405 -0.021211566 -0.06894241 0.02802757
0.041126043 0.023983926 -0.067591734 0.017562108 -0.005606966 -0.03922189 -0.05363321 0.010854389
-0.024650937 0.032370936 -0.026200347 0.043766975 0.011930466 -0.038732976 0.0457302 0.0033302114
0.0389254 -0.034494057 0.008394829 -0.017652897 0.00527094 -0.01625846 -0.0039298492 0.0029725104
-0.021094168 -0.035071034 0.014129183 0.0050758417 -0.04717199 -0.022725368 -0.015534779 0.041324195
0.0014795047 -0.048725627 0.04942211 -0.07148521 -0.03654641 -0.05659094 -0.042137407 0.013503418
-0.016851798 -0.026832484 0.05315026 0.015554234 -0.004760738 0.040079053 -0.013286575 -0.050270613
0.03130971 0.045135457 0.0072259237 -0.027382553 -0.011708805 -0.035223495 0.043986518 -0.01738845
-0.0031569724 0.006529708 0.040198565 -0.025779001 0.0757241 -0.0023490004 0.010268138 -0.07129878
-0.032792497 0.03502587 -0.00056911184 0.021011489 0.02257542 0.042291112 -0.04043639 0.009118877
0.036285266 -0.0077416217 -0.008540518 -0.036637522 0.0066523794 -0.005907239 -0.02065617 -0.0030572284
-0.030879254 0.020255482 -0.033230834 0.014731471 0.032480866 0.04792744 -0.07455733 0.01025269
00000000: d2df 23bd adde 993c 1263 2039 9967 ae3a
00000010: 575a c5bc 5f39 a13b e8cb 53bd 39ec 113d
00000020: daaf 52bd 8818 52bd e11a 993c 512e e6bc
00000030: dee0 41bd 7fd3 5fbd 96e6 793c 66b7 ed3b
00000040: df9b dbbc 0987 99bc f2c8 1fbc 5899 373d
00000050: 8735 003d 6d2d 1d3d 6386 1bbd d36c 253b
00000060: 7d20 c03b 10c8 99bd bee8 123b c8e4 ac3c
00000070: 809a 0c3d edb1 cd3b 285c 23bd 53a5 1fbc
00000080: ebd0 82bd 3e1e 0a3d a6ad 3b38 2474 cd3c
00000090: 5e1c 33bd 6f6f 86bc 9e77 87bc bacf 59bc
000000a0: 313f 2a3d 7c2c 1cbd cb1e 5bbd 69e8 9a3a
000000b0: 26f4 4f3c 7eab 1e3b 4670 dfbc 084a 003d
000000c0: 9f59 ffbb e7af a4bc 20ee 72bb bc0f f1bc
000000d0: 4e6b 60bd 1e52 643d a7a6 e4bc 749b 0b3d
000000e0: 6054 913c ede4 4dbb 079a b93b bf19 8439
000000f0: 91da a03b 3772 c6bc dcaa aabd e74a 043d
00000100: 0a50 893c 7359 0e3d aae2 8f3c 94cd 973c
00000110: beb3 3b3d 48e5 86bc 8058 833d f737 5dbb
00000120: e998 e93c 2421 283d 7158 80bc e97d 1cbd
00000130: d66f 82bd c095 00bc bd66 33bd 9840 12bd
00000140: be8c 973b 7623 00bd bbba 0f3d d246 f0bc
00000150: 6ca7 29bc 7f2a 6abc 2917 2c3d 73c4 8dbc
00000160: 38f5 0cbc b936 923c 88c0 293d c56f 963c
00000170: c0ff bd3c 275d a23a b611 b53c 254c 48bd
00000180: 3d3c 853c 5d19 2b3c 9247 c73b 4112 fcbb
00000190: f8f3 14bc b21a 62bd 3837 843c 4526 433d
000001a0: 007a 1c3c 4d65 6cbd 80d8 26bd 4ca3 423c
000001b0: 5734 7b3c 940d 81bc 208e 8dbc fe23 003d
000001c0: caef e93b d90c 403d e0f3 223a ced5 56bd
000001d0: 2947 b7bc 1079 86bc fdcd 1f3c ab74 1b3d
000001e0: 04c8 f03c 3f72 57bd 8252 52bc 1102 45bb
000001f0: 0625 7f3c 6c91 3e3c d7a5 f43b b4a0 d13c
00000200: d994 4dbc 5c56 79bc 1ea7 b3bc 0423 3d3c
00000210: 2b03 39bd 2744 443c 990e 86bc 3342 963c
00000220: 6fb4 e5bb 90a3 b3bb 3cb3 f13c f1bc 2fbd
00000230: 5d60 dabc b324 263d b2c5 7ebd 3170 b73c
00000240: 40c5 a7bb 8fcf e9bc 245a 203d e9c9 273d
00000250: a1e9 3dbc f5d7 1cbd 9a7d f2bc bb9e c0bc
00000260: 03f4 02bd 922a da3c b664 2abd f916 0a3c
00000270: 86d9 58bd cf35 2f3d b5ad a33c 850c 54bd
00000280: 6083 4e3c 3e8a 30bc ebe6 18bd 6a8e 0d3d
00000290: 16d1 1e3c e1c3 adbc ae31 8dbd 139a e53c
000002a0: c873 283d f079 c43c 896d 8abd 69de 8f3c
000002b0: a4ba b7bb 22a7 20bd 7fae 5bbd 9bd6 313c
000002c0: c3f0 c9bc 6397 043d 1ca2 d6bc 0045 333d
000002d0: 0078 433c 78a6 1ebd 974f 3b3d ad3f 5a3b
000002e0: 3d70 1f3d a449 0dbd 778a 093c cf9c 90bc
000002f0: d9b7 ac3b 7630 85bc f7c5 80bb 73ce 423b
00000300: adcd acbc a5a6 0fbd 177e 673c 3f53 a63b
00000310: 6b37 41bd 8d2a babc 9685 7ebc 8f43 293d
00000320: f1eb c13a 8694 47bd d76e 4a3d d666 92bd
00000330: b0b1 15bd e7cb 67bd 4698 2cbd 713d 5d3c
00000340: c80c 8abc cccf dbbc 16b4 593d 30d7 7e3c
00000350: f7ff 9bbb ef29 243d efaf 59bc 8fe8 4dbd
00000360: 9c3e 003d f5df 383d 71c7 ec3b 6051 e0bc
00000370: 4ad6 3fbc 8346 10bd 352b 343d 3972 8ebc
00000380: 35e5 4ebb 29f7 d53b 40a7 243d 7c2e d3bc
00000390: 3d15 9b3d b0f1 19bb b13b 283c 1805 92bd
000003a0: 6d51 06bd 4977 0f3d 7330 15ba 4920 ac3c
000003b0: 16f0 b83c 7239 2d3d a1a0 25bd 5867 153c
000003c0: dc9f 143d 6ead fdbb 87ed 0bbc 3a11 16bd
000003d0: 34fc d93b 8391 c1bb 2137 a9bc c85b 48bb
000003e0: 7df6 fcbc d3ee a53c 0e1d 08bd 455c 713c
000003f0: a80a 053d 904f 443d 83b1 98bd e6fa 273c
