notebooks/checkpoint/nmnist_rnn_256/fc_hh.weight.npz (npz, 262408 bytes, 1 tensors)

arr_0 f4 [256, 256]
0	0xbc5eed4b	-0.01360638
1	0xbc4827c7	-0.012216515
2	0x3c9e1a4c	0.019299649
3	0xbc58dc6d	-0.013236147
4	0x3cdd7a63	0.027035898
5	0xbbc61e94	-0.0060461257
6	0x3d3635e2	0.04448498
7	0x3d389225	0.04506125
8	0x3cbf1d63	0.023329442
9	0xbd3847f1	-0.044990484
10	0x3cfc9283	0.030831581
11	0x3d6872a8	0.05674997
12	0xbce53ebf	-0.027984021
13	0x3daa8292	0.083256856
14	0x3d858d9f	0.06521153
15	0x3d546254	0.051851586
16	0xbc831e22	-0.01600558
17	0xbd2814ec	-0.041035578
18	0xbd274760	-0.040839553
19	0x3bcaf738	0.0061940216
20	0x3d194431	0.037418548
21	0xbd8b8f47	-0.06814437
22	0xbd21c2ec	-0.039492533
23	0xbcc4be1f	-0.024016438
24	0x3c91b2c1	0.017785432
25	0x3d76f351	0.06029064
26	0x3cb8fe76	0.022582274
27	0xbb896d00	-0.004193902
28	0x3cf66f48	0.03008236
29	0x3c97917f	0.018501995
30	0xbc24459c	-0.010026362
31	0xbd4500ce	-0.04809647
32	0xbcb02d95	-0.02150611
33	0xbcab318a	-0.020897646
34	0x3d559b69	0.052150164
35	0xbc01f52d	-0.00793199
36	0xbd42c04d	-0.047546674
37	0xbc6f48fb	-0.014604802
38	0x3c9d5ec6	0.01921023
39	0xbd3d9c0b	-0.046291392
40	0x3d311abc	0.043238387
41	0xbd18f156	-0.03733953
42	0x3d380bdd	0.04493319
43	0xbcac2ae4	-0.021016546
44	0x3d10f69a	0.035391428
45	0xbd35488c	-0.04425864
46	0x3d40c760	0.04706514
47	0x3d2dcdb0	0.042432487
48	0xbd23f40d	-0.040027667
49	0x3c14cf60	0.009082645
50	0xbca9f5ce	-0.020747092
51	0xbd55826e	-0.05212634
52	0xbd44a525	-0.048009057
53	0x3cf8a34c	0.030351304
54	0xbcd4424c	-0.025910519
55	0xbc996f60	-0.018729866
56	0xbd46f2c8	-0.048571378
57	0xbcb6c4aa	-0.022310574
58	0xbd511972	-0.051049657
59	0xbc396883	-0.011316421
60	0xbd94756b	-0.07248958
61	0xbc1e5e5a	-0.00966605
62	0xbc4605a5	-0.012086307
63	0x3b02e404	0.0019972334
64	0xbd02628f	-0.031832274
65	0xbcdb7e49	-0.026793616
66	0x3c9e2a44	0.019307263
67	0x3ca04c5e	0.019567665
68	0xbd97f425	-0.07419614
69	0x3d8c8f7d	0.06863306
70	0x3d3922bb	0.045199137
71	0x3c994948	0.018711701
72	0xbd0f6c18	-0.035015196
73	0xbd81b0c7	-0.06332546
74	0x3c8b0026	0.016967844
75	0x3d8606dc	0.06544277
76	0xbd3800df	-0.044922706
77	0x3d253e94	0.040342882
78	0xbd832af4	-0.06404677
79	0xbd708e42	-0.058729418
80	0x3d6b7be9	0.057491217
81	0xbd6a9b43	-0.057276975
82	0x3b852685	0.00406343
83	0x3d36a441	0.04459024
84	0x3d3aa4e5	0.045567412
85	0xbcf85eba	-0.030318607
86	0xbd6169db	-0.055032592
87	0xbd245b59	-0.04012618
88	0xbc257551	-0.010098771
89	0x3d44c5aa	0.04804007
90	0xbd30586a	-0.04305307
91	0x3b1dbf79	0.0024070425
92	0x3c3b795b	0.011442508
93	0x3ae15bd0	0.00171935
94	0xbd0da6a3	-0.034582745
95	0x3b20fae1	0.0024563598
96	0xbd565c87	-0.052334335
97	0xbd62f322	-0.05540765
98	0xbd222311	-0.039584223
99	0xbd14dc8e	-0.03634315
100	0x3d5713d9	0.052509163
101	0xbcd2370f	-0.02566102
102	0xbcf05463	-0.029337114
103	0x3b7de229	0.0038739538
104	0x3d09df55	0.03366025
105	0xbbfc7bc1	-0.0077051823
106	0xbbbfb07e	-0.005849897
107	0xba9900d5	-0.0011673222
108	0x3cf3a23c	0.029740445
109	0x3c519617	0.012792132
110	0xbd03208d	-0.032013465
111	0x3d901d60	0.07036853
112	0x3bf63201	0.007513285
113	0x3d830fae	0.06399475
114	0xbcaa458d	-0.020785118
115	0x3c8a88ba	0.0169109
116	0x3c0442a6	0.008072531
117	0xbd0c3a4a	-0.034235276
118	0x3d6f66a3	0.05844749
119	0xbd5b302b	-0.053512733
120	0x3d1cea83	0.038309585
121	0xbd91e4df	-0.07123732
122	0x3c957a98	0.018246934
123	0xbd59b81a	-0.05315409
124	0xbd8a7ad6	-0.0676171
125	0x3d8c966d	0.06864629
126	0x3d582bed	0.052776266
127	0xba2c9cbe	-0.00065846357
128	0x3d285c41	0.041103605
129	0xbd5f8d83	-0.054578315
130	0x3cebcbe7	0.028783752
131	0xbca42c51	-0.020040663
132	0xbce8b52f	-0.028406708
133	0xbd38cf2e	-0.045119457
134	0xbd0c8368	-0.034305006
135	0x3d585739	0.052817557
136	0x3d4b5f46	0.049651407
137	0x3d3ede60	0.046598792
138	0x3cb434d5	0.021997849
139	0xbd2ec794	-0.0426708
140	0x3cc9a8f2	0.024616692
141	0x3c3155ee	0.01082371
142	0x3ccd515b	0.025063207
143	0x3d448564	0.047978774
144	0x3c03d24a	0.008045742
145	0xba2b7d11	-0.00065417687
146	0x3c77fa35	0.015135338
147	0xbb7dbe9d	-0.003871835
148	0x3d0250ab	0.031815212
149	0x3cd00ef0	0.025397748
150	0x3c9024b0	0.017595619
151	0x3cc2433a	0.023713697
152	0xbd5779f1	-0.052606527
153	0x3d322892	0.043495722
154	0xbc02e191	-0.00798835
155	0x3cfd24ab	0.030901274
156	0xbd841bcb	-0.064506136
157	0xbc7fd3bd	-0.015614447
158	0x3c68082e	0.014162106
159	0xbd83f2ad	-0.06442771
160	0x3d259c07	0.040432002
161	0xbd5e788b	-0.054314177
162	0xbd64ee9e	-0.055891626
163	0xbd004b51	-0.031321827
164	0x3d4d76db	0.050162178
165	0xbd6ea84b	-0.058265965
166	0x3bc55d5b	0.0060230917
167	0x37a34e2b	1.9467514e-05
168	0xbca48f80	-0.020087957
169	0x3c3d6f55	0.011562188
170	0xbd73dc19	-0.059536073
171	0x3d46b68c	0.048513934
172	0xbd5aae03	-0.053388607
173	0xbd5b407b	-0.05352829
174	0xbccb33c8	-0.024804965
175	0x3cf5d2ab	0.03000768
176	0xbcf81801	-0.030284883
177	0xbbf64ea1	-0.0075166975
178	0x3b940bb6	0.0045179976
179	0x3c1793d1	0.009251551
180	0xbd28dbc5	-0.041225214
181	0x3c502f6d	0.01270662
182	0x3cee1759	0.029063867
183	0xbd831d85	-0.06402115
184	0x3c67931a	0.014134193
185	0x3cb707d5	0.022342602
186	0xbc8eade8	-0.01741691
187	0x3d71a093	0.058991026
188	0xbc089584	-0.008336429
189	0xbcb08e6a	-0.021552283
190	0x3c0a5147	0.00844223
191	0x3d8476df	0.06467985
192	0xbd33269b	-0.04373799
193	0x3d0e9109	0.034806285
194	0xbd1f13f8	-0.038837403
195	0x3ced4379	0.028962838
196	0xbd4c6ce3	-0.04990853
197	0xbd37ab55	-0.04484113
198	0x3d417639	0.047231887
199	0x3bb50adc	0.005524976
200	0x3bdd4a85	0.006753268
201	0xbd21302c	-0.03935258
202	0x3d27d61c	0.040975675
203	0xbc9622e6	-0.018327188
204	0xbcb0db98	-0.021589085
205	0x3cd61bc8	0.026136294
206	0xbd530ec5	-0.051527757
207	0xbd5b20e2	-0.053498156
208	0x3c37f196	0.011227032
209	0x3b6bb558	0.0035966244
210	0x3cbf5a06	0.023358356
211	0x3ccd800a	0.025085468
212	0x3d2d5711	0.04231936
213	0xbce15c18	-0.027509734
214	0x3cefd40c	0.029275917
215	0x3c964952	0.018345509
216	0x3c8b3305	0.016992101
217	0x3cd4b8ea	0.02596708
218	0x3d89459e	0.067027315
219	0xbd4dc614	-0.05023773
220	0x3d1d17b3	0.03835268
221	0xbd2138c3	-0.039360773
222	0x3ccac114	0.02475027
223	0x3d2c4cdd	0.04206549
224	0xbcdcc79a	-0.026950646
225	0x3d9df9b6	0.07713644
226	0xbd20aa79	-0.039225075
227	0xbc4a9a76	-0.012365928
228	0xbd528675	-0.05139776
229	0xbd7c132c	-0.06154172
230	0x3b15238a	0.0022756779
231	0xbca4a793	-0.020099437
232	0x3d774283	0.060366165
233	0xbd5da3e8	-0.05411139
234	0xbd4b974a	-0.049704827
235	0xbd8c81e0	-0.06860709
236	0x3d683a0a	0.056695975
237	0xbd45f022	-0.04832471
238	0xbcadba8a	-0.021207113
239	0x3bf41605	0.007448914
240	0x3d13f032	0.03611774
241	0x3c514de2	0.012774916
242	0xbc26e229	-0.010185757
243	0x3d21bf65	0.03948917
244	0xbcc43de7	-0.023955299
245	0x3c839e1d	0.016066605
246	0xbd063800	-0.03276825
247	0x3c6a58ab	0.014303367
248	0xbc978bd1	-0.018499287
249	0xbd212dcb	-0.039350312
250	0xbd2365f2	-0.039892145
251	0x3d08529f	0.03328192
252	0xbd735d18	-0.059414953
253	0x3c3cd62e	0.011525674
254	0xbd1603a4	-0.036624566
255	0x3ca78efc	0.020453922
