notebooks/checkpoint/nmnist_rnn_256/fc_hh.weight.npz (npz, 262408 bytes, 1 tensors)

arr_0 f4 [256, 256]
000000 eb 3e 45 bc cc 46 36 3d 70 45 1a 3d e0 82 5a 3d
       -0.012038927 0.04450111 0.037663877 0.05334747
000010 5a 36 5e 3b 10 f6 0f bd 04 fc 25 3d f2 a4 35 bd
       0.0033906908 -0.035146773 0.040523544 -0.044346757
000020 c4 da ad 3c 2b 26 d1 bc 08 c6 da bc 5f 9c 7b bd
       0.02122248 -0.025530895 -0.026705757 -0.061428424
000030 3d 24 28 bd e7 87 71 bd 0b 79 6b bc c3 c5 84 bc
       -0.041050185 -0.058967497 -0.014372121 -0.016207581
000040 a9 05 b2 bc 19 50 2e 3d 17 44 39 bd 9e a5 9a bc
       -0.021731215 0.042556856 -0.04523095 -0.0188778
000050 1a 3b 1c 3d 9d bb 82 bd db 0f c3 3c 8b 96 08 bd
       0.0381423 -0.06383441 0.023811271 -0.033346694
000060 d8 17 5b bd c7 fd 85 3c f5 d2 c4 3c c8 1c cb bb
       -0.053489536 0.016356362 0.024026373 -0.0061984994
000070 0a a2 d5 bb 4a 88 ab bc 7f ac 38 3d c4 be 9f bc
       -0.0065195607 -0.020939011 0.04508638 -0.019500144
000080 da 66 91 3d 51 e1 2e bc c7 5f f3 bc 38 bc 55 3d
       0.070996955 -0.010673837 -0.029708756 0.052181453
000090 1e 83 b8 bc 4b fa f6 bc 07 5d 9d 3c e1 01 a8 3c
       -0.022523459 -0.030148646 0.019209398 0.020508708
0000a0 3a 6c 5a bd 8c b8 17 bd 8f ef 68 3c 79 4f 30 bd
       -0.05332587 -0.037041232 0.0142172715 -0.04304454
0000b0 e0 ad 31 3d f0 91 97 bd c9 fd 03 3d 63 09 d5 3c
       0.04337871 -0.07400882 0.03222445 0.026005452
0000c0 00 a3 c5 3c d1 60 30 bd 6a d7 06 3d 98 80 e4 bb
       0.024125576 -0.04306108 0.03292028 -0.0069733374
0000d0 84 83 27 3d c2 5b 03 bd 91 de 3d bd 96 c9 c5 bc
       0.040896907 -0.03206993 -0.046354834 -0.024143975
0000e0 f6 e5 6e bd 54 23 95 bb 8f 5b 5d bd 0b f6 30 3d
       -0.058324777 -0.0045513306 -0.054042395 0.043203395
0000f0 e8 0a 6c bd 03 8e b2 bc 63 fa d4 bc 10 57 0b 3d
       -0.05762759 -0.021796232 -0.0259983 0.034018576
000100 08 bc 39 3d 75 47 43 bd cb b3 d3 3b b5 8a 16 bc
       0.045345336 -0.04767557 0.006460642 -0.009188344
000110 32 42 5a 3d 61 81 25 bc 78 ee 17 bb 6a ab 73 3d
       0.053285785 -0.010101647 -0.002318291 0.059489645
000120 07 cd 34 3d 9a 06 29 bd e5 4c d8 bc 3b 11 d6 bc
       0.04414084 -0.04126606 -0.026403854 -0.026131263
000130 97 0d e3 3c da 1e 1e 3d e0 40 70 3d f1 5c 63 bc
       0.027716441 0.03860364 0.05865562 -0.013877139
000140 ee 46 24 bd 76 0e d9 bc 27 1c af 3c 13 c2 b1 b9
       -0.040106706 -0.026496153 0.021375729 -0.00033904667
000150 b2 03 64 3d d2 96 87 3c 2c e5 ad bb da ba 99 bc
       0.055667587 0.016551409 -0.0053068604 -0.018765856
000160 39 2b ca bb 94 01 33 3d e4 cd 18 bc a9 74 19 3d
       -0.0061697033 0.043702677 -0.009326432 0.03746477
000170 45 71 04 3d 4b 58 e7 3c 98 46 50 bd 12 05 63 bd
       0.032334585 0.028240344 -0.050848573 -0.055424757
000180 a1 ee 34 3d ec 48 33 3d 0a e8 30 bd b8 0a c2 bc
       0.044172887 0.043770716 -0.04319004 -0.023686752
000190 84 31 20 3d 7c 38 65 3d 86 05 c9 bc 23 19 67 bc
       0.03910972 0.05596207 -0.024538767 -0.014105114
0001a0 13 9a 1f bd 0d 65 3f bd b4 f7 dc 3c 31 23 12 3c
       -0.038965296 -0.04672723 0.026973583 0.008919523
0001b0 51 26 62 bd 06 e4 27 3d 5c 96 69 3d da 86 04 3d
       -0.055212323 0.040988944 0.05702816 0.032355167
0001c0 48 b4 c2 bc ae e0 2c bd 0e c8 12 bd cd 1e 44 3d
       -0.023767605 -0.04220646 -0.03583532 0.047880936
0001d0 ea 90 61 bd ae 2a 20 bd db cd 85 bd 9c 7d 93 bd
       -0.05506984 -0.039103203 -0.065334044 -0.072016925
0001e0 5a eb 08 bd 7f 9d 52 3d 0b a3 51 3c 0a e2 10 bd
       -0.033427574 0.05141973 0.01279522 -0.035371818
0001f0 6c 59 f8 3b 12 0a 25 bd c7 06 9f 3a 82 7c cb 39
       0.0075790193 -0.040292807 0.0012132757 0.00038811943
000200 d4 9d 00 3d a4 5a 51 bc c2 bd bf bc ed 43 be bc
       0.031400517 -0.012777958 -0.023405913 -0.023225749
000210 14 84 3a bd 03 b5 1a bd bc 72 f3 bc b5 e0 05 3c
       -0.045536116 -0.037770282 -0.029717796 0.00817125
000220 7d 76 b2 bc 58 55 89 bc 61 f4 a8 bc 61 c1 ea 3c
       -0.021785015 -0.016764328 -0.020624341 0.028656663
000230 00 28 0a 3d 82 fb a0 bc 56 ca c5 3c fc ab 0d 3b
       0.033729553 -0.019651178 0.024144333 0.0021617403
000240 b4 a1 23 3d b9 8a b2 bb 84 b5 2d 3d 6a c3 05 3c
       0.039949134 -0.005448666 0.042409435 0.008164266
000250 3d 1f 78 3d 4e cf 1d 3c 1f e4 a0 3c 41 a8 58 3b
       0.060576666 0.009631945 0.019640027 0.0033059272
000260 4f 4f 7a 3d f1 87 47 bd 54 ca a3 bb c0 7f 9b bd
       0.06111079 -0.04871363 -0.0049984846 -0.07592726
000270 cb 1e ee b9 fe ab 02 3d 9c cc 5d bd 34 0f 57 3d
       -0.0004541784 0.031902306 -0.05415021 0.052504733
000280 06 59 0c bd 24 63 35 3d 54 6a 95 3d f0 dc 96 bc
       -0.034264587 0.044284 0.07295671 -0.018415898
000290 f7 73 8e bd 2e 43 a8 bc 34 8a 05 bd 96 ca 58 bd
       -0.06955712 -0.020539846 -0.032602504 -0.052927576
0002a0 7b 76 fd bc 8a b6 a9 bc d3 40 1a 3d 08 53 74 bc
       -0.030940285 -0.020716924 0.037659477 -0.014912374
0002b0 4b 41 88 bc 53 61 50 bb e9 c8 cd 39 71 b7 40 3c
       -0.016632697 -0.003179629 0.00039250337 0.011762486
0002c0 69 37 aa bc 2b 65 62 3c fe 67 49 bc 10 c2 26 bd
       -0.020778375 0.013818066 -0.01229286 -0.040712416
0002d0 05 e5 ae bc 48 3a 83 3d 9b 54 0d bc 50 71 31 bd
       -0.02134944 0.06407601 -0.008626129 -0.043320954
0002e0 75 62 fa bc f4 76 02 3c 34 89 79 3c 6c 74 80 bc
       -0.030564526 0.007962931 0.015230466 -0.015680514
0002f0 ae b4 b5 bc 0b 5e 62 bd 9c ff a2 3b fe 04 66 bd
       -0.022180881 -0.055265468 0.0049743187 -0.056157105
000300 b6 91 de bc 0d 85 66 3b 3e 3f 22 bc f1 e6 52 bc
       -0.02716909 0.003517452 -0.009902773 -0.012872444
000310 a8 e5 39 bd a7 ba f3 3c 51 12 3b bc f9 4a 4b bd
       -0.045385033 0.029752089 -0.011417941 -0.049632046
000320 47 d5 dc bb 8d 34 cc bc 93 f0 71 bb f6 2d 93 3d
       -0.006739292 -0.024927402 -0.0036917075 0.07186501
000330 c3 fc 96 bd 91 ea 2c bd df 50 41 3d ab 97 a2 bd
       -0.07372429 -0.042215887 0.047196265 -0.079390846
000340 9a 53 68 3d c6 e4 08 3d a8 bc 68 bd 0c b2 78 3d
       0.056720354 0.0334213 -0.05682054 0.060716674
000350 ce fa 21 3d ed 19 a2 3b 53 d8 ba bb f1 b3 92 bd
       0.039545827 0.0049469383 -0.0057020574 -0.07163227
000360 71 cf 08 3d 72 08 ae bc 06 4a a4 bb 30 d8 32 3d
       0.033400957 -0.021244261 -0.005013707 0.043663204
000370 c8 6e bb bc 81 fe 0d bd c4 61 27 3c 68 04 16 3d
       -0.022879973 -0.034666542 0.01021618 0.036625296
000380 6d 95 ac 3c 41 bf 87 bd 1e b2 04 3c d7 0b 1a 3d
       0.021067346 -0.06628276 0.008099107 0.037608948
000390 f9 30 62 3d 0a 10 f2 3c 8e 22 65 bd 64 4a 3f 3c
       0.055222485 0.029548664 -0.055941157 0.011675451
0003a0 b9 8d 00 3d b9 63 3a 3d 55 e8 32 3d c7 25 68 bd
       0.031385157 0.04550526 0.0436786 -0.056676652
0003b0 c9 53 4c bd 2f 44 ac ba 2e 08 37 ba a9 6b af 3c
       -0.04988459 -0.0013142879 -0.0006982115 0.021413641
0003c0 91 fe 70 bd e1 d7 02 ba da 95 7b bd f9 6d 40 bd
       -0.058836523 -0.0004991275 -0.061422206 -0.046979878
0003d0 db 0c 30 bd 45 c1 30 3d a8 84 36 3a 2c c4 a1 bc
       -0.04298101 0.043153066 0.00069625163 -0.019746862
0003e0 f8 0b 36 bc 65 52 71 bd 60 ca c5 3c 74 3a 89 3c
       -0.011111252 -0.05891647 0.024144351 0.016751505
0003f0 b0 8b 4e 3c 32 4d e8 3c 6d d2 15 3d 22 ac 55 bd
       0.012606546 0.028357122 0.03657763 -0.05216611
