notebooks/checkpoint/nmnist_rnn_256/fc_ho.weight.npz (npz, 10504 bytes, 1 tensors)

arr_0 f4 [10, 256]
00000000: 28ac 853c b16d b9bc 7067 02bc 6b69 13bd
00000010: a4e7 81bd 3de6 7ebd 9564 a4bd 42cc c53d
00000020: 756a 663d e47e b6bc 3696 f03c ab46 43bd
00000030: 9626 163d f857 18bd 4767 9db9 436a c4bd
00000040: 7bb9 50bd d468 56bd 3cef b4bd 239e 99bb
00000050: 24ad efbc ecb2 a1bd 530b 24bd 901e 973b
00000060: 79cc b8bc a03d 50bc 6ad2 f93b 3a5e 06bd
00000070: 92a8 5dbd 7856 8e3d c7e1 e73d fac6 c53c
00000080: 1a7a 4ebd 1536 fb3b ca6b 233c ed0d 8d3d
00000090: 8a5c e6bc 2729 0b3e db97 ae3d 954c 9ebd
000000a0: af0a 2f3d a2cd 9bbd b404 5abd cc86 d6bb
000000b0: dfc2 42bd d162 343c b428 50bd dfd5 8f3c
000000c0: cb84 72bc 4479 fd3d 85ba 663b 48c9 68bd
000000d0: b43d 8abd e6cc d0bc 5b3c b53d 816b 373d
000000e0: e42d 5fbd 6d45 be3b 4147 b23d 50ce 76bd
000000f0: 36fc d5bc 9f8f 383b 8155 5b3d c2a0 b0bc
00000100: 15ff 603d 6234 233e 8177 2a3c cb47 5e3b
00000110: 2034 88bd d6ac 6fbd 1588 bebc 5906 77bd
00000120: 6ccc 92bd 9821 01bd 2d4c b3bd e98e 47bd
00000130: 47c9 c6bc c1c3 dcba 5a31 cfbd cb35 97bd
00000140: b6a9 97bd 3d00 26bd b428 ebbc e2d3 84bd
00000150: 25d8 1c3c 962d df3d 84b6 3abd 0e4a 83bd
00000160: d8cb 3dbc 5e1d 44bd dabc a5bc 7e98 9ebd
00000170: 39d5 aabd 7796 a3bc 101d 9ebd 7124 6c3a
00000180: 25a7 0fbd c21d 0b3d 777b 153e 1c2a 0a3d
00000190: 2eb4 c2bb 5347 c9bd 6335 8abd cd47 b9bc
000001a0: b192 6ebd 12af 953c 3831 e83c ed19 04bd
000001b0: c8a6 54bd 8b37 b13c ea05 8a3b a7ee 7f3c
000001c0: b2e3 7fbd aa5d 1e3c 2ca5 41bd a787 363d
000001d0: a331 4dbd 9a67 1dbc 9afb 3abc 6c6b 9cbd
000001e0: 793c 49bb 5f5c 123d d52d 67bd ea75 713d
000001f0: 3562 013d f092 0d3c ec23 c4bc 515e 6abd
00000200: f674 ecbc 66df f13c c91b 103e 3a9f 243d
00000210: cacb c8bd 9400 71bc c8c9 72bd 4d21 febc
00000220: 32a1 8abd f2af 33bd 729e b13c ac70 dcbc
00000230: 2d77 d7bb 974d 753d 3e55 1a3c 2f61 a63b
00000240: f539 80bd 4b2a a2bd 356b 60bd e99a 6f3e
00000250: 703c bd3c 050d 883c 1089 a1bd 9512 dabb
00000260: 209d 25bd 34e6 6d3d 40b1 edbd 526a 4e3b
00000270: 4996 64bd 16a8 8b3d 719e 333d d7e9 bc3c
00000280: ade1 8fbd ec59 4dbd 6472 023c fb95 90bd
00000290: 871a 81bd 0d45 21bd c8d0 de3c 5894 783e
000002a0: 6673 44bd 2887 5abd ea8d 96bb fc93 02bd
000002b0: 40b1 4dbd ddd4 a3bc 600c 5abd d15b edbc
000002c0: 20f0 d8bd 802f db3d a6ea 8ebd 8424 193e
000002d0: 5ccb 173d d73a 83bd cb2d dbbd 201a a93d
000002e0: 3db1 77bd d07c 13be 8c21 84bd 8da6 9f3d
000002f0: 7134 d33c 15ff f73c 9aa4 7b3c a5f2 38bc
00000300: 7137 55bd 443f b5bc d2e6 58bc acd7 40bc
00000310: 8d3f 27bd 1f2b c33d 1724 213e 5815 29bd
00000320: 8a89 383d 7404 18bb d3df 96bd 32f4 083c
00000330: 5519 33bd a860 5cbd f6b4 8bbd 1392 d4bc
00000340: d3b5 633c c4e0 d33d 6850 9abd c7ec b43d
00000350: b733 18bd d8af 4e3c 2b8d 783c 95df 833d
00000360: c6e2 9fbd d0d6 b4bc e4f3 37bc c0b5 81bd
00000370: 8426 d03c b72c d5bd 7390 cabd f732 3ebd
00000380: ef5b 3abd 652e 1bbd 70bc 463c 968e 26bd
00000390: 55e2 26bd b105 043e 57ee 4fbd 5978 8ebd
000003a0: 5069 a3bd 3ad5 e63c a899 793d 201c a3bd
000003b0: e78c 2fbd d5c2 8f3d 2295 90bd 33b9 113d
000003c0: ed7e 9dbd f51e af3c 8f79 233b 2d6a 08bd
000003d0: 53ef c63c 4eb0 91bd 12b0 86bc 09f0 d7bd
000003e0: 932d f6bd 8e2f 0d3b be9f 3dbd 8fb7 a93d
000003f0: 0a01 943d dcfa a2bd ff0f 133c 4057 77bd
0.016317442 -0.022635313 -0.007959232 -0.035989206 -0.0634301 -0.06223129 -0.08026997 0.096581
0.05625387 -0.022277303 0.029368501 -0.047674816 0.036657892 -0.03719327 -0.0003002232 -0.0959058
-0.050958138 -0.052346066 -0.08834693 -0.004688041 -0.029257365 -0.07895455 -0.040049862 0.0046117976
-0.022558438 -0.012710005 0.0076239603 -0.032804705 -0.05411584 0.06950086 0.113223605 0.024142731
-0.050409414 0.007666359 0.009974429 0.06887422 -0.028120298 0.13589917 0.08525058 -0.077294506
0.042734798 -0.07607581 -0.05322714 -0.0065468308 -0.047549125 0.011009888 -0.050820068 0.017558036
-0.014802168 0.12376645 0.003520639 -0.05683258 -0.0675005 -0.025488328 0.088494025 0.044780258
-0.054487124 0.005806616 0.08704997 -0.06025535 -0.02612124 0.0028161777 0.05354834 -0.02156103
0.054930765 0.15937951 0.0104044685 0.0033917304 -0.06650567 -0.05851444 -0.023258248 -0.060308788
-0.07167897 -0.031526178 -0.08754764 -0.048720274 -0.024265898 -0.0016843007 -0.10116835 -0.07383307
-0.07405417 -0.04052757 -0.028705932 -0.06485726 0.009573017 0.10897367 -0.045584217 -0.06410609
-0.011584245 -0.04787957 -0.020231653 -0.07743929 -0.0834145 -0.019969208 -0.07720387 0.0009008116
-0.03507151 0.033963926 0.1459788 0.033731565 -0.0059418892 -0.09828057 -0.06748464 -0.022617245
-0.058245365 0.018271957 0.028343782 -0.032251287 -0.051916867 0.02163293 0.004212131 0.015620864
-0.062473007 0.009665886 -0.04727666 0.044562962 -0.050096165 -0.00960722 -0.011412526 -0.076376766
-0.003070621 0.035732623 -0.056440193 0.058950342 0.0315878 0.00864099 -0.02394291 -0.057218853
-0.028864365 0.02952547 0.14073099 0.040190913 -0.09804495 -0.0147096105 -0.059274465 -0.031021738
-0.06769027 -0.043868966 0.021681998 -0.026909195 -0.006575486 0.05988845 0.009419737 0.005077503
-0.062610544 -0.07918223 -0.05478974 0.23398937 0.023100108 0.01660777 -0.07887471 -0.006655047
-0.04043305 0.058080867 -0.116060734 0.0031496477 -0.055807386 0.06819169 0.043852273 0.023060722
-0.07025466 -0.050134584 0.007961843 -0.070598565 -0.06303888 -0.039372493 0.027199164 0.24275339
-0.047961615 -0.05335155 -0.004594554 -0.03187941 -0.050217867 -0.019998962 -0.053234458 -0.028974446
-0.10592675 0.10702419 -0.069783494 0.14955336 0.037059173 -0.06407707 -0.10702094 0.08256936
-0.060471762 -0.14403081 -0.06451711 0.07795439 0.025781842 0.030273 0.015359068 -0.01128832
-0.052054826 -0.022124894 -0.013238626 -0.01177017 -0.04083209 0.09529709 0.15736423 -0.04128012
0.045053042 -0.0023196014 -0.0736691 0.008359002 -0.04372533 -0.053803116 -0.06821625 -0.02594856
0.013898331 0.10345605 -0.075348675 0.08834224 -0.037158694 0.012615167 0.015170376 0.06439129
-0.078069255 -0.022075087 -0.011227582 -0.06333494 0.02540899 -0.10408919 -0.09890833 -0.046435323
-0.04549783 -0.037886042 0.012129888 -0.040663324 -0.04074319 0.12892796 -0.050764408 -0.06956548
-0.07979071 0.028177846 0.060937554 -0.07964349 -0.042858984 0.07019583 -0.07059695 0.03557701
-0.07690225 0.021377066 0.002494428 -0.033304382 0.02428404 -0.071137056 -0.016441379 -0.1054383
-0.12020411 0.0021543237 -0.04629492 0.08286964 0.07226761 -0.07958004 0.008975982 -0.060385942
