pynn/models/shd_ffw_512/fc_ho.weight.npz (npz, 41224 bytes, 1 tensors)

arr_0 f4 [20, 512]
0	0xbd3f2ed4	-0.04667552
1	0xbd3020a9	-0.042999897
2	0xbc91b9f1	-0.01778886
3	0x3d04fe88	0.032469302
4	0x3b698d24	0.0035637105
5	0x3bcf5001	0.006326676
6	0x3c59a19b	0.013283159
7	0x3bfc2f7c	0.0076960903
8	0x3d146f48	0.03623894
9	0x3d60ffd9	0.054931495
10	0xbd2f8b17	-0.042857256
11	0x3babc0fa	0.0052415105
12	0x3a19cc68	0.0005866946
13	0xbcf39e65	-0.029738614
14	0x3941af35	0.00018471184
15	0x3c835264	0.016030498
16	0x3d515b63	0.051112544
17	0xbd4bb333	-0.049731445
18	0x3c829894	0.015941896
19	0xbd68f583	-0.056874763
20	0xbc9d040d	-0.01916697
21	0x3d30f46f	0.04320186
22	0x3dbdd59c	0.092692584
23	0xbccc9ad8	-0.024976179
24	0xbd3030f0	-0.04301542
25	0xbc802351	-0.01564184
26	0x3bb9a5cd	0.005665517
27	0xbc0929b9	-0.008371764
28	0x3caeb86e	0.021328177
29	0x3d939dc7	0.07207828
30	0xbd30042d	-0.042972732
31	0xbd301b38	-0.042994708
32	0xbbf4f73f	-0.007475763
33	0xbc4893c8	-0.012242265
34	0x3c866177	0.016403897
35	0x3bd8b0a7	0.0066128555
36	0xbcbd0601	-0.023074152
37	0xbc5df8b2	-0.013548063
38	0xbd71fa4a	-0.059076585
39	0xbd37b83a	-0.044853427
40	0xbcb84117	-0.022491975
41	0xbc884f2b	-0.016639313
42	0xbd2e9d5f	-0.04263055
43	0x3bbe84ee	0.0058141863
44	0x3be63fda	0.0070266547
45	0x3c94bf58	0.018157646
46	0x3bfbfe77	0.0076902467
47	0xbd350d96	-0.04420241
48	0x3c1022fa	0.008797402
49	0xbb91766a	-0.004439165
50	0x3d620079	0.055176232
51	0x3d88a0d3	0.066713
52	0x3d588419	0.052860353
53	0x3d342ebf	0.043989893
54	0x3acf9358	0.0015836759
55	0xbcc7f547	-0.02440895
56	0x3d2b9ad6	0.04189571
57	0xbd378acf	-0.044810113
58	0x3d15da1e	0.036584966
59	0x3a662640	0.00087795034
60	0x3c52fbf0	0.012877449
61	0x3ae45078	0.0017419001
62	0x3d39a99d	0.04532777
63	0xbcf8c0e6	-0.030365419
64	0xbc8de075	-0.017318944
65	0xbc9f3bca	-0.01943769
66	0xbd418e01	-0.047254566
67	0x3d2bed0e	0.04197412
68	0xbc8a3cf0	-0.01687476
69	0xbd6913ab	-0.056903522
70	0xbbee976b	-0.007281234
71	0xb6a2a974	-4.847703e-06
72	0xbc65c3c9	-0.01402373
73	0x3d1ce215	0.038301546
74	0xbcb5167c	-0.022105448
75	0x3ba5ebbe	0.005063503
76	0xbcbd02ac	-0.023072563
77	0xbbaf1cce	-0.00534401
78	0xbd4e148d	-0.050312568
79	0xba8a0234	-0.0010529221
80	0x3d5db611	0.05412871
81	0x3c8b3fdb	0.016998222
82	0x3cd6e68e	0.026232984
83	0xbd110ef6	-0.03541466
84	0x3cf2e0d9	0.029648231
85	0xbcf15a12	-0.029461894
86	0x3cc7a1cd	0.024369145
87	0x3d0aab09	0.033854518
88	0xbcea90c8	-0.02863349
89	0xbd051d11	-0.032498423
90	0xbd218ca7	-0.039440777
91	0xbccae048	-0.024765149
92	0xbc2166c5	-0.009851162
93	0xbc87bd88	-0.016569868
94	0xbc371ff1	-0.011177049
95	0xbd5473d2	-0.051868267
96	0xbce40e4c	-0.027838849
97	0xbcd6111c	-0.026131205
98	0x3d2d1c82	0.042263515
99	0xbc578894	-0.013155121
100	0xbcb1d6ac	-0.021708809
101	0x3d20f527	0.039296295
102	0xbc93ec3d	-0.018056983
103	0xbb806293	-0.003918001
104	0x3c4f89d3	0.012667137
105	0xbc0c3219	-0.008556866
106	0x3cc22a3c	0.02370178
107	0xbcb09be0	-0.021558702
108	0xbca0940d	-0.019601846
109	0x3d0d07b9	0.034431193
110	0xbd135f37	-0.035979476
111	0x3c25317d	0.0100826
112	0x3c9bcf77	0.019019825
113	0x3ca912d1	0.020638855
114	0x3d8e0c43	0.069359325
115	0xbd8ae3e7	-0.0678175
116	0x3c7d9d38	0.015479378
117	0x3d03944f	0.03212386
118	0xbd264b7d	-0.040599335
119	0xbc9dd663	-0.019267267
120	0xbbfea0b7	-0.0077706235
121	0xbd2c68df	-0.0420922
122	0x3caa61da	0.020798612
123	0xbc0c0977	-0.0085471785
124	0x3c97cd25	0.018530438
125	0x3c07d8b2	0.00829141
126	0x3c40de4f	0.0117717525
127	0xbca81ec4	-0.020522483
128	0x3d7471e6	0.059678935
129	0x3d527927	0.05138507
130	0x3d915ff6	0.07098381
131	0x3cae975b	0.021312406
132	0xbd37fbfe	-0.044918053
133	0xbd061f81	-0.03274489
134	0xbcb5e776	-0.022205096
135	0x3cd0afc3	0.025474435
136	0xbd14dd66	-0.036343955
137	0x3d0e116d	0.034684587
138	0x3d8c3425	0.06845883
139	0xbd0737f2	-0.033012338
140	0x3d736bb3	0.05942888
141	0x3dae4a4b	0.08510264
142	0xbc5a8d88	-0.013339408
143	0x3d999d48	0.07500702
144	0x3d1dbdfb	0.038511258
145	0x3ce8cb6c	0.028417312
146	0xbc8cf227	-0.017205311
147	0xbd557f30	-0.05212325
148	0xbd244c87	-0.040112045
149	0xbd1d4665	-0.03839721
150	0x3d5c2f9e	0.05375635
151	0xbc93b7ef	-0.018032042
152	0xbc9c446b	-0.019075593
153	0x3d6790c1	0.056534532
154	0xbb3465f1	-0.0027526582
155	0x3ca26ff4	0.019828774
156	0x3c84c664	0.016207881
157	0x3bc55706	0.006022337
158	0x3d017435	0.031604964
159	0xbd5218e7	-0.05129328
160	0xbd0f1d95	-0.03494032
161	0x3d829029	0.063751526
162	0x3cea08f4	0.028568722
163	0xbcbf3315	-0.023339787
164	0xbd1fc713	-0.03900821
165	0x3cde216c	0.027115546
166	0xbcc7fb7d	-0.024411911
167	0xbcabc937	-0.02096997
168	0xbce455f0	-0.02787301
169	0x3cd5fd01	0.026121618
170	0xbc1a7edd	-0.009429661
171	0x3ca19ef9	0.019729124
172	0x3d4871c5	0.048936624
173	0xbd08520b	-0.033281367
174	0xbd0cd180	-0.034379482
175	0xbd1c7b91	-0.03820378
176	0xbc606314	-0.013695497
177	0x3beb8dac	0.0071885195
178	0x3d2b0946	0.04175689
179	0x3d27d687	0.040976074
180	0x3c242605	0.01001883
181	0xbcab211f	-0.020889817
182	0x3c473d84	0.012160663
183	0x3cb50203	0.022095686
184	0xbc3b7632	-0.011441754
185	0xbc8a2210	-0.016861945
186	0x3d56c8f1	0.052437726
187	0xbd5cbc70	-0.053890646
188	0x3cdf3685	0.027247677
189	0xbd167e5b	-0.036741596
190	0x3d96e673	0.073681735
191	0x3b3c0abb	0.002869292
192	0x3cdd7c5d	0.02703684
193	0x3d12d1f4	0.03584476
194	0xbd916c4b	-0.07100733
195	0xbd087c8e	-0.03332191
196	0xbd27585d	-0.040855754
197	0xbc47f014	-0.012203235
198	0x3c950104	0.01818896
199	0xbcf0868b	-0.02936103
200	0xbc97b468	-0.018518642
201	0x3c755a14	0.01497509
202	0x3c9ba002	0.018997196
203	0x3d6cd538	0.05782053
204	0xbd92e657	-0.0717284
205	0xbd06edea	-0.032941736
206	0x3c9dbf5a	0.019256283
207	0x3cd47565	0.025934884
208	0xbab8511d	-0.001406226
209	0xbd2e563a	-0.0425627
210	0xbc39f49f	-0.011349826
211	0x3cf449dc	0.029820375
212	0xbc8d2edd	-0.01723426
213	0x3ccde245	0.025132308
214	0xba872860	-0.0010311715
215	0xbd1f6762	-0.038916953
216	0xbcaf98d4	-0.021435179
217	0x3d356d7e	0.044293873
218	0x3d3bc4f4	0.045842126
219	0x3d8dc916	0.0692312
220	0x3cc76525	0.024340222
221	0x3c8d251d	0.017229611
222	0xbb79de8e	-0.0038127038
223	0x3d792500	0.0608263
224	0xbb6c3f5c	-0.0036048507
225	0xbd6697f5	-0.05629726
226	0x3d5a9353	0.053363156
227	0x3d40484f	0.04694396
228	0xbd2bc2b8	-0.041933745
229	0xbcc1efe8	-0.023673967
230	0xbccc5ecd	-0.024947548
231	0x3819ed61	3.669912e-05
232	0xbd079210	-0.03309828
233	0x3d5cba82	0.053888805
234	0x3d2a0ddb	0.04151712
235	0xbcfeb3ce	-0.031091597
236	0xbc866fc1	-0.01641071
237	0xbcecad6c	-0.028891288
238	0x3c26dad1	0.010184006
239	0xbcccc62a	-0.024996836
240	0xbb32fab8	-0.0027310085
241	0x3cd9ee6c	0.026602946
242	0xbd0bbf4d	-0.034117986
243	0xbbebdb6a	-0.007197787
244	0xbcc99014	-0.024604835
245	0xbd2bb3c0	-0.04191947
246	0xbd1a2972	-0.03763718
247	0x3d2af313	0.04173572
248	0x3d282b54	0.041056946
249	0x3ce3e9b3	0.027821397
250	0xbc25ebd3	-0.010127026
251	0xbc8187bb	-0.015811792
252	0x3d8d7701	0.06907464
253	0x3d3a2f69	0.04545537
254	0xbd2616dd	-0.040549148
255	0x3cb6be45	0.022307524
