notebooks/checkpoint/shd_rnn_1024r/fc_ho.weight.npz (npz, 82184 bytes, 1 tensors)

arr_0 f4 [20, 1024]
00000000: 0085 1d3d df2d 283c a67a 9e3b 32ad 283d
00000010: ff70 f8bb 9a2b 4f3c 97a4 c83b 5c1f 18bd
00000020: eb7c 50bd 3f63 d43b f0ce 923c ca68 7ebc
00000030: 85dd aebc 4de4 adbc c6d7 02bd ea2d f2bc
00000040: cfb4 5fbc 176c 13bd 987d 253d c078 00bd
00000050: 3150 733d f920 13bc fa13 13bd 3466 0c3d
00000060: 0ef3 b33c 07da fd3b b5b1 efbc 8359 abbc
00000070: 6623 8bbc 7b73 c3bc 33d2 35bd 6073 11bc
00000080: 1d9d a6bc 25c8 173c 028e d9bc a3c5 a5bc
00000090: 13c2 ab3c 1090 67bd 7f6e 06bb 071c 2b3d
000000a0: 1c02 bebc 6995 e23b 137d a93c d86d e63c
000000b0: 1225 133d d351 963c 4ddf 6f3a 11f7 f23c
000000c0: 8e0f 923c e76a aebc c32b 9d3c 77a3 8bbc
000000d0: b6a5 30bc bdb2 f03b 1ca2 423d 6345 a9bb
000000e0: e09f eeba ef6f 2ebd 20c7 a2bc 81a4 883c
000000f0: bd70 ecbc 60f0 dabc 8930 0b3d f8d5 aebc
00000100: 9274 133a a994 9cbb b6aa 8eba 28e2 573b
00000110: e368 e5bb e7e9 053d a4c7 20bc 01d6 73ba
00000120: 34b9 2dbd 89b4 293b 53eb 1b3d a75f fd3b
00000130: 3694 783a c62e fd3c 3792 383c b7a2 f4bc
00000140: 19fe bdbc e801 163d 9d17 a0bc 86ed b7bc
00000150: 1486 0d3c 5f02 a23a f11a bf3c c2ae 073b
00000160: 9e4f 10ba f531 243b e153 5c3c 1fb7 dd3c
00000170: 703a 19bd 683f 8fbc 13f8 bfbc 5ad4 ce3b
00000180: c612 983c 231b 833c 41d8 073c dbe6 acbc
00000190: 85ad 55bc b70e 60bb a7d5 253c 56e4 42bd
000001a0: 5be7 d23b 20f5 ddbc df67 21bd 5831 09bc
000001b0: ebe5 6c3c 9318 be3c 8a8f 35bc 97cf 8cbc
000001c0: adf6 e5bb 9bb7 ca3c b265 9abc 914e 82bc
000001d0: 64e5 193c 3786 153c 0ac8 c6bc 91d4 153b
000001e0: 0486 23bd fcfd f6bc 3104 283c 1e1b 72bd
000001f0: ece8 47bd b7e3 393b dbb4 afbc b6a4 cf3b
00000200: 0da0 863c 286e a83c 2e77 acbc 4451 7c3b
00000210: aecc 273c 9fae ccbc ab63 213b f5a8 0f3d
00000220: 1a47 94bb 50bf 523d 57ad 8fbc cf0a 7d3b
00000230: 7731 b2bb f187 5bbb 772d fcbc f229 56bd
00000240: 995f bebc 2942 543b 369a bc3c e090 183d
00000250: a5ba 8bba e9c9 aeba 298a c8bc 138a febc
00000260: 3f29 82bd 39ff 1fbc 81e8 023c f416 df3c
00000270: 6a16 263b bf34 44bd 18bb be3a b695 c23c
00000280: 9492 e53b 2818 78bc dd91 333c 2995 b7bc
00000290: 6a98 a93c ed18 823c 4b01 84bc 0891 9dbd
000002a0: 1d27 44bc 1ebd b7bc bbe7 1fbc 5e28 76bb
000002b0: 8870 003c cdf7 273c bb7c adbc bdd5 feb9
000002c0: 8798 a83c e225 f3bc ed24 67bc 4361 2ebb
000002d0: 1067 2cbc 9393 923c 2c4a ce3c b1f8 1d3c
000002e0: a06e 2bbc 5dd4 e63b 1601 503c f421 2f3d
000002f0: 6150 10bc e079 febc ccb0 693c 2b88 1a3d
00000300: 8af6 dfbc 4097 24bc 1266 e4bc 8328 dcbc
00000310: b0b7 a03c 2809 f2bc 72dd 003c de6a 13bd
00000320: 84c5 013c 0582 bc3c 7715 b43b 149f a3bc
00000330: 4da5 97bc 04f9 613c f8ca cc3c 4ec7 60bc
00000340: 75a4 ad3c 239d 993c e322 3bbc c1fd 28bd
00000350: 24b7 78bc 085d ca3c f050 b9bc 1825 38bb
00000360: 70ff 06bb 6c30 b53c f55f e13a cbb4 323c
00000370: 0e67 cf3c e0f6 debc af7b ffbc 89a9 923c
00000380: 8868 453c bf0a 463c dabb cabc 7785 ef3c
00000390: 5e56 55bc 5f49 6bbb 2d51 3c3c 26de 27bd
000003a0: 004f 173d fbec 333c d304 a1bc 4c39 e2bc
000003b0: 7597 41bc 7842 9f3c e164 b23c dd51 6fbc
000003c0: d078 a7bb 3091 a5bc f315 6dbc 1f34 2b3d
000003d0: 874b 9e3c 93be 8537 df04 32bd 38c7 203b
000003e0: 9565 08bd 51fe 783c 3289 4cbd c9e3 89bc
000003f0: 5b01 d3bb 9e80 18bd 1ae9 9b3b 1bd5 bd3b
0.038456917 0.010264843 0.004836398 0.041180797 -0.0075818296 0.012644673 0.0061231363 -0.03713928
-0.05090038 0.0064815576 0.017920941 -0.015527913 -0.021345863 -0.021227026 -0.03194406 -0.02956291
-0.013653948 -0.035991754 0.04040298 -0.031365156 0.05940265 -0.008980029 -0.035907723 0.034277156
0.021966483 0.007746938 -0.029259542 -0.020916706 -0.016984653 -0.023858776 -0.044389915 -0.008877605
-0.02033859 0.009264027 -0.026556972 -0.020235842 0.020966565 -0.056533873 -0.0020512638 0.041774776
-0.023194365 0.0069147837 0.020689523 0.02812855 0.035924025 0.018349564 0.0009150401 0.029658826
0.017829683 -0.02129121 0.019185906 -0.01704572 -0.010781696 0.007345526 0.04751788 -0.0051657422
-0.0018205605 -0.042587217 -0.01987034 0.016680004 -0.028862352 -0.026725948 0.033981834 -0.021342263
0.00056249753 -0.004778464 -0.0010884616 0.0032941196 -0.007001029 0.03269377 -0.009813223 -0.00093016034
-0.04241295 0.002589496 0.03806622 0.00773235 0.00094825344 0.030906092 0.011265329 -0.029862745
-0.023192452 0.03662291 -0.01954251 -0.022452127 0.008637924 0.0012360326 0.023328276 0.002070353
-0.0005505028 0.002505419 0.013447733 0.027064858 -0.037409246 -0.01748629 -0.02343372 0.0063119354
0.01856364 0.01600415 0.008291305 -0.021106174 -0.013041859 -0.0034188458 0.0101217395 -0.04758104
0.006436271 -0.027094424 -0.0394057 -0.008373581 0.014459114 0.023205077 -0.011081586 -0.01718883
-0.0070179314 0.024745753 -0.01884732 -0.015906604 0.00939307 0.009126238 -0.024265308 0.0022862295
-0.03992273 -0.030150406 0.010254906 -0.059107892 -0.048806116 0.0028364488 -0.021448543 0.0063367737
0.01643374 0.02056034 -0.021052923 0.0038500587 0.0102416705 -0.02498561 0.0024626057 0.03507324
-0.0045250775 0.05145198 -0.01753871 0.0038611179 -0.0054380256 -0.0033497775 -0.030783398 -0.052286096
-0.023238944 0.0032388067 0.023022752 0.03724754 -0.0010660483 -0.001333532 -0.024479942 -0.031071698
-0.06355523 -0.00976544 0.007990004 0.027232625 0.002534295 -0.047901865 0.0014551608 0.023753028
0.007005999 -0.015142478 0.0109600695 -0.022409992 0.02070256 0.015881026 -0.016113898 -0.07693678
-0.011972216 -0.022429045 -0.009759839 -0.0037560682 0.00783933 0.010251951 -0.02117764 -0.00048605903
0.020580543 -0.02968115 -0.014107925 -0.0026608265 -0.010522619 0.017892634 0.025181852 0.009641812
-0.010463387 0.0070443586 0.012695571 0.04275699 -0.008808226 -0.031063974 0.014263343 0.037727516
-0.027339239 -0.010045826 -0.027880702 -0.026874786 0.019618839 -0.029545382 0.007865297 -0.03599059
0.007920627 0.023011217 0.005495723 -0.019973315 -0.018511439 0.01379228 0.024999127 -0.013719393
0.021196583 0.018751686 -0.011421892 -0.041257624 -0.015180383 0.024702564 -0.022621602 -0.0028098281
-0.002059903 0.022117816 0.0017194735 0.010907362 0.025317695 -0.027217329 -0.031186907 0.017903106
0.012048848 0.012087523 -0.024747778 0.029238446 -0.01302108 -0.0035901887 0.011493963 -0.04098334
0.036940575 0.0109817935 -0.01965562 -0.027615212 -0.011815895 0.019440874 0.021776618 -0.01460692
-0.0051108375 -0.020210832 -0.014470565 0.041797753 0.019323124 1.5943579e-05 -0.043461677 0.0024532806
-0.0333 0.0151973525 -0.049935527 -0.01683225 -0.0064393706 -0.037232034 0.0047580125 0.0057932264
