notebooks/checkpoint/shd_rnn_256r/fc_ho.weight.npz (npz, 20744 bytes, 1 tensors)

arr_0 f4 [20, 256]
00000000: d070 8cbc 6453 62bd 47a6 913c 6957 a63c
00000010: 81af 53bd de41 8bbd aaca bcbd fe45 7bbd
00000020: 9ff2 633d 01a4 853c c682 283d 25e6 153c
00000030: 7f49 43bd f257 5a3d 32b8 dc3c 0710 213d
00000040: e113 6ebc edb1 a23d 1500 7a3c 6114 f5bc
00000050: 84f6 4fbd 6f02 eebc 06b8 883c 474b ae3c
00000060: 823d 3fbd ba2b 7c3c 1ce7 d2bc 28c0 593d
00000070: 0537 ffbc 0317 a7bd 9094 c1bd 8e91 9ebd
00000080: 7ad4 a53b eed5 c5bc 2871 fe3c 6456 4d3b
00000090: ea6d 84bc 2b30 0b3d c658 853d 721f 74bc
000000a0: 3bf4 c2bd a3c4 39bd 2a80 3abd d27e 85bd
000000b0: ff44 b3bc 89e3 403d 86b3 963c a483 09bd
000000c0: 67da 3dbc 1e2c 54bd 9bcf 6dbc 7859 3e3d
000000d0: a5af 9b3c f3a9 01be be25 48bc 0fa7 883c
000000e0: ce5f 8e3c 06d9 28bd aae9 7e3d 3a27 a7bd
000000f0: b9d1 733d 7d96 583c 0a89 d93b 4085 ec3c
00000100: 3027 763c 0f4b 62bd eec4 bcbc cb34 113d
00000110: d899 80bd 3efa fe3c 9434 03be acd9 703a
00000120: 9821 bebc b84b fabc 815b 79bd 17ba 2139
00000130: a963 76bd b88a f63c c261 51bd b190 7b3d
00000140: 1630 7bbd 14b4 e93b 8446 1d3d 2ccc c7bc
00000150: da01 00bd be10 713c 2c4d 78bd cafc c4bd
00000160: 44a3 85bc e94e d5bd ee39 1c3d 4956 66bd
00000170: 7232 f93c dc2b 173d dc3d 55bd c764 2f3d
00000180: 3f42 783c eca8 353d b35b 073d ce5a eeba
00000190: 7068 903c 2044 a6bd ac8e 483d 11af 763b
000001a0: 1956 db3c 2051 7d3d a8d9 be3d 0762 f8bd
000001b0: cfbf e0bc 859e 9bba f150 4fbc ba26 143d
000001c0: 6d0d efbb 7d22 d93c 624f 4abc 8d4c 2abc
000001d0: 201e b33c cb0c 18bd 8a46 88bc ef95 bbbd
000001e0: 223f d33c 4efd 8ebd 264c 62bc a69b 2a3d
000001f0: 4a7e 8cbd 304f 11bd 0f8d 3a3d 25c3 fb3c
00000200: 13c8 a5bd caa9 b6bc c4bc 873d 988a aa3c
00000210: a4ad b1ba acce 00bd 503a 99bd 5c58 15bd
00000220: fec5 36bd ee15 2e3d 1512 e53c 27d0 933c
00000230: 2caa 423d 36c9 3fbd 996c 4e3d 8049 1dbd
00000240: ed0b 573b dd50 50bc 21ed 133c ad74 09bc
00000250: 8423 f73c 6463 423d 5265 55bd 6f7a abbd
00000260: 5679 373c c8eb 83bb 24d0 92bd 0a52 e23b
00000270: 5b7a 4f3d 0b8e adbd fe30 333a e1a3 903c
00000280: bd6e 193c e973 c03c c482 5d3b c426 5abd
00000290: b636 023d bb38 8fbd 83a4 433d d52c d0bc
000002a0: 80f3 8b3c b0bc 283b 229a debc 720b 033d
000002b0: 2bff 11bc 7553 aabd 517f 80bd e110 6abd
000002c0: cf24 ce3c 125e 0e3d 31ea bdbd a80f 14bd
000002d0: 5839 3f3d 621d 5e3d 7b64 943d 3372 56bd
000002e0: 2477 b0bd 134e 653a 3150 a1bc e8c5 a6bd
000002f0: 1542 033d 94ad 2fbc 292a 893d 9e34 a43c
00000300: 124d 7fbd 1c74 1c3d 80d1 093d 3c02 f83c
00000310: 9121 0ebd 182e 4ebd fe61 723d e22a 0c3b
00000320: 2c97 d3bc a474 25bd 3a1d 8cbd eae1 463b
00000330: 7ef3 1bbd 17a2 b53b 90c4 f23b 9f59 7cbd
00000340: 3c95 12bd 25f4 2e3c a630 97bd bbe4 e8bb
00000350: 64f8 69bd 409f 9a3d 329d e2bc eef6 b03d
00000360: 264c acbd 97ad 44bd 0c48 55bd 078f 40bd
00000370: 1038 053d fa5a 063d f954 e1bd 0e07 6bbd
00000380: af80 533d e42e 003d 48d1 53bd 6118 e63a
00000390: 26ac 84bd 6ada 243d 2378 b93c 424b 3dbd
000003a0: 7881 923d 0543 3c3c a8bb 62bd cff0 d83a
000003b0: 862b 573d c8e3 30bd f307 7ebc 10ee 81bd
000003c0: 8f60 95bc 9440 b83d e7f4 11bd 6333 993d
000003d0: 663b f3bb bd19 58bc 09c4 6e3d 820c 45bb
000003e0: 7365 6fbd 6871 433b 11c7 273d deb4 54bd
000003f0: f2a9 583d 3364 57bc 4d6a 503c 50a7 413d
-0.017143637 -0.05525531 0.017779483 0.020305352 -0.051681045 -0.067996725 -0.092183426 -0.061346047
0.055651303 0.016313555 0.04114034 0.009149109 -0.047677513 0.053306527 0.0269433 0.039321925
-0.014531107 0.07944093 0.015258809 -0.029916944 -0.050772205 -0.029053895 0.016689312 0.02127613
-0.046689518 0.015391285 -0.025744967 0.05316177 -0.031154165 -0.08158686 -0.09452164 -0.07742606
0.0050607296 -0.024149861 0.031059816 0.003133201 -0.016165692 0.033981483 0.06511073 -0.014900075
-0.095192395 -0.045353543 -0.045532383 -0.0651833 -0.021883486 0.047091994 0.01839615 -0.033572808
-0.011587716 -0.051799886 -0.014514829 0.046472043 0.019004652 -0.12662487 -0.01221603 0.016681222
0.017379668 -0.041222595 0.06223456 -0.08161779 0.05952618 0.013219473 0.006638651 0.028872132
0.015023991 -0.055247363 -0.023043122 0.035450738 -0.06279343 0.031125184 -0.12813026 0.0009187709
-0.023209378 -0.030553684 -0.06087828 0.0001542348 -0.060153637 0.030095443 -0.05111862 0.061417285
-0.061325155 0.0071320627 0.038397327 -0.024389349 -0.031251766 0.014713464 -0.06062047 -0.09618528
-0.016313203 -0.104154415 0.038141184 -0.05623463 0.030419562 0.036907062 -0.052060947 0.04282072
0.015152513 0.04435055 0.033046436 -0.0018185021 0.017627925 -0.081184626 0.048964188 0.0037640969
0.026774453 0.061844945 0.093188584 -0.12128072 -0.027435211 -0.0011872804 -0.012653575 0.036169745
-0.0072953016 0.026505703 -0.012348028 -0.010394228 0.02186495 -0.037121575 -0.016635198 -0.09159457
0.02578694 -0.06981908 -0.0138121005 0.041652344 -0.06860025 -0.03547591 0.04554468 0.0307327
-0.08094802 -0.022297759 0.06627801 0.02081804 -0.0013555777 -0.031447098 -0.07481825 -0.03646122
-0.044622414 0.042501383 0.027962724 0.01804359 0.04752557 -0.04682275 0.050396536 -0.038400173
0.0032813505 -0.012714592 0.009028704 -0.008389634 0.030168302 0.047458068 -0.05209858 -0.08372962
0.011198362 -0.00402591 -0.07168606 0.0069067525 0.050653797 -0.08474358 0.00068356085 0.017656269
0.009364781 0.02349277 0.0033799866 -0.053259626 0.031790458 -0.06993242 0.047764312 -0.025412003
0.017083883 0.0025747232 -0.027173106 0.031993337 -0.008910934 -0.083166994 -0.06274284 -0.057145003
0.025164036 0.03475768 -0.09273184 -0.036147743 0.046685547 0.05422724 0.07245728 -0.052355003
-0.08616474 0.00087472907 -0.019691559 -0.08143216 0.032045443 -0.010722537 0.066974945 0.020044621
-0.06232936 0.038196668 0.03364706 0.030274503 -0.03469998 -0.050336927 0.059175484 0.0021387865
-0.02582892 -0.04039444 -0.06841512 0.0030347058 -0.03807401 0.0055430043 0.007408686 -0.061608907
-0.035786852 0.010678326 -0.07382326 -0.007107345 -0.05712165 0.07549906 -0.027662847 0.08640848
-0.08412962 -0.04801711 -0.052070662 -0.0470114 0.03252417 0.032801606 -0.110025354 -0.057379775
0.051636394 0.03129472 -0.051713258 0.0017554873 -0.06478147 0.04024736 0.022640293 -0.04621435
0.071536005 0.011490588 -0.055354744 0.0016551259 0.05253174 -0.04318598 -0.015504825 -0.06344235
-0.01823452 0.08996692 -0.035633948 0.07480504 -0.0074228523 -0.01318973 0.058292422 -0.003006727
-0.05844636 0.0029822234 0.04096133 -0.0519303 0.052896447 -0.013146448 0.012720657 0.047278702
