notebooks/checkpoint/shd_rnn_256r/fc_hh.weight.npz (npz, 262408 bytes, 1 tensors)

arr_0 f4 [256, 256]
00000000: bffa 8dbc 0262 b83c a57b 7bbd 08b0 b93b
00000010: 68dd b73c eba8 25bd b264 25bd fdce e6bb
00000020: feb1 46bd 9f1b 833c f7c8 de3c cb55 6d3d
00000030: fbc8 7d3c 394d 54bd 7dbf 0abd 40cc 24bd
00000040: 8bf6 9abc f89c 983b 1e19 c13c 5a3a 203d
00000050: 6864 033d 6885 dd3c 82f8 a8bc fb5b 6fbc
00000060: 0cb8 37bd f39b 8b3b 159d efbc 881c df3a
00000070: e7fd 103d 8d85 3e3c 1db5 333c 41bc 87bc
00000080: 90a9 f83c 8494 7fbd 2031 9cbc 5e93 79bd
00000090: 98c6 01bd 1f07 c33c de80 25bd c16d 0b3c
000000a0: 1942 4abd 8918 15bd b16e 1a3d a83d 95bc
000000b0: a433 733d e27b 46bd 2ea0 9c3c 489d c33c
000000c0: b866 473d 07d7 363b 4258 583d 96d9 9dbc
000000d0: 06e3 953b c2a6 27bc cb37 4cbd 17b5 86bd
000000e0: cc2d fdbc 654b 713c c3e9 643d 752c b8bc
000000f0: 66c0 043d 9ebb 243d 7b4f 4fbd dc9f 02bd
00000100: ef62 e83b 8fea 3fbd b509 bcbc a7e0 b6b7
00000110: d19e 5bbc 4662 d83c c84c 96bd 78f2 9dbd
00000120: 3496 3f3c 2c2e be3c c156 0b3d 3a66 76bd
00000130: 2284 24bc 0e4e 41bd 3ed4 943c 89ed 423d
00000140: fa23 40bd af97 29bd 3234 003d 3e02 09bc
00000150: bdc1 413c adb9 2c3d ec2f 0bbd 9275 693c
00000160: d4fd 41bc 9b9f d73c 6f1b 083d 2e02 1abd
00000170: 6e49 21bd bc1e 7fbd d1b6 78bc c7c2 d13c
00000180: 22e0 ae3c dfd7 85bd 24fb 3abc b6af 76bd
00000190: 507a 3dbd b753 c7bc 91e1 bd3c 925b 523d
000001a0: 8d43 46bd 755e cd3c 5065 0f3d 5287 02bc
000001b0: 553b 88bb c0ef 0fbc fa16 7bbb e0e0 61bd
000001c0: df03 87bc 59a8 45bd e6f1 243c 5cc0 8a3b
000001d0: b008 7c3c 2597 c2b9 b576 003d ca1e 3f3c
000001e0: 77f3 74bd 80db 30bd 3f73 4fbd 7bf8 2a3d
000001f0: c1a0 d83c 7aa3 16bb 565a e4bc 9c07 f5bc
00000200: 35ef 323d e771 d0bc 9de0 acbc b31a 4d3d
00000210: 7981 7ebc 185d 183d f561 e03c 66c1 cfbc
00000220: 4cf8 0a3c debf 5b3c e2c7 37bd 543f 193d
00000230: b0bc 2bbc 55ec 9bb9 1a0f 383d 4b21 803d
00000240: 5107 ebbc d5cb 29bd 7361 c7bc d055 73bb
00000250: 23a9 413d 8837 433d 09f0 bb3c ed48 a6bc
00000260: 2f82 583d 8c88 f5bc eb86 6fbd d0ac 21bd
00000270: 1d50 1cbd 7e92 ce3a e246 173c 0cb5 4b3d
00000280: a6ec 0fbc 45b2 f7bc 1835 59bd 469a bfbc
00000290: e116 2cbd bc3a 55bd 8be2 333d 81a8 253d
000002a0: 8592 21bc 5331 b93b 6652 63bd e8f3 1dbd
000002b0: cf7a 763d 1bb4 31bd 601e a03c ea5c 8ebd
000002c0: 98bc 38bc 91b7 9c3c 2aa6 6a3d f2dd c2bc
000002d0: 1727 253c d256 103d f9c8 383d 0576 82bd
000002e0: c3b1 4b3d aea1 0cbd f70b 623c 2df6 cd3b
000002f0: b206 6cbd 38d7 853c 1721 253d 8391 79bd
00000300: 75f3 3dbc d39a 9c3c 7cec 1ebc f480 68bd
00000310: 832f 2d3b 3446 54bd a194 8abc 9ea4 523d
00000320: d421 5f3d f426 5dbd 0b78 86bd 8379 1a3d
00000330: da54 a83c a72c 2d3c bdfe f43c 3056 c0bc
00000340: 7da9 b9bc abda 253d cfd7 393d 4597 183d
00000350: 208c a73c fcaf 523c be6b 22bd 9c75 3dbd
00000360: 90f2 49bd d3db be3c 2c8b e7bb 0cb3 ff3c
00000370: 0b51 143d cdd2 60bc 64b9 d23c 439a 283c
00000380: b6f9 76bd 2029 943b 056d 5bbc d137 1ebd
00000390: b920 74bd 5a56 f03c 8ff8 26bd 9ea7 24bd
000003a0: 0c1b 1fbd 4b91 ee3c e5cf 3ebc 997c 42bc
000003b0: d719 44bc d313 83bc 3c14 d9bc a9ef 423d
000003c0: 936b 0b3c 0b5e 363d 0fd1 e139 9cc4 e6bc
000003d0: 888b 623d 94d6 3dbd 93fc ba3c d1c4 393c
000003e0: a072 d03c b96e 93bd 6e7b 8abc c9e4 11bc
000003f0: ecd7 d93c 38d8 80bd 9104 693c c229 203d
-0.01733148 0.022507671 -0.061397213 0.0056667365 0.022444442 -0.040444296 -0.040379234 -0.007043718
-0.04850959 0.016004382 0.027195437 0.057943147 0.015489812 -0.051831458 -0.033874024 -0.04023385
-0.018916389 0.004657384 0.023571547 0.03911815 0.032078177 0.027041152 -0.02062631 -0.014609332
-0.044853255 0.004260534 -0.029249707 0.0017022053 0.03539839 0.011628521 0.010968474 -0.016569259
0.030354291 -0.062397495 -0.019066393 -0.060931556 -0.031683534 0.023807107 -0.0404061 0.008510054
-0.049379442 -0.03640035 0.03770322 -0.018217877 0.05937542 -0.048457988 0.019119348 0.023878708
0.048681945 0.0027899162 0.052818544 -0.019268792 0.0045741824 -0.010232629 -0.049857896 -0.06577509
-0.030905627 0.014727448 0.055886995 -0.022482136 0.032410048 0.04021799 -0.050612908 -0.031890735
0.007091872 -0.046854552 -0.022953847 -2.1800703e-05 -0.013404564 0.026414048 -0.073388636 -0.07712263
0.011693526 0.023215376 0.03401828 -0.060156085 -0.010041269 -0.04719358 0.018167611 0.047589812
-0.04690931 -0.041404422 0.031299777 -0.008362351 0.011825976 0.04216926 -0.03398125 0.014249222
-0.0118403025 0.026321223 0.033229288 -0.037599735 -0.03937667 -0.06228517 -0.015180306 0.025605572
0.02134711 -0.06535315 -0.011412416 -0.060226165 -0.046259224 -0.02433191 0.023178848 0.05135686
-0.048404265 0.025069455 0.03500873 -0.007966833 -0.0041574636 -0.008785188 -0.0038313256 -0.055146098
-0.016481338 -0.048256252 0.010067439 0.004234357 0.015382931 -0.00037115175 0.031363208 0.0116650555
-0.0598025 -0.04317808 -0.050647017 0.041740876 0.026443841 -0.0022985623 -0.027875107 -0.029910855
0.043685157 -0.025444938 -0.021103198 0.05007429 -0.015533798 0.037198156 0.02739046 -0.025360774
0.00848205 0.013412444 -0.044868357 0.03741391 -0.010481998 -0.00029739985 0.044936277 0.0625635
-0.028690012 -0.041454155 -0.02433846 -0.0037130006 0.047280442 0.04766038 0.022941606 -0.020298446
0.052858528 -0.029972337 -0.058478277 -0.039471447 -0.03816234 0.0015760211 0.009233208 0.049733207
-0.008784449 -0.030236373 -0.05302915 -0.023388993 -0.042014007 -0.052057967 0.04391722 0.0404439
-0.009861593 0.005651632 -0.055498503 -0.038562685 0.060175713 -0.043384653 0.019545734 -0.06951316
-0.011275433 0.0191305 0.057287373 -0.023787472 0.0100801205 0.03523905 0.045113537 -0.06370167
0.049730074 -0.034333877 0.013796798 0.00628545 -0.057623573 0.016337976 0.04031476 -0.060929786
-0.011593689 0.019116795 -0.009699937 -0.056763604 0.0026426024 -0.051824763 -0.016916575 0.051426522
0.05447562 -0.053992227 -0.06565865 0.03771354 0.020548273 0.010569728 0.029906625 -0.023478597
-0.022663826 0.04049174 0.045371827 0.037253637 0.020452559 0.012859341 -0.039653532 -0.04625474
-0.04930359 0.02329818 -0.007066151 0.031213306 0.0362101 -0.013722134 0.025723167 0.010290685
-0.060296737 0.004521504 -0.0133926915 -0.03862745 -0.05960152 0.02933805 -0.040764388 -0.040198915
-0.038844153 0.029122015 -0.011646246 -0.011870527 -0.011969051 -0.016000664 -0.026498906 0.04759184
0.008509534 0.04452328 0.00043071105 -0.028169923 0.05530885 -0.046347216 0.022825515 0.011338429
0.025445282 -0.07198853 -0.016904559 -0.008904644 0.026592217 -0.062912405 0.01422228 0.039102323
